checkpoint_critic1d.pth (torch_old, 159738 bytes, 5 tensors)

fcs1.weight f4 [256, 24]
00000000: 4caf 143f 4250 933e 6443 673b 95c7 6d3d
00000010: 621f c33c 30ce 4abf 8a34 35bd 68a9 003e
00000020: a6c7 f73e 8f45 c83e f05c 90bd b960 833e
00000030: df59 973d 539c 09bf 7b6f f03c f998 873e
00000040: 273d be3e fb80 463e 4b2b 9d3d 9cd6 0a3e
00000050: 5968 39bd 08d8 debc 5951 98bc 9ef1 263e
00000060: 8899 13bd ac8f 923e dc09 28bd 9f81 34bd
00000070: 345c 9fbe 80ba b8bd bc62 6f3b b2c2 85bd
00000080: da25 2fbd 440c 783e f004 e4bc c5c3 173e
00000090: 4538 263d 46a2 243e f1d2 82bd 7ea9 153e
000000a0: 05d8 2c3e 3d97 923e 3d2b 723c 9906 5ebe
000000b0: ec7b 203f 23b2 763e db47 6a3d 4b72 41be
000000c0: 952f 9b3d 5058 ea3e 7ae6 03bc a7c8 cebd
000000d0: bc4d 693e 84b8 46be c62b 593c df50 b3bd
000000e0: c40c f23d 561f f93e 2332 44bb 387a 183c
000000f0: 211a b73e c3ba 74be 7201 3a3c d6d3 af3d
00000100: a9d2 453e 6215 e43e 54b5 5f3d 8870 9b3d
00000110: 3029 543e 8f9f a3bd 2b01 98bb 3277 a03d
00000120: c3f2 2f3d 0a64 f63e c80b cc3c bc2c 3d3b
00000130: 757e fabb f5f7 ae3e 926a 133d 543c bd3c
00000140: f2b6 36bd 7e09 023f cfca 1fbd 1840 20be
00000150: 7f12 333d 8a67 1a3e 0268 cc3c 18cc 6fbe
00000160: f9df 12be 2085 e23e f782 30bd 0282 55be
00000170: a850 383e 83af 34bf 05e5 e5bc efe0 5dbe
00000180: 60a1 b63e e0f9 8f3e 00e5 cdbc 951b 2e3d
00000190: b5a3 9fbd e49d 95bf 9aa8 113d eefe 34bb
000001a0: e1e5 0b3e dd3b be3e 8e86 babd e0b7 85bd
000001b0: f207 acbd ee5b 8ebf e733 e7bd e3af 013d
000001c0: 3316 ae3e 2f8f ad3e 4ffc b23c 793d 0dbd
000001d0: cdb3 50be a80f 75be 0175 813d e068 9dbd
000001e0: 6b93 153f 80eb cf3d f113 803a 33f5 36be
000001f0: bf06 9d3b 6314 47be c246 23bd 7f50 61be
00000200: a00f 223f a86e 07bd 8dde 4abc d979 7abd
00000210: c24d 393c df70 1dbe 7f07 18bd ab8a adbd
00000220: 7d1c 0d3f 6539 963d dd12 97bc 7bb8 e2bc
00000230: 0928 f03c 0c47 a3be 1235 39bb 8a3b cebd
00000240: 1f4c 133f 12a3 d33e d352 e0bd 8364 863d
00000250: a75b a9bd c2a8 3cbe 4a1d 8dbd dffa f33d
00000260: 5b3a 0e3f c168 dd3e 2fb3 f5bc 02b4 7e3e
00000270: 5631 7fbd 7cc0 86be 3068 e4bd d5c1 4e3e
00000280: e2ea ba3e 5ec8 073f 3ce7 27bd a665 cc3e
00000290: 42e7 3a3c b89e d5be 8aa2 32bd 3b8c e13e
000002a0: b4b4 cb3d f67b 7d3e 4aa7 94bc 4b7d 49bc
000002b0: 55e1 aabd 9d85 9b3e 12c7 803c 2648 293c
000002c0: e9e6 6a3d d230 5f3e 084b 67bd d22f a3bd
000002d0: 8236 43bc ee4e 9f3d 5e62 773c 0ef7 21bc
000002e0: 2a12 83bd 8638 243e f267 1ebd cf9e 963d
000002f0: 2cfa 583d b6f1 b7bd 03bb 8bbc b9a1 1b3d
00000300: b2cc 1c3d 7ae6 983b d0bd bebb 9a9f 55bd
00000310: dfba 85bd 6227 e3be c19a 7a3c 4d78 9cbd
00000320: ac32 1b3e 04a9 b73d 9c50 503d d2fc 003e
00000330: 4d79 5bbe 0707 dfbd d798 06bd 006f 413d
00000340: 6a58 a13e 43a6 a23d c3c5 adbc ee03 b2be
00000350: f3d2 f2be cbc1 073f 102e 9ebc bc8c bebe
00000360: 220b 403c e3df 5d3e a11a 1ebd d711 6fbc
00000370: de78 3339 3f13 f4bd d493 f03c 3fd4 b8bc
00000380: 3cc8 003e c887 323e 8b61 c63c e372 d6bb
00000390: fb89 25bc eab2 c3bd ef48 34bd 7f91 8bbc
000003a0: b4f1 133d fe70 7a3e 6a7c 4cbd d5b9 8f3d
000003b0: 107b b5bb 5f4f 56bd 3c8b fc3c 3adc 0b3d
000003c0: e7b1 c1bd ccf0 493f cff0 d63b 79b8 b53e
000003d0: e838 f0bd 36c5 a2be e75a d7bb 71e3 ce3e
000003e0: 2393 ca3c 1d58 5e3f fc34 083d cb12 033e
000003f0: 0a8e 94bc 0aa6 12bf 9eae 51bd 0366 103e
0.5807998 0.2877217 0.003528797 0.058051664 0.023818675 -0.7922087 -0.04423956 0.12564623
0.48394507 0.3911557 -0.070489764 0.2565973 0.073901884 -0.53754157 0.029350033 0.26483896
0.3715603 0.1938514 0.07674273 0.1355843 -0.04526553 -0.027202621 -0.018593477 0.16303107
-0.03603509 0.28625238 -0.041025028 -0.04406893 -0.31125033 -0.09019947 0.0036527356 -0.06531276
-0.042760707 0.24223429 -0.027834386 0.14820774 0.040581007 0.16077527 -0.0638789 0.14615437
0.1687928 0.2863101 0.014780817 -0.21682204 0.6268909 0.24091391 0.057197433 -0.18891256
0.07577435 0.45770502 -0.008050555 -0.10096865 0.2278356 -0.19406325 0.013255065 -0.08755659
0.11818841 0.4865672 -0.002993711 0.009306483 0.35762122 -0.23899369 0.011352884 0.085853264
0.19318642 0.44547564 0.054616287 0.07589823 0.20718837 -0.07989418 -0.004638811 0.07835235
0.042956125 0.481232 0.024907961 0.0028865775 -0.0076444694 0.3417355 0.035990305 0.023100056
-0.044608064 0.50795734 -0.039011773 -0.1564945 0.04371881 0.1507856 0.024951939 -0.234177
-0.14343251 0.4424219 -0.043093648 -0.20850375 0.17999518 -0.7058031 -0.028063307 -0.21667837
0.35669994 0.28120327 -0.02513361 0.042506773 -0.077948965 -1.1688809 0.03556118 -0.002761777
0.1366191 0.37155047 -0.091076955 -0.06529212 -0.08399953 -1.1121805 -0.112891965 0.03166188
0.34001312 0.33898303 0.021848826 -0.034482453 -0.20381089 -0.23931754 0.06321145 -0.07686019
0.58428067 0.1015234 0.0009771568 -0.17866974 0.004792064 -0.1944137 -0.0398624 -0.22003363
0.6330509 -0.033064514 -0.012382162 -0.06115136 0.011310043 -0.15375088 -0.037116524 -0.084737144
0.55121595 0.07335166 -0.018441612 -0.027675858 0.029315965 -0.31890142 -0.0028260392 -0.1006995
0.57538027 0.4133535 -0.109532975 0.0656214 -0.082694344 -0.18423751 -0.06890352 0.11913084
0.55557793 0.43243983 -0.029992668 0.24873355 -0.06230291 -0.2631873 -0.11152685 0.20191129
0.36507326 0.5304011 -0.040992007 0.39921302 0.011407675 -0.41722655 -0.04361204 0.440523
0.09946576 0.24754319 -0.018146176 -0.012297939 -0.0834376 0.30375376 0.015719924 0.010332143
0.05734912 0.21795967 -0.05646804 -0.079681054 -0.011914851 0.077787265 0.015099136 -0.009885563
-0.06399949 0.16037187 -0.03867335 0.07354509 0.052972957 -0.089816496 -0.017056948 0.037996028
0.03828115 0.004666147 -0.0058209673 -0.05215416 -0.065297835 -0.44365984 0.015295685 -0.07640133
0.15156049 0.08967784 0.050858125 0.12596443 -0.21432991 -0.10890012 -0.032860603 0.047225
0.31512767 0.07941868 -0.021212464 -0.34768623 -0.47426566 0.5303008 -0.019309074 -0.37216747
0.011721404 0.21667437 -0.038599614 -0.014591656 0.00017115797 -0.119177334 0.029367365 -0.022562144
0.12576383 0.17434609 0.024216434 -0.0065444573 -0.010103698 -0.095556095 -0.044014867 -0.017037151
0.036119178 0.24457166 -0.049923338 0.070178665 -0.005538352 -0.052321788 0.03082811 0.03414557
-0.0945776 0.7888305 0.0065594683 0.35492304 -0.11729604 -0.31791085 -0.0065721157 0.404079
0.024728363 0.868532 0.033253655 0.12800138 -0.018134136 -0.57284606 -0.05119192 0.14101414

fcs1.bias f4 [256]
00000000: afa5 87be 5e48 53be 0748 8abe beb4 c4bc
00000010: 87be f1be 2aec e4be f0cb dabe 64e5 8abe
00000020: 4f0a 0bbf 8e5a 48be c1f7 1d3c ac4b 8dbe
00000030: ed69 893e 642c acbe 1e7f 61be 23b6 1c3e
00000040: 2d51 94be e39d 0fbe ffd4 353c ff24 9bbe
00000050: 2bbc 49be 527a 04bf e9b3 0cbe f931 05bf
00000060: 94e0 3ebe e158 27bf c091 39bf c65e f9be
00000070: 07c7 06bf b335 59bf ef24 86be 8cd2 c2be
00000080: 133e 233d 5e2c 573e cc4f bcbd 3cd6 81bd
00000090: c054 b2be 9e94 123e 39d9 47bd e3c0 c9be
000000a0: 1934 f8be 5aa6 c8be 05ec 4f3e 1334 b2be
000000b0: 611a 93be d980 02bf dca9 87be c915 a9be
000000c0: 5928 c23e 0f84 04bd 2bb2 b6be 8405 b5bd
000000d0: 9367 7cbe 068d c1be bba2 d1bc 3a68 36bf
000000e0: a42a e43c b4cc 5cbc eded 16bf a6a9 d53e
000000f0: e446 79be cedf 14bc b4f5 fabd 6a73 22bf
00000100: 48f9 60be aaca 2ebd 73a6 8dbe ac75 a1bc
00000110: 863f ccbe 3a3f cdbe 0041 71be ef5f 603e
00000120: 7306 18bf 6615 e6be 0bf4 a9be b71a 793e
00000130: 7c94 a2be 5c99 3c3e 5f5e c7bd ded4 39be
00000140: 50e5 6fbe 7837 a0bc 8352 8fbe 2a50 c5be
00000150: 4a3e b3bd 84fe 87be 31d4 88bd 807f 84be
00000160: 8afa 5c3c b8ca 9abe 1f06 8fbe 1121 08bd
00000170: 613b 2abf 6324 3cbe 9187 44bf d1d6 98be
00000180: 0472 b8bd 78db 1bbf 7e75 56bd 1e74 2b3e
00000190: 9b0f 99be e028 c2be 4489 32be b632 93be
000001a0: 4b14 29bf 7c8b 1bbe 4b1e aebc aab0 9ebe
000001b0: 5db1 da3d b73f aabe 5c93 e2be 661e c9be
000001c0: a96d 69be 500f 4fbd 0ceb 6937 5c09 0bbe
000001d0: c7f1 7abd 644b 05bf d73b d7bd 7712 52be
000001e0: e716 a8be 1f06 a7be 9cb2 b0bc 23b7 4d3c
000001f0: 59c4 07be 331e 51bd b5b0 15be 4447 e7be
00000200: 0542 0abd 5553 c5be 30ee b6be f7e3 033b
00000210: 279f 9dbe bcc1 8b3d db2d a7bd 6899 a13e
00000220: 5dd0 8abe ea15 65be 814c 493e 88a2 89be
00000230: a6b4 8fbd d486 adbe 7f4d 13be bc91 e2be
00000240: e48a f9bd d25c 88be 095a 45be 7bf6 8cbe
00000250: b9c9 8cbe 802d e53d 08ab 80be 10a3 9d3c
00000260: 661f 75bc ae1d babe 5860 9a3d 1785 95be
00000270: 9d31 353e ac82 90be 6833 bf3d 8443 9ebc
00000280: feb8 afbe 43f6 183e 1481 d9be 0059 08be
00000290: 2ae4 b0be 0889 1d3f 979a 01be f4dc 54bd
000002a0: 7b57 ccbd d8e9 a63e 1dd9 54be 47c4 69bd
000002b0: 3749 e5be 20dd 42be b101 93be 1c82 99be
000002c0: e5af 4fbe ee73 c23b 4780 04be 4304 e4bc
000002d0: e14e 14be bfde ecbd 1eea 6e3d d742 d2bd
000002e0: 23c5 c83e 7e21 8bbe bce5 19bf 6b18 efbe
000002f0: c67b 0dbe fae8 a8bd eb97 c23d dbac e33e
00000300: 8ff4 8ebe 3037 0cbf 8ee7 6e3e 72eb 3fbf
00000310: 064c 07be e7bc ffbc ad99 993d 4088 82bd
00000320: a6a3 7cbd 3292 72be 29b3 fbbd 3c82 04bf
00000330: 639e a83e 5b36 463e 92e9 c8bd 39c8 8bbd
00000340: 6fd1 84be 8908 8b3d 5d19 9dbd 42e1 1bbf
00000350: 85ac 033c 0564 42bc 38ca f9bd 2d21 41bf
00000360: 9553 bf3d c15d e03c 7245 05be f721 b8be
00000370: 2e86 e6bd 7cdd 92be 948f a93d f884 1dbe
00000380: 0a22 2d3e 6e50 42bf f9d5 4abe 6bb0 cdbe
00000390: 48d7 9ebd f9f9 12bf 4c21 893e 4cee 6abe
000003a0: 8a8d 34be f205 8fbe bd6e febe 2ccc 05be
000003b0: 4c4e 86be b93d 7b3e 4afd d7bd efab 3ebe
000003c0: e25d 09bf f325 acbe 0f23 19be ffdb 43be
000003d0: 100d 3ebc e45a 113d aa46 c5be 7c6c 843d
000003e0: 170b 21be 82ca a2be 9888 93be 2b5b c1be
000003f0: 98d6 173d 4210 85bd da7f cdbe a47c 6e3e
-0.26493594 -0.20633075 -0.27008078 -0.024011966 -0.47215673 -0.4471143 -0.42733717 -0.27128136
-0.54312605 -0.19565794 0.009641589 -0.27596796 0.26838627 -0.33627617 -0.22021148 0.15303855
-0.28968182 -0.14025073 0.0110981455 -0.30301663 -0.19700687 -0.51749146 -0.13740505 -0.5202938
-0.18640357 -0.65369993 -0.7248802 -0.4870512 -0.5264744 -0.84847564 -0.26200053 -0.3805126
0.03985412 0.21013018 -0.091949075 -0.0633969 -0.34830284 0.14314505 -0.048791144 -0.39404973
-0.48477247 -0.39189416 0.20304878 -0.34805354 -0.28731063 -0.50977856 -0.2649678 -0.33024433
0.37921408 -0.032352503 -0.35682806 -0.08838943 -0.24648885 -0.37802905 -0.025590291 -0.7125279
0.027852364 -0.013476539 -0.58956796 0.41730994 -0.24343449 -0.009086562 -0.122538954 -0.6345736
-0.21970093 -0.042673744 -0.27666053 -0.01970943 -0.39892215 -0.400873 -0.23559952 0.21911596
-0.5938484 -0.449382 -0.33194003 0.24326597 -0.3175391 0.18417877 -0.09734797 -0.18147609
-0.2342732 -0.0195577 -0.2799264 -0.38537723 -0.08752115 -0.26561368 -0.06681097 -0.25878525
0.013487468 -0.30232787 -0.27934358 -0.03323466 -0.66496855 -0.18373255 -0.7676936 -0.29851392
-0.09006122 -0.6088176 -0.052358143 0.16743514 -0.2989472 -0.3792181 -0.17435175 -0.28749627
-0.6604659 -0.15189928 -0.02125468 -0.3099416 0.106783606 -0.33251736 -0.4425305 -0.39281005
-0.22795738 -0.050551713 1.3942608e-05 -0.13577789 -0.061265733 -0.5206816 -0.105094604 -0.20514856
-0.32829973 -0.32621858 -0.021569543 0.01255587 -0.13258494 -0.05105419 -0.1461819 -0.4517156
-0.033754367 -0.3854014 -0.35728598 0.0020124891 -0.30785486 0.06824061 -0.08163043 0.31562352
-0.27112094 -0.22371641 0.1965809 -0.26881814 -0.07016878 -0.33891928 -0.14385031 -0.44251812
-0.121846944 -0.26633316 -0.19272627 -0.275318 -0.27497652 0.11190319 -0.25130486 0.019242793
-0.014961099 -0.3635077 0.07537907 -0.29203102 0.17694707 -0.28224695 0.09335977 -0.019319303
-0.34320825 0.14937691 -0.4248129 -0.13315201 -0.34549075 0.6153722 -0.12656628 -0.05196853
-0.09977623 0.32600284 -0.20785947 -0.05707195 -0.4478242 -0.19029665 -0.28712228 -0.29982078
-0.20281942 0.00593423 -0.12939559 -0.027834063 -0.14483215 -0.11565923 0.05832874 -0.10266655
0.39212903 -0.2717399 -0.6011617 -0.46698317 -0.13816747 -0.08247562 0.09501632 0.44467816
-0.27920958 -0.5477171 0.23330519 -0.74968636 -0.13212594 -0.031218005 0.075000145 -0.06373644
-0.061679505 -0.23688582 -0.122900315 -0.5176122 0.3293334 0.19356672 -0.09810175 -0.06825299
-0.25941035 0.06788737 -0.07670853 -0.6089059 0.008036737 -0.011864667 -0.12196773 -0.7544125
0.09342114 0.027388455 -0.13014773 -0.35963413 -0.112560615 -0.28684604 0.082793385 -0.15382755
0.16907516 -0.75903976 -0.19808187 -0.4017366 -0.077559054 -0.5741268 0.26783216 -0.22942466
-0.17632118 -0.27934223 -0.49693862 -0.13066167 -0.2623161 0.24535264 -0.10546358 -0.18620275
-0.5365888 -0.33622703 -0.1495478 -0.1912689 -0.011599794 0.03548707 -0.38530475 0.06466004
-0.15726887 -0.31795126 -0.2881515 -0.37764868 0.037069887 -0.064972416 -0.40136606 0.23289734

fc2.weight f4 [128, 258]
00000000: b484 2ebd d29f c7bc 4b5b 9b3d 2552 58bc
00000010: 4d24 443d 8de2 cfbc d2d3 113d 51ec 2a3d
00000020: e47c e7bd c2cd aebb c358 753c 7369 08be
00000030: 82da 03bd ca7c a5bd 51ef 0b3c bd66 523d
00000040: eaf2 d4bd 85a8 0fbd d293 b73c b3b2 6dbd
00000050: 1d8d 0cba 1de8 15be 2999 bb3c 3abb 693c
00000060: 5333 d0bd 44f1 5ebd e011 7cbd 1f3f f23c
00000070: ed5a a93c 1f24 f3bb 07ff 2a3b d5df 62bc
00000080: 826b 5c3d f3e8 e23c 3b82 cabd cf14 513d
00000090: 54c8 f9bc c987 7b3d 4f6f b3bd 3def 04be
000000a0: b331 e539 90d6 223c 015b cbbb 0055 c6bd
000000b0: 3347 69bd fb3a c2bd 2b53 1cbd eec7 50bd
000000c0: 8cd4 6ebd 3506 bbbc d57e 7fbd d4b5 d2bd
000000d0: 46eb b63c 8cbb 47bd 0a22 60bd 13ac 6c3d
000000e0: 8f6f e6bd ac57 ef3c 7227 dbbb cb89 01bd
000000f0: 0e6b b5bc 2550 e5bc b23d 833d b84c c0bd
00000100: 2aab 79bd b909 b7bd a891 6abd e1a5 00be
00000110: db36 333c 5b85 a7bd c269 3bbd 20f4 043d
00000120: e105 86bd c952 27bc 6f3e 84bd 3885 92bd
00000130: aeb5 973c 2aab 073c 8f2c 013d 7a17 c6bd
00000140: 262a 933d c5c3 ecbc 1db1 5f3d e3b7 1abb
00000150: 2fa3 b93c 8c78 3e3d 00ee 2e3d 8cf0 633d
00000160: 6942 b3bd c108 65bb 9737 c53b 02a6 abbd
00000170: b7c1 c6bd 0af0 ddbd 05ec 9f3c 1717 afbc
00000180: 377b 473d 3479 66bd 39e8 52bd 0a7a b3bd
00000190: 4bc4 963d 7801 b3bd 5cdb 87bd f34f c03b
000001a0: 440e bdbc 350e b5bd 0772 2bbd 9ccf 92bd
000001b0: bcb7 193c a245 c1bb cd75 6f3c 4040 2d3c
000001c0: 9853 54bd 9c31 33bd a8bb 9fbd bfe5 593d
000001d0: aa45 b0bd 9752 d3bc af85 df3c 13c7 963d
000001e0: d834 fbbd 6dde 163d 35bc 79bd 47d6 0d3c
000001f0: f947 7cbd 7781 2abd 8b7b 80bd 1da5 a5bd
00000200: 3ba0 99bd 87d4 dfbc 8e9e f7bd 857b 51bc
00000210: 5450 94bd e342 f83a 4dfa cf3c cb44 56bc
00000220: 6d8b 923d fd57 99bc d60a e4bb ecd4 3d3d
00000230: 8f7f d8bc 3431 3abb c75a 003d 97ee 673c
00000240: d68c 96bd 431b 77bd 76f6 bfbc 39fb ffbc
00000250: 423c 5b3d d683 ff3b d4d8 aebd e85c 47bd
00000260: cf48 a43b 2a5a bc3c b44e 55bd 0b63 8cbd
00000270: 7ab7 523b c2a9 2d3d f3ee 4dbc fd19 2a3d
00000280: 09ef c8bc 6ed2 b13c c12a 123d 8d08 75bd
00000290: a991 98bd a2c2 91bc 7914 74bd 4f24 7dbd
000002a0: 3a14 aa3c 74a8 20bd da93 8abd c2be 34bd
000002b0: 2c8a a53d 7cf5 17bc 214f a8bd d9b5 df3c
000002c0: ffa0 663d 4274 623c b5c4 5d3c 4b49 22bd
000002d0: 8c60 043b 443d 29bd 970d 1fbd aecd 9cbd
000002e0: 7fe6 99bd 7bf8 34bd 0dda 393d ac38 eb3c
000002f0: 12ca b0bd 7ab1 633c dd71 b6bc 97d6 39bd
00000300: e1f8 97bc be81 cebd a4d5 c6bb d80f 3dbc
00000310: 2034 86bc 6400 3e3c b0f6 883d 5621 e1bd
00000320: cbb3 5b3d 70fa 9abc 6a52 e63c 18fb 22bd
00000330: a166 10bc c197 4fbd 9bdd da3c 5fae 9ebd
00000340: 4525 3fbd ba6c 77bd a2c3 abbc ad6b 76bd
00000350: 2188 0c3d 70eb 59bd 54e6 16ba 3228 103d
00000360: 7a9f d5bc 96dd c5bd 47e8 5a3d a527 933d
00000370: 41aa c8bc 4d66 47bd fbf1 1d3d 7dd0 83bc
00000380: 547c 8fbd d42a c5bd 9e96 ebbd ab7e 8bbd
00000390: f969 98bd 5625 b8bd ed65 bebd 2eec afbc
000003a0: 3cf6 a93c ab00 a3bc 1c84 21bd 441f 6b3d
000003b0: eb84 19bd 0c0f eebc 129f 903c 0b26 6e3d
000003c0: ff23 1bbc b997 8dbd f4c3 8e3c 29c9 06bd
000003d0: fa4c 873d 5747 4dbd 407d 63bd 05ba cd3c
000003e0: 98be abbc cfd9 99bd 10ed 0a3c cff0 97bd
000003f0: eb2b a9bd 00e9 853d b7d9 da3c 4728 053d
-0.042607024 -0.0243682 0.07585772 -0.0132031785 0.04788618 -0.025376583 0.0356024 0.041729275
-0.11303118 -0.005334587 0.014974776 -0.13321476 -0.032190807 -0.08080442 0.008540944 0.05136751
-0.10397895 -0.035072822 0.022409353 -0.05803175 -0.00053616037 -0.14639325 0.02290018 0.01426583
-0.10166039 -0.054429308 -0.061540484 0.029571114 0.02067324 -0.0074200775 0.002609195 -0.013847311
0.053813465 0.02769897 -0.09888121 0.051045235 -0.030491032 0.06140879 -0.08761465 -0.12981887
0.00043715312 0.009938851 -0.006205917 -0.09684181 -0.056952666 -0.09483906 -0.038165253 -0.050971918
-0.05830817 -0.022830108 -0.062376816 -0.10288587 0.022328984 -0.048762843 -0.054719962 0.05778129
-0.11251747 0.02921661 -0.006688052 -0.03162555 -0.022145774 -0.027992317 0.06408252 -0.09389633
-0.06095425 -0.08937401 -0.057267815 -0.12563278 0.0109383715 -0.081797324 -0.045755155 0.03245938
-0.0654409 -0.010212609 -0.06457221 -0.07154316 0.018519249 0.008280555 0.031536635 -0.096724465
0.071857736 -0.028901944 0.054612268 -0.002360814 0.02266082 0.04650168 0.042707443 0.055649325
-0.08752901 -0.0034947845 0.0060185897 -0.08381273 -0.09704917 -0.108367994 0.019521723 -0.021373315
0.04870149 -0.056267932 -0.051490996 -0.087635115 0.07361659 -0.087405145 -0.06633636 0.0058689057
-0.023078091 -0.088406004 -0.04185679 -0.071685046 0.009382185 -0.0058981935 0.014615488 0.0105744
-0.051837534 -0.043748483 -0.077994645 0.05319762 -0.08607037 -0.025796218 0.027285425 0.07362189
-0.122659385 0.036833216 -0.060970504 0.008657045 -0.061592076 -0.041627374 -0.06273564 -0.080881335
-0.07501265 -0.02732302 -0.12090789 -0.012785797 -0.07241884 0.0018940832 0.025387907 -0.013077925
0.071554996 -0.018718714 -0.0069592996 0.046345636 -0.026428012 -0.0028410675 0.031336572 0.014156005
-0.07351081 -0.060328733 -0.023432951 -0.031247722 0.053524263 0.0077976985 -0.085374504 -0.048672587
0.0050135623 0.022992212 -0.05207701 -0.068548284 0.0032152818 0.04239822 -0.012569177 0.04152869
-0.024528043 0.021706786 0.035685305 -0.059822608 -0.074496575 -0.017793003 -0.059589837 -0.061802205
0.020761598 -0.03922315 -0.06766482 -0.044127233 0.08082995 -0.009274837 -0.08218218 0.027308391
0.05630588 0.013821663 0.013535668 -0.03962068 0.0020199148 -0.041318193 -0.03883132 -0.07656418
-0.07514667 -0.044182282 0.045373965 0.028713547 -0.08632292 0.013897294 -0.022271091 -0.045370664
-0.018551292 -0.1008334 -0.0060679484 -0.011539422 -0.016382277 0.011596773 0.06687677 -0.109926865
0.05363826 -0.018918246 0.02811547 -0.039790243 -0.008813531 -0.050681833 0.026716998 -0.077481024
-0.046666402 -0.060406424 -0.020967308 -0.06016128 0.03430951 -0.053203046 -0.00057563675 0.035194583
-0.02607702 -0.09661405 0.053444173 0.07185296 -0.024495246 -0.048681546 0.03856085 -0.016090626
-0.070061356 -0.096273094 -0.11503337 -0.068112694 -0.07442088 -0.08991496 -0.092967845 -0.021474924
0.020747297 -0.01989778 -0.03943263 0.057402864 -0.037480276 -0.02905991 0.017653976 0.05814175
-0.009469031 -0.069137044 0.017427422 -0.032906685 0.06606479 -0.050116863 -0.05553937 0.025113115
-0.020964906 -0.07512247 0.008479372 -0.074189775 -0.0826033 0.06538582 0.026715143 0.032509115

fc2.bias f4 [128]
00000000: b410 923c dc90 17bd be5a abbd 1a04 a2bd
00000010: 7eb2 9ebd 9410 dbbd 0593 88bd dd24 a5bc
00000020: 13ca ed3c a113 bbbd 91b5 253b b798 d03e
00000030: 4f48 223d 2786 77be 99d1 8fbd 25f1 94bd
00000040: addc 4dbd 6b6c 9bbc 09b6 a5bc 6d96 34bd
00000050: 2298 99bd 9278 62bc babd 02bd 8983 cebd
00000060: 7b84 4cbd ac89 e7bd 72af 69bd 0a0a 193e
00000070: 20cb a8bc ffc6 ac3b cf7e 82bd ba56 15bd
00000080: 92e6 7c3e 319d 74bd afbf f8bd dd4e b2bc
00000090: be82 31bb 199e 91bd 7707 033c 1a14 2cbd
000000a0: adef f4bd 14ba 23be b052 f5bd 5ad2 33bd
000000b0: 5893 1dbd 1515 8abd f3ea eabd d69e 3dbe
000000c0: 0f02 6bbd 219f 4bbd c726 0ebe f6c4 74bc
000000d0: 65fc 4cbd 6d08 aabd 41da e93a 79fd 0ebe
000000e0: e73e 9abc 6fff dcbd 2fff e33c da94 a9bd
000000f0: 3028 74bd d91e e5bd 4f72 a53e c419 36bc
00000100: 3829 acbd ee4f cfbd 58be 27bc e804 efb9
00000110: 222c d0bd 5a24 4cbb 6f25 54bd 896a 7fbc
00000120: e95f e8bd 3b69 e5bc 5b42 24bd 6338 cebd
00000130: aadc 613e 9f94 1bbd 1807 c5bc 74df eebc
00000140: dfa6 be3e 77aa 02be 3338 643c 30b1 a8bd
00000150: 4f04 33bd bd65 71bd 0d31 f8bd 038f 99bd
00000160: 9b12 c8bc 3a6c 70bd 36c8 32bd cc3d 45bd
00000170: 6d84 b3bd f71a 843d 3820 05bc 2541 b9bd
00000180: 4dad fbbd 9393 dfbd b96b 9fbd dcf6 5c3d
00000190: 6d7e 3cbd 3d2a a23e 6237 78bc 616a 33ba
000001a0: 1d1e aabc 8d5b f0bd b475 dcbd 2f07 443d
000001b0: 4fb3 7ebd 852e 40bd 9283 d63d a8b0 32bd
000001c0: f353 393c c664 45bd eed5 91bd 15d8 a03e
000001d0: d07e 413e 8266 cfbd cdc8 873d 7f8a 21bd
000001e0: 1eb5 11bd 5248 96bd 2add 79bd 7473 963e
000001f0: 46b1 94bc 2efb 3ebd 9f1c 9ebd 8ac6 27bd
0.01783023 -0.037003383 -0.08366917 -0.079109386 -0.077488884 -0.106965214 -0.06668667 -0.02015918
0.02902702 -0.09134603 0.0025285224 0.40741512 0.03961974 -0.24172269 -0.070223995 -0.07272557
-0.05025928 -0.018972596 -0.020228403 -0.04408877 -0.0749972 -0.0138226915 -0.03191922 -0.10083682
-0.04993103 -0.11305556 -0.057052083 0.14945236 -0.02060467 0.0052727456 -0.06371843 -0.036459662
0.2469733 -0.059720222 -0.12145936 -0.02176612 -0.0027085985 -0.07110233 0.007997385 -0.042011358
-0.11959777 -0.15988952 -0.11978662 -0.04390178 -0.038470596 -0.06742302 -0.11470594 -0.18517622
-0.05737501 -0.049712304 -0.1388198 -0.014939537 -0.05004539 -0.08302388 0.0017841534 -0.1396388
-0.018828822 -0.107909076 0.027831642 -0.08280344 -0.05960864 -0.11187524 0.32313773 -0.011114541
-0.08406299 -0.10122667 -0.010238253 -0.00045589288 -0.10164668 -0.0031149597 -0.051793512 -0.015589365
-0.113464184 -0.02800428 -0.040102344 -0.10069349 0.22056833 -0.037983533 -0.024051234 -0.029159285
0.37236688 -0.1276034 0.013929415 -0.08236921 -0.04370528 -0.058934916 -0.12118731 -0.074979804
-0.024422934 -0.058696963 -0.043647967 -0.048154637 -0.087654926 0.06450456 -0.008125357 -0.090456285
-0.12288914 -0.109168194 -0.07784218 0.05394636 -0.046019007 0.3167285 -0.015149923 -0.000684416
-0.020766312 -0.11736212 -0.107646376 0.047858413 -0.06218272 -0.046919364 0.10474314 -0.043625504
0.011311519 -0.04819181 -0.07120882 0.31414858 0.18896031 -0.10126974 0.066300966 -0.03943872
-0.035573117 -0.07338013 -0.061001934 0.2938496 -0.018150937 -0.046626262 -0.07720303 -0.040960826

fc3.weight f4 [1, 128]
00000000: 1646 7abc b13b 1839 889a 8abb a3f8 93bc
00000010: d5e9 00bb f255 da39 f12d 333c e643 ffb9
00000020: 913d 2dbd 9f4f abbc c5da 73bc 6660 17bd
00000030: d179 e8bc c6da 263a cc18 843c fe8f 9e3b
00000040: fb81 973b 055d 60bb e54a 8abc a0cc 7b3b
00000050: 43ef 54bb cf44 6ebc dcd5 b1bc b8c1 9f3c
00000060: 545f 963c fee8 603c 151b 443c e942 17bd
00000070: d407 ec3c a8a9 ad3c 42ad 8f3c 6547 45b9
00000080: 9538 95bc 1376 dfbb 5cfb 05bd 78bd 43bb
00000090: b7e6 253c e95b df3c f54a f2bb f1cb 1cbc
000000a0: b1b2 01bc 2ede db3c bf6f 69ba a594 9cbc
000000b0: a0e1 063c bba2 d03b 4ea3 5a3c f0b9 6bbc
000000c0: acdb 21bc d638 9c3c fa8d 923c 1434 e23c
000000d0: 4572 99bb b186 e8bc cec4 dcbb 3c02 f6bb
000000e0: d0a2 af3c fce8 25bc 02fe 95bc e382 36bc
000000f0: 1047 94bc c3f0 f7bb b588 f9bc 7bb4 46bc
00000100: f25d 36bc b6a0 ad39 262d 583c a592 4abb
00000110: af95 6fbc c3c6 dc3b f989 8fbc 9048 ee3c
00000120: f316 d93b 424d 0fbb 3033 003b 9e7e 8e3b
00000130: 11a9 0fbd 8de1 50bc b34f d53c b8d5 943c
00000140: 3a5a 3bbc c948 353b 77c8 08bb 4b49 c13b
00000150: fd6f 96bc e4c5 b03b 0a5e 05bb 2bcc 00bd
00000160: 51a9 ba3b 4e16 a23c 72a5 aebb 7099 a0bb
00000170: 4f6a e33c 8459 f53c a896 cc3c 1166 563c
00000180: b34e 92bc 192d 36bc fdbb 9cbc d2ef 573b
00000190: 1324 013c 227d 9fbc 1896 9ebc 5eb6 bc3c
000001a0: b06a a63c 1157 6a3c 3f45 b53c 670f 5e3c
000001b0: 4603 143c 263e 103c 93ad a0bc 6fa9 f4bc
000001c0: 901b 14bd 9a3e c43b 04f7 cb3c 25f2 09bd
000001d0: 18aa 5ebc b71b 463c 8a7d afbc d1e0 02bd
000001e0: be13 de3c 6583 b53c 5aff 773c c917 6cbd
000001f0: f56f 3cbb 114d f13b fdf5 e03c 0c4a 453c
-0.015275499 0.00014518086 -0.0042298473 -0.018062895 -0.0019670625 0.00041644234 0.010936246 -0.00048687978
-0.042295042 -0.02091199 -0.014883702 -0.036957167 -0.0283784 0.0006364997 0.016125105 0.0048389426
0.004623649 -0.0034235131 -0.016881416 0.0038421527 -0.0032491244 -0.014542772 -0.021708421 0.019501552
0.018356003 0.013727425 0.0119693475 -0.036929045 0.028812326 0.021199062 0.01753867 -0.0001881398
-0.018215457 -0.0068194955 -0.032710418 -0.002986757 0.0101258075 0.027265506 -0.0073941895 -0.009570108
-0.0079161385 0.026839342 -0.0008904896 -0.019113848 0.008232504 0.0063670552 0.013344599 -0.014387593
-0.009879034 0.01907007 0.017889965 0.027612723 -0.0046828114 -0.028384538 -0.006737328 -0.0075075906
0.02143994 -0.010126349 -0.018309597 -0.011139604 -0.018100291 -0.007566543 -0.030460695 -0.012127991
-0.011130797 0.0003311687 0.013194358 -0.003091016 -0.01462309 0.0067375614 -0.017521845 0.029087335
0.00662505 -0.0021866118 0.001956176 0.00434859 -0.035073344 -0.012749088 0.02603898 0.018168315
-0.011435086 0.0027661792 -0.002087144 0.00589863 -0.018363947 0.005394684 -0.002035024 -0.03144471
0.0056964536 0.019786026 -0.005329781 -0.0049011037 0.027760653 0.029949911 0.024974182 0.013085858
-0.017859792 -0.011119151 -0.019132609 0.003294934 0.007882136 -0.019468848 -0.01935868 0.023036178
0.020314544 0.014302985 0.022127746 0.013553477 0.009033984 0.00880388 -0.019614017 -0.029865948
-0.0361591 0.005988908 0.02489806 -0.033678193 -0.013590358 0.012091569 -0.021422166 -0.031952683
0.027109023 0.02215738 0.015136564 -0.05763987 -0.0028753255 0.0073639234 0.027461046 0.01204158
