checkpoint_actor1.pth (torch_old, 159236 bytes, 6 tensors)

fc1.weight f4 [256, 24]
000000 e8 ef 94 3d 8a e0 b7 bd af 8a eb bd 28 58 45 be
       0.07272321 -0.08978374 -0.11501061 -0.1927191
000010 61 bc 17 be db 80 e8 be 0b 3c e2 bd ca f9 ec bd
       -0.14817955 -0.4541081 -0.110466085 -0.11571081
000020 56 17 cc 3d bc c5 59 bc 21 83 9e 3d 05 f4 01 bd
       0.099653885 -0.013291772 0.077398546 -0.031726856
000030 d5 92 cc 3e 7d 38 cd be 0d cd 0e 3e ad e0 af 3c
       0.39955774 -0.4008216 0.13945408 0.021469438
000040 c9 1c 9a 3d be db 3d 3e 79 13 3c bd 43 e2 f0 3e
       0.075250216 0.18540856 -0.045917008 0.47047624
000050 5f c5 2d 3f f1 da 83 3d 01 a4 9f 3c 11 c2 d9 3e
       0.6787929 0.06438244 0.019487383 0.42530873
000060 fb ab 9f 3d 0b da a3 be 16 64 5c bd 25 7e d7 be
       0.077964745 -0.3200229 -0.053806387 -0.42088428
000070 4f 27 ca 3d eb fc c3 be 2a 81 39 bd f6 7d 03 bf
       0.09870779 -0.382789 -0.045289196 -0.51364076
000080 17 f0 e7 3d 44 bf ef be eb 90 9d 3c af da ed be
       0.113250904 -0.46825612 0.019234141 -0.46455905
000090 db 0e 69 be bf 25 81 be 5d e6 e6 bc f5 b3 e8 be
       -0.22759573 -0.2522411 -0.028186018 -0.45449796
0000a0 4e 6e 55 3e 77 8a 0a bf d9 eb af bc 3c 59 58 be
       0.20842859 -0.5411753 -0.021474766 -0.2112779
0000b0 62 94 28 be 4f e1 e4 bd b7 78 c2 3c 6a 95 7f be
       -0.16462854 -0.11175787 0.023739202 -0.2495934
0000c0 20 d2 33 3e ab e2 92 be 0c b4 36 3e 1c 0d 00 bf
       0.17560625 -0.2868856 0.1784212 -0.50020003
0000d0 b8 c2 d3 3e 23 14 07 bf 68 e7 c3 3d 4d dd 0d bf
       0.41359496 -0.527651 0.095656216 -0.55415803
0000e0 e8 37 84 3e 46 08 ac be 5f 69 98 3c c3 eb 16 be
       0.25823903 -0.33600062 0.018604932 -0.14738373
0000f0 e4 ca b0 3d a6 98 b5 be 90 c8 1a 3d eb 9b 02 be
       0.08632448 -0.35468024 0.037788928 -0.1275479
000100 14 46 37 3e 29 4d 85 be 85 eb 97 bd b4 67 a8 3e
       0.17897826 -0.2603543 -0.07417969 0.3289162
000110 8e 8d 44 be 26 14 b0 bc 15 bb e3 bc 40 de ce 3e
       -0.19194624 -0.021493983 -0.027799169 0.40403938
000120 59 da 8d 3e 49 ee ad 3f 90 63 0f bd 91 37 f8 bd
       0.2770565 1.3588344 -0.03500706 -0.121199735
000130 07 b3 89 be b9 0d dd 3e 93 49 37 bc 68 3c 03 be
       -0.268944 0.43174532 -0.011186975 -0.12816012
000140 a6 6e 00 3e 8e cc 9a 3f 43 fb 75 bd 67 83 81 be
       0.12542209 1.2093675 -0.060054075 -0.25295565
000150 23 9b 4a 3e a1 55 8f 3e ec ff b0 bc 90 74 39 be
       0.19785742 0.27995017 -0.021606408 -0.18110871
000160 f3 b9 00 3e 56 06 50 3f 39 29 00 be 73 ab 47 bf
       0.12570934 0.8125967 -0.12515725 -0.77995986
000170 b0 58 1a 3f 6b 2a d8 bb 4f e9 ea bc 61 1a 40 bf
       0.60291576 -0.0065968535 -0.028675703 -0.7504025
000180 17 1f a4 3e 6a 61 b7 3f 19 42 f4 3d 2e 9a 06 3e
       0.3205497 1.4326603 0.119266696 0.13144752
000190 da 4b 69 be d5 fc 42 be f1 90 5d 3c 76 89 72 3d
       -0.22782841 -0.1904176 0.013523326 0.059213124
0001a0 63 99 8e 3e 16 9c b2 3f 26 4c 10 bd d4 7a d5 bd
       0.278514 1.3953884 -0.03522887 -0.10423818
0001b0 17 0d e9 bd 55 42 9d be 96 03 59 bc 90 40 17 bd
       -0.1137945 -0.3071467 -0.013245484 -0.036926806
0001c0 32 05 1f 3f 82 fd b7 3f f7 ef 0d 3e 06 e0 8d be
       0.621173 1.437424 0.1386107 -0.2770998
0001d0 2d 9b 1f be 59 29 3f bf 17 82 35 3e a1 db 55 be
       -0.15586539 -0.74672467 0.17725407 -0.20884563
0001e0 a8 81 c4 3e 5a 4d d4 3d 36 0f ad bd e7 dd 31 be
       0.3838017 0.10366316 -0.08450167 -0.17369805
0001f0 e2 b3 1f 3f 2e 27 85 bf d6 0c ce bb 55 33 1f be
       0.62383854 -1.0402582 -0.0062881513 -0.15546925
000200 b1 53 46 3e bb 45 06 be 55 66 6a 3c cb e5 20 be
       0.19367863 -0.13112538 0.014306624 -0.15712659
000210 3f 97 05 3f ad 4c d0 be 82 bb a7 3d ba 4c 06 be
       0.5218391 -0.406835 0.08190061 -0.13115206
000220 4c 32 05 3e 46 cb a4 be 75 5e 58 3d 73 b5 40 be
       0.13007468 -0.32186335 0.052824456 -0.18819217
000230 a0 af a7 3e 2d 24 14 3f 73 20 7a 3d 93 88 5b be
       0.3275118 0.578677 0.061066102 -0.21438818
000240 cc f3 e0 3e e2 85 27 3f b4 94 32 bd a7 c0 f4 be
       0.43936002 0.65438664 -0.043598846 -0.47803232
000250 d8 f3 ed be 7c e3 a0 bd e6 50 84 bc bd e8 c6 be
       -0.464751 -0.07855889 -0.016151857 -0.3884944
000260 5e 7f 1e 3f 33 e1 47 3f 5b 33 d5 3b eb 8e ec bd
       0.61913097 0.78078 0.006506366 -0.11550697
000270 83 ce 01 bf c6 67 3a be 50 76 71 bc d6 b0 db bd
       -0.50705737 -0.18203649 -0.014737681 -0.10727088
000280 ab 19 1b 3f 59 13 3e 3f 6a 06 73 3c 54 42 4e bd
       0.6058604 0.7424827 0.014833072 -0.050356224
000290 a7 18 13 bf db 3b b8 be bc 61 51 3c 19 7e a0 bc
       -0.5745949 -0.35983166 0.012779649 -0.019591378
0002a0 3d 6d aa 3e 45 9a 48 be cf fc 2c be 50 e4 ca be
       0.33286467 -0.19590099 -0.16893314 -0.39627314
0002b0 57 bd 10 be be 07 ac be f9 67 10 be 1a 59 e2 be
       -0.14134727 -0.33599657 -0.14102162 -0.44208604
0002c0 0e 72 fb 3e 48 ea f9 b9 50 00 9e 3d 62 b3 26 3e
       0.49110454 -0.00047667534 0.07714903 0.16279367
0002d0 aa 1d 2b be 44 ad de be dc 77 b9 3d 5c 63 2e 3e
       -0.16710535 -0.43491566 0.090560645 0.1703009
0002e0 2f 4f ea 3e c5 1b ae 3d 95 f5 41 be c1 ea 4a 3e
       0.45763537 0.0850139 -0.18941338 0.19816114
0002f0 88 da 4b be 87 c7 04 bf be 26 e7 bd 07 f6 36 3e
       -0.19907582 -0.51866955 -0.11286686 0.1786729
000300 c6 b5 06 b9 23 5c 35 3f 4e 78 41 3c dd 1b d4 3d
       -0.00012846952 0.70843714 0.011808468 0.10356877
000310 1f bd 62 be ef af 31 3e 1a ad 69 3c bf 29 a0 3d
       -0.22142456 0.1735227 0.014262462 0.078204624
000320 98 59 95 3c f2 d8 11 3f 3f 36 3e bc a7 0d 93 be
       0.018231198 0.5697166 -0.011609613 -0.28721353
000330 29 9e 0a 3e fa cb 7b 3e d1 f8 0c 3c 9b 62 86 be
       0.13536896 0.2458953 0.008604244 -0.26247105
000340 e2 7b ff 3d 98 b7 d3 3e 7f 7c 83 3d ed 93 58 bf
       0.12474801 0.41351008 0.0642023 -0.84600717
000350 53 74 c0 3e 85 19 7e 3e a9 d8 5c bc 41 8b 69 bf
       0.37588748 0.24814422 -0.01347939 -0.9122811
000360 55 a5 89 bd b8 5b 8f 3f 07 eb 0c 3d dd 36 47 3d
       -0.06720988 1.1199865 0.034403827 0.048636306
000370 60 c2 45 bd 82 23 07 3e 11 de d6 3c e8 a1 87 3d
       -0.048281074 0.13197139 0.026228936 0.06622678
000380 b9 57 cd bd 5b 24 7d 3f e4 a7 70 3d ba 5e 9b bd
       -0.100264974 0.988836 0.058753863 -0.07586427
000390 29 d3 82 3c a3 fb 06 bd 0b ef 5c 3c aa ab 15 be
       0.01596983 -0.032954823 0.013484727 -0.14616266
0003a0 2a 68 76 bc 80 b2 55 3f 73 1d bf bd f5 30 9b be
       -0.015039483 0.83475494 -0.09331789 -0.3031079
0003b0 10 a9 02 3e 10 f7 a7 be 43 37 6e 3b bf 90 a8 be
       0.12759805 -0.3280568 0.0036348857 -0.32922933
0003c0 ef 6f 4f 3e 28 6c 2a 3e 4c 55 9a 3c db b2 80 bc
       0.20257543 0.16642821 0.0188395 -0.015710285
0003d0 b0 2f 58 3d ee 94 9f be 71 d5 c0 bc 2b 16 24 3d
       0.052779853 -0.31168312 -0.023539277 0.040060204
0003e0 3e 34 ab 3e b9 18 eb 3d 4a c2 9d 3d e4 f4 93 bd
       0.33438295 0.11479325 0.07703073 -0.072244436
0003f0 23 b7 97 3e c0 c5 50 be 6c 17 12 3d 78 ea 4f bd
       0.2963191 -0.20387936 0.035666868 -0.050760716

fc1.bias f4 [256]
000000 9b eb 9d be 5c 50 8f 3c f8 36 49 3e 40 72 ca bb
       -0.30843815 0.017494373 0.19649875 -0.0061781704
000010 62 16 7d be 8d 6b a7 be 2e 81 52 be 93 92 23 bf
       -0.2471557 -0.32699242 -0.2055709 -0.6389553
000020 56 81 90 bd 51 24 b4 bd 61 a7 a0 be d4 05 e9 bd
       -0.07055919 -0.08795989 -0.313777 -0.11378065
000030 8f 16 ee bd 68 84 27 bf ce 55 b6 be 57 a1 34 3e
       -0.116253965 -0.6543641 -0.3561234 0.17639671
000040 b3 36 1a be d7 37 57 3d b0 38 c6 be b0 26 a0 be
       -0.15059929 0.052543487 -0.38715124 -0.31279516
000050 96 4b ad 3d 35 19 9c be 44 3d 3e 3e 52 21 b9 bd
       0.084616825 -0.3048798 0.18578058 -0.090395585
000060 d2 90 a5 3e 07 8b 06 bf f6 5a a1 be 1f 0d b1 bc
       0.32337052 -0.5255589 -0.3151471 -0.021612702
000070 be 36 3d be dc 51 f8 be 3c 69 96 be a7 7b 86 be
       -0.18477914 -0.48499954 -0.29377162 -0.26266214
000080 ed 37 8c be 8c 1b 3f bd e8 7d d0 3d fb bb c0 bd
       -0.27386418 -0.04665713 0.10180265 -0.094108544
000090 0a 35 29 be 0b 7c e5 3d 3a 03 e4 be 62 00 ce be
       -0.16524139 0.112053 -0.44533712 -0.40234667
0000a0 31 b1 87 be ba 1d cf be a6 dd 97 3d 12 b2 cc be
       -0.26502374 -0.40452367 0.07415323 -0.39979607
0000b0 55 d6 eb 3c 62 95 93 be 83 e6 88 bd 9b 25 eb be
       0.028788725 -0.28824908 -0.066845916 -0.45927128
0000c0 00 88 93 3c 5d ba 40 3d 43 54 ca bd ca 15 0f 3e
       0.018009186 0.04705273 -0.09879353 0.13973156
0000d0 03 01 80 be 2e 25 66 bd 7f 0d 77 be 0f c1 84 be
       -0.25000772 -0.0561878 -0.24126242 -0.25928542
0000e0 d9 fe f5 3d da 5e 15 be 28 69 fb be ea 28 ce bd
       0.12011499 -0.14586964 -0.49103665 -0.100663975
0000f0 c2 eb aa be ae 04 fa bc 61 5f bc be 0f 20 0e bf
       -0.33382994 -0.03051981 -0.36791518 -0.5551767
000100 0e 8f 6d be 61 8e 6a be b1 3b 15 be 72 fd 00 be
       -0.23199102 -0.22905876 -0.14573552 -0.12596682
000110 1d fd a8 be a5 ef d1 be d4 06 2a bf ec 8b 38 be
       -0.3300561 -0.41003147 -0.6641667 -0.18022126
000120 55 65 74 be 21 11 28 be 06 6f 61 bd 5a ff c2 bd
       -0.2386678 -0.16412784 -0.05503752 -0.09521361
000130 23 aa 0b 3e d5 79 29 be 2a 20 14 be 81 bc 56 3e
       0.13639121 -0.16550381 -0.14465395 0.20970346
000140 ea e6 06 bf a3 c8 5d 3a c4 05 65 be 31 0b df be
       -0.52696097 0.0008460378 -0.2236548 -0.43563226
000150 23 06 f4 be db 5d 9e be 5f 79 25 be 89 f8 11 be
       -0.47660932 -0.3093098 -0.1615958 -0.14254965
000160 1a 04 9b be 5b 48 13 bd 37 1e e0 bd 92 3e a1 bd
       -0.30276567 -0.035957675 -0.10943263 -0.078732625
000170 bf 8c 20 be 48 6a 26 bd 61 11 87 be ce 2b a5 be
       -0.1567869 -0.0406287 -0.26380447 -0.32259983
000180 84 8f 6b bb 43 23 66 be ff f5 b8 3e 45 f4 99 be
       -0.0035943696 -0.22474389 0.3612518 -0.30069175
000190 f7 3b 03 be b0 d0 8c 3d 5d 2b 93 bd 2b 10 4a bd
       -0.12815844 0.068757415 -0.07186005 -0.049331825
0001a0 02 48 6c be 6f fc f3 bc 60 40 b1 3e 27 ae 85 bd
       -0.23074344 -0.029783456 0.34619427 -0.065273575
0001b0 22 03 b1 bd 1f 87 33 3d eb e4 9a be b3 9a cf bd
       -0.08643176 0.043830033 -0.30252776 -0.101369284
0001c0 7c 9c 05 bf 9a 3b c8 be 10 33 31 3e 93 d0 3d 3e
       -0.521919 -0.39107972 0.17304635 0.18536596
0001d0 50 54 bb 3d da 31 fd be 78 f5 cc be 04 d3 7c 3e
       0.09146941 -0.49452096 -0.40031028 0.24689871
0001e0 22 78 e6 be ac 51 82 be f8 37 11 3d c8 09 fd bc
       -0.4501353 -0.25452936 0.035453767 -0.030888453
0001f0 6b 5e bc bd ce f3 91 be 4e 28 c7 3d 22 45 ab 3c
       -0.09197696 -0.2850632 0.097244844 0.020906989
000200 fe 2c d3 3c 05 44 ad be 8f 6c 13 bf ea 05 b7 3d
       0.02577829 -0.33840957 -0.5758752 0.08936675
000210 54 6d ad be fa 76 17 be 15 af d9 3d a9 0c 8c bd
       -0.33872473 -0.1479148 0.10629097 -0.06838352
000220 ca 85 5a 3d 39 f4 24 be 76 7c 20 3e 76 85 50 be
       0.053350247 -0.16108789 0.15672478 -0.20363411
000230 3f 4a ad be a5 84 9c be a9 63 c6 bd a8 9c 07 be
       -0.33845708 -0.3056995 -0.096869774 -0.13243353
000240 1e d5 9a be dc 93 45 be 37 64 5f be 94 9f 43 be
       -0.3024072 -0.19294685 -0.21815573 -0.19103843
000250 d4 a3 fc 3c 42 11 f1 3e 1f 6b 1e bc 5e 6f a8 3d
       0.030839838 0.4708348 -0.009669094 0.082243666
000260 d8 71 ad 3d 5c 59 99 be 6b e4 f4 3d 97 f3 a5 bd
       0.084689796 -0.29950988 0.1195763 -0.08103102
000270 fd e1 1e be 49 e0 68 3c 62 c8 50 3e ca 14 75 be
       -0.15515895 0.01421363 0.2038894 -0.23933712
000280 01 39 b3 bc 63 6a 06 be dc a4 0e bf 0d f9 45 be
       -0.021877768 -0.13126521 -0.55720305 -0.19333287
000290 52 3a 0f bf 33 7d 83 bc 6a 06 0a bf c0 30 27 be
       -0.55948365 -0.01605091 -0.5391604 -0.1632719
0002a0 97 7d e9 3d 86 05 80 bd ee 5f 7d 3d d2 d4 9f be
       0.114009075 -0.062510535 0.061859064 -0.31217057
0002b0 0a 68 eb be ef c5 22 bf 36 f7 e0 be 67 13 01 3e
       -0.45977813 -0.6358327 -0.43938607 0.12605058
0002c0 4e 7c 16 be 72 a3 0d 3d f5 d2 b1 3d 5d bb cf 3e
       -0.14695856 0.0345797 0.08682815 0.40572634
0002d0 33 8a 8e bd 5a 79 87 3d 13 33 cc 3d 7d 02 70 3e
       -0.06959953 0.06614943 0.09970679 0.23438449
0002e0 9c 41 a7 3e 88 26 db be 77 5a 3f be 81 1b 0f be
       0.32667243 -0.42802835 -0.18686853 -0.13975336
0002f0 0a de 64 be 5b 69 0c be f6 65 16 3e 8c c9 bd 3c
       -0.22350326 -0.13712065 0.14687333 0.023167394
000300 f2 0a 79 3c 3e 48 05 3c 09 c2 28 3d bc b2 a9 be
       0.0152003635 0.0081349 0.04120067 -0.33144176
000310 32 3d 5f be c4 75 34 be 53 be 00 3f c6 5d a5 3d
       -0.21800688 -0.17623049 0.5029041 0.080745265
000320 b3 30 ec bd ca c5 c3 bd 42 73 95 be 66 17 ce bd
       -0.11532726 -0.0955921 -0.29189497 -0.10063057
000330 65 ce 83 3e 43 b4 c8 be 86 bc 57 be 35 47 68 be
       0.25743404 -0.3920003 -0.2106801 -0.22683413
000340 59 a9 32 bd 4f a7 19 bf 09 5f 04 be f3 36 c6 be
       -0.043618534 -0.6002092 -0.12926878 -0.38713798
000350 8a 8a c0 38 6a ff 7a 3e 1b 60 55 be bf 40 18 bf
       9.181078e-05 0.24511495 -0.20837443 -0.59473795
000360 f8 0a 5e 3e f1 1b f1 bc f6 5e 03 be b3 15 d1 3d
       0.21683872 -0.029432269 -0.12829193 0.10209217
000370 56 a6 8d be 26 1c 9f be 22 cc 95 bd 64 1e a6 be
       -0.27665967 -0.31076163 -0.07314326 -0.3244506
000380 30 a8 82 be 82 38 8a be ff eb b5 3d bb 51 ce be
       -0.25518942 -0.26996237 0.08882903 -0.4029673
000390 94 f4 da be 13 32 8a be 50 3b 15 3d 1d 43 d6 bd
       -0.42764723 -0.2699133 0.036433518 -0.104620196
0003a0 5b b1 93 be 0d 3e 97 be f1 bc df bd b5 7c 16 be
       -0.2884625 -0.29539528 -0.109247096 -0.1469601
0003b0 bc cf f0 be 79 41 75 be 72 1e 8b bd 7e 6c 81 3e
       -0.4703349 -0.23950757 -0.06792916 0.25278085
0003c0 58 3f 03 bf fa 6f c7 be 4f 3f 7c be 79 36 ca be
       -0.5126853 -0.3895262 -0.24633525 -0.39494684
0003d0 bb 46 c7 3e 18 72 85 be b6 ff c0 bd fd 27 a6 be
       0.3892115 -0.2606361 -0.09423773 -0.32452384
0003e0 69 82 a5 be 46 b0 7f be de c5 2e be f3 ee 54 be
       -0.32326058 -0.24969587 -0.17067668 -0.20794277
0003f0 ee 22 83 3c 8a e7 9b bd 2b b6 01 bf 70 b9 5d 3e
       0.016007867 -0.07612522 -0.5066859 0.2165277

fc2.weight f4 [128, 256]
000000 57 c0 80 be 68 31 3b be 6c 58 90 be 55 4e 07 3f
       -0.25146744 -0.18280566 -0.2819246 0.528539
000010 8b 41 2b be 92 81 75 be 41 da bc be 24 8e a4 3e
       -0.16724221 -0.23975208 -0.36885265 0.32139695
000020 77 d6 a5 3d 3d f1 1b 3e 36 61 6b be 70 a8 f5 3c
       0.080975465 0.15228744 -0.22986302 0.029987544
000030 b1 6e 0b 3f 13 69 11 3d 23 c5 97 3e a0 b0 77 3d
       0.54465777 0.035500597 0.2964259 0.060471177
000040 ef 5e c8 be 24 fd c4 3e 27 26 97 be ba 52 36 be
       -0.3913493 0.3847438 -0.29521295 -0.17804995
000050 4c 28 52 be 12 7c 9a 3d 17 42 6a 3e 65 de 25 be
       -0.20523185 0.07543196 0.22876774 -0.16198118
000060 98 0a 85 be b7 1f cb bd 9e 24 70 be 12 83 b5 bd
       -0.25984645 -0.099181585 -0.23451468 -0.0886289
000070 aa e0 8e bd 4f fd 52 bd e3 ac 3c 3e cc 30 18 3e
       -0.06976445 -0.051511105 0.18425326 0.14862365
000080 58 3c 4d 3e d5 bc 3d be e2 47 1e be f9 72 f8 be
       0.2004255 -0.18529065 -0.15457109 -0.48525217
000090 5c 10 0e be 62 cb ba 3e 7c 5d 2c 3e 86 ac c2 3e
       -0.13873428 0.36483294 0.16832536 0.3802225
0000a0 d0 31 3b 3d 98 51 cd 3d db a2 49 be a3 82 c9 be
       0.0457018 0.100253284 -0.1969103 -0.3935748
0000b0 17 88 94 bd ad 1f df 3c b9 84 ab be 85 64 77 be
       -0.072525196 0.027236784 -0.33499697 -0.24159439
0000c0 df 64 b7 3e 29 33 73 3e c5 f6 1b 3e f6 13 51 bd
       0.35819146 0.23749985 0.15230854 -0.051044427
0000d0 30 a6 2e 3d 32 ee d9 3c ad 8d c5 3d b6 b7 bc 3b
       0.042638958 0.026602838 0.09646163 0.0057592047
0000e0 63 52 1c 3d 28 a5 ac 3e 20 13 04 bf 22 fc 6c be
       0.038164508 0.33719754 -0.5159168 -0.23143056
0000f0 98 42 e9 be 15 88 d3 be 5d cc 8c bd ec d6 1d be
       -0.4555862 -0.4131476 -0.06874917 -0.15414017
000100 20 c0 20 bf b6 aa 32 3e 9c 81 6b be 7b ec 8f 3d
       -0.6279316 0.17447934 -0.22998661 0.07027527
000110 71 34 06 bd c9 22 cb 3e c9 70 1d be 3e cf 81 3d
       -0.032764856 0.39674976 -0.15375055 0.063383564
000120 80 3d fa bd 88 1a ec 3e c4 4d ae bd 79 b3 8e be
       -0.122187614 0.46113992 -0.08510926 -0.27871302
000130 c5 a6 b9 bc 91 70 ed be dd e5 e2 3d d3 20 12 3c
       -0.02266253 -0.46374944 0.11078999 0.008918959
000140 17 a6 14 3e 56 08 21 3d f0 a6 4b be c9 e3 b9 bc
       0.14516483 0.03931459 -0.198879 -0.022691624
000150 c3 83 33 3e af 65 ac bd d0 2e 63 bf e3 21 31 be
       0.17530732 -0.08417832 -0.88743305 -0.17298083
000160 f5 f3 e3 bd 32 1e 7a bf 85 8d 03 3f 4d 32 11 3e
       -0.111305155 -0.97702324 0.51387817 0.14179344
000170 07 4a 10 3e 8c 7b 75 bc 42 47 80 be b8 cd b1 be
       0.14090739 -0.014983069 -0.25054365 -0.34727263
000180 aa d6 9e 3e f5 29 3b be 4f a0 d0 3c 83 b7 7e be
       0.3102315 -0.18277724 0.025467066 -0.24874692
000190 2c b3 89 bd 67 6e 2b 3e f7 cd cc be ad 5e c3 3c
       -0.067236274 0.16741334 -0.4000089 0.023848856
0001a0 db 6b 98 3e 67 95 27 be a1 60 ef be 0d 6b 55 3e
       0.29769787 -0.16365586 -0.4675341 0.20841618
0001b0 3b 98 ec be d4 a6 cb bd a3 bb 11 bf a0 91 12 3e
       -0.46209893 -0.09943929 -0.56926936 0.14313364
0001c0 f8 0c 4a 3d f4 fd ba be 2f dd 06 3e 74 c7 2c bf
       0.049328774 -0.36521876 0.13170312 -0.6749184
0001d0 95 48 8b 3e 66 78 e3 3d 1e ea bd 3d 7c 50 4b bb
       0.27203813 0.111069486 0.0927317 -0.0031023314
0001e0 0a b5 a2 be ca 05 c6 bd 12 d5 42 3d cf a4 ba be
       -0.31778747 -0.09669073 0.04756648 -0.36453864
0001f0 20 16 81 bb de 7b 82 3e f2 8b 0e bd 0c ec a8 3e
       -0.003939405 0.25485128 -0.03480143 0.3299259
000200 b1 5f 62 bf 62 f3 80 3e b8 ea 03 3e 26 c5 86 bd
       -0.88427263 0.25185686 0.12882507 -0.06580572
000210 3b 4b 15 bf 73 d4 35 bd 56 b5 0e be e5 b6 bc be
       -0.5831792 -0.04439206 -0.13936362 -0.36858287
000220 65 7c 41 3d 46 2e 5c bc bb a4 11 be b5 cc 08 be
       0.047237772 -0.013438767 -0.14222996 -0.1335934
000230 61 e2 65 3e 10 1b ab 3b ea 87 40 3e 83 8c 4c bf
       0.22449638 0.005221732 0.18801847 -0.79901904
000240 5d 40 54 3e c8 41 b1 3d 8f 8a 85 bd 6c 96 68 3e
       0.20727678 0.08655125 -0.065205686 0.22713631
000250 57 43 70 bf b1 2d 9d 3d 72 63 0e 3d 65 72 69 bd
       -0.9385275 0.076747306 0.034762807 -0.05699386
000260 40 c4 dc be fc 38 3d 3e a5 d9 46 bf 60 9c 7c bd
       -0.43118477 0.18478769 -0.7767585 -0.06167257
000270 9f c1 8b 3e 41 19 cf bd d7 e9 7e bd 53 46 00 bf
       0.2729616 -0.10112239 -0.062234726 -0.50107306
000280 af 1c ce 3e b2 8b e5 3b 21 3a a7 bd b9 6d 5e bd
       0.4025626 0.0070051784 -0.08165384 -0.05430386
000290 10 53 53 bd 50 ce 4a bf e6 87 b2 3d 0d f3 25 be
       -0.051592886 -0.7922106 0.08717327 -0.16205998
0002a0 a2 c9 7c 3e 10 78 1f bd c7 bb a5 be 35 59 97 3e
       0.24686292 -0.03893286 -0.32369825 0.29560247
0002b0 ae 0a 17 3e 03 4f 1a bd 0b 6f 6f 3d a9 dc 78 3d
       0.14750168 -0.037673008 0.05845551 0.060757313
0002c0 a4 cd 0b 3e 22 4c df 3e 74 f5 91 bf c0 d1 41 3e
       0.13652664 0.43612772 -1.1403031 0.1892767
0002d0 a4 0c 0a be 6b cc 34 be 0d ec 83 be 7c 90 1c 3d
       -0.13481385 -0.17656104 -0.2576603 0.03822373
0002e0 0e 33 ed 3e 73 0c b8 be d0 68 c5 be 1d 63 08 be
       0.46328014 -0.35946998 -0.38556528 -0.13319059
0002f0 73 df 15 be b0 9d 8d bd 8b bb f5 be 52 83 39 be
       -0.1463602 -0.06914842 -0.47994646 -0.18116501
000300 c3 ad 3a 3e 01 9a 83 bc ed 2e 8e 3e 10 25 af be
       0.18230347 -0.016064646 0.27770177 -0.34207964
000310 27 d6 72 3e 15 14 20 bf 07 6f 88 bd a5 07 0c 3e
       0.23714505 -0.6253064 -0.06661802 0.13674791
000320 0f 33 cd be 65 48 24 be e3 67 cd bd a1 2b 70 3d
       -0.40078017 -0.16043241 -0.100295804 0.058635358
000330 a3 28 c9 bd 3b a2 f5 bc 24 ef b2 3e cd ed 12 3e
       -0.09822204 -0.029984584 0.34948075 0.14348526
000340 5c 6e 40 bf 03 b7 a3 3d 47 05 86 be 3e 7e eb bb
       -0.75168395 0.07993891 -0.261759 -0.00718668
000350 e1 75 18 3c 54 ec 17 bf d5 f2 af bd c9 63 d0 bd
       0.009305448 -0.59344983 -0.085912384 -0.101752825
000360 37 c1 00 3f 38 18 88 3e 02 69 77 3d 55 f2 3b bf
       0.5029482 0.26580977 0.060402878 -0.73416644
000370 8f a1 b0 bd 83 10 2c bf 14 62 e0 bc b6 7c 87 bd
       -0.08624565 -0.67212695 -0.027390517 -0.066155836
000380 81 27 81 be 8c 0f 75 3e 89 50 c0 3e ba f8 00 be
       -0.25225452 0.23931712 0.37561443 -0.12594882
000390 fc 8a 33 be d3 2a 9a be 05 6d b9 be b3 4a 1c bf
       -0.17533487 -0.30110797 -0.36215988 -0.6105148
0003a0 96 dc 16 3e c1 1b 5c 3e a0 eb 68 3e 11 ca 39 bf
       0.14732584 0.21494962 0.22746134 -0.72573954
0003b0 61 e6 ae bc 3f eb 89 3e 70 b6 5e 3e ba 7c 20 bf
       -0.021350088 0.2693729 0.21749282 -0.6269032
0003c0 2c bb d1 be 06 7a 86 be 94 b5 f9 be fe 3f 96 3e
       -0.40963113 -0.26264971 -0.48771346 0.29345697
0003d0 69 fa bc 3d dd 6e 46 be 0c ea 03 bd 4d fe e9 be
       0.092274494 -0.19378228 -0.032205626 -0.4570183
0003e0 7c fa 30 3e 01 56 1c bd 45 85 d7 bc 0e 52 93 be
       0.17283052 -0.038167957 -0.026308665 -0.2877354
0003f0 3c 27 ff 3d 2d 99 1a 3f 82 3d 0e 3e 05 ee 40 bf
       0.12458655 0.6038998 0.13890651 -0.7536319

fc2.bias f4 [128]
000000 c4 c2 f3 bd 81 52 89 bd fe e4 fd bd 2e 75 3b bc
       -0.11902383 -0.067051895 -0.123971924 -0.011441512
000010 2a 40 d7 be 2d 58 89 be 82 4d 1a bd ec 70 5a bd
       -0.4204114 -0.26825085 -0.037671573 -0.053330347
000020 51 0a c6 bb be b5 f4 be ce 39 34 bb fd 15 22 3e
       -0.0060437103 -0.47794908 -0.0027500275 0.158287
000030 80 54 e7 bd a3 d7 2d be 60 2c d9 be 62 df 08 3e
       -0.11295414 -0.1697679 -0.42416668 0.13366464
000040 6c b5 12 3d 8a 47 41 be ad 65 88 be cd a6 15 be
       0.03581755 -0.18874946 -0.26640072 -0.1461441
000050 83 07 76 be 1c 2e c7 be f8 3a 14 3b af 55 9f be
       -0.24026303 -0.38902366 0.0022618156 -0.3112006
000060 bc b5 0d 3e 2d 75 b4 be 3c ad 29 be c0 f3 ba bc
       0.13838857 -0.35245648 -0.1656999 -0.022821307
000070 df b7 ff bd 73 9f 7a be 49 d0 ae be ab 8b b7 bd
       -0.124862425 -0.24474888 -0.34143284 -0.089621864
000080 b8 cb 20 bd 29 1f 1e be 3a dc 62 be 35 d1 12 3e
       -0.03925678 -0.15441574 -0.22154322 0.14337619
000090 a1 6d 79 bd d1 05 20 bd fe bf 73 3d 9d 89 6c be
       -0.060895566 -0.039068047 0.05950927 -0.2309937
0000a0 d7 d7 d2 bc b9 fc 19 3d 92 7e 8e bd 99 ce 94 bc
       -0.025737686 0.03759453 -0.06957735 -0.01816492
0000b0 0a 7f d4 bd de 67 81 bd cc be 9e be bf c5 68 bb
       -0.10375793 -0.06318639 -0.3100494 -0.0035518256
0000c0 dc db dc bd 31 91 4e bd ad 08 0b be a1 5d f8 bd
       -0.10784122 -0.050431434 -0.13577528 -0.12127233
0000d0 df 52 ae be 3a 3f c7 ba 3c 24 62 be 19 5e 00 3e
       -0.340476 -0.0015201338 -0.22084135 0.12535895
0000e0 ee 60 cf bd 8e aa 93 bd a1 99 9e bd 81 c7 47 be
       -0.1012591 -0.07210265 -0.07744146 -0.19509698
0000f0 cf f2 5c 3e 28 4d 56 bd a6 e3 44 be 4d 14 77 bd
       0.21576999 -0.052319676 -0.19227466 -0.060322095
000100 4b 3a 8f 3d 5d 78 88 be 6e 59 57 be ec 95 0c bd
       0.069935404 -0.2665433 -0.21030208 -0.034322664
000110 ad 26 c3 bd 85 00 29 be e4 bd 13 be 9e 03 04 bf
       -0.09528861 -0.16504104 -0.14427906 -0.5156802
000120 63 b0 03 be 60 95 7d be 6a 7a c6 be d3 b9 e7 bc
       -0.12860255 -0.24764013 -0.3876527 -0.02828685
000130 6a 6c cd bd 44 2e ad bc 31 24 54 bc 9a 57 1e be
       -0.10030444 -0.021140225 -0.012948082 -0.15463105
000140 60 8d 89 be db 03 96 be 0a b2 81 be 65 b7 9e 3d
       -0.26865673 -0.29299816 -0.25331146 0.077498235
000150 a8 e4 bd bc a5 3b 0e be 95 ca b3 bd 70 7b 89 be
       -0.02318032 -0.1388994 -0.08778874 -0.26851988
000160 71 2b 91 bd 14 c3 e5 bd 77 51 5a bd a5 4c 90 bd
       -0.07088364 -0.11218849 -0.053300347 -0.07045869
000170 7e 6b d8 bd 82 ed 33 be b6 52 f2 3b d1 6a 2a be
       -0.105673775 -0.17571071 0.007395114 -0.1664231
000180 da 75 59 be 23 dc 30 be 39 2e 91 bc 86 7d 10 3d
       -0.21236363 -0.17271475 -0.017722236 0.03527596
000190 c7 99 47 be e7 82 0e 3e 54 28 ce bd c7 1d ec bc
       -0.19492255 0.13917123 -0.10066286 -0.028822793
0001a0 bf 27 98 be 9a 49 66 be 10 ac 39 be 4b ec f4 bc
       -0.29717824 -0.22489014 -0.18132043 -0.02989783
0001b0 aa a2 ed bc f6 b3 32 be 87 7d 05 3e 2c 9d eb 3a
       -0.029008228 -0.17451462 0.13036166 0.0017975918
0001c0 fa ca eb bd 3f eb 64 bc f1 e1 70 bc b9 e7 d0 be
       -0.11513324 -0.013972103 -0.014702306 -0.4080179
0001d0 83 13 3a bc 03 6f a7 bd 67 c8 07 be fe 30 cf be
       -0.011357191 -0.08175471 -0.13260041 -0.40467066
0001e0 a2 3c 87 be f7 5c cc bd 06 ce a3 bd d3 8e fc 3c
       -0.26413447 -0.09978669 -0.0799828 0.030829823
0001f0 4e c2 59 bd e9 8c 35 bc f9 bf 09 bd 60 eb d3 3c
       -0.05316382 -0.011080959 -0.033630345 0.025869071

fc3.weight f4 [2, 128]
000000 f0 99 b6 3e 9d 80 a3 bd 5c 10 05 3d 93 9b e7 bd
       0.3566432 -0.079835154 0.032486305 -0.1130897
000010 b9 28 27 3e 5b 4b 60 be d5 4e 95 be a8 91 7f 3d
       0.16324128 -0.21903746 -0.29161707 0.062394768
000020 57 75 c2 3f 01 e8 74 bd f8 18 c5 3d 75 ef 97 3d
       1.5192059 -0.05979157 0.09623903 0.0741872
000030 19 67 3f be 85 6b 96 3f a1 23 ff 3c 39 84 c2 bd
       -0.18691672 1.1751562 0.031144919 -0.09497876
000040 e9 be e5 ba f0 a1 c1 3d 91 51 0c 3d 9e 90 a3 bd
       -0.0017528209 0.09454715 0.034257475 -0.07986568
000050 36 d3 83 bd 2f 82 41 3d c2 d6 ab be 5e d5 f2 bd
       -0.0643677 0.047243293 -0.33562285 -0.11857103
000060 0c 5a 12 3e aa 09 ac 3d a1 28 41 bc 5a fa f4 bc
       0.14292163 0.08400281 -0.011789472 -0.029904533
000070 ce 11 86 bd 89 06 8e 3d 5e 89 c0 bd f3 66 fa bd
       -0.06546365 0.0693484 -0.09401201 -0.12226667
000080 68 92 b5 3d f5 ea ef 3b 43 42 eb bc ce f7 39 bf
       0.088658154 0.00732171 -0.02871812 -0.72643745
000090 eb 65 63 ba 72 23 b4 3c 77 53 fb 3c eb f0 3d bd
       -0.000867455 0.021989558 0.030679448 -0.046372335
0000a0 59 0c 90 3b b3 d1 82 3e 50 69 0b 3e ba 00 c9 3b
       0.004396003 0.25550613 0.13614392 0.00613412
0000b0 04 60 9e bc 54 c6 d0 3d 4a 32 b8 3e d1 95 33 be
       -0.019332893 0.10194078 0.35975868 -0.17537619
0000c0 c8 b4 2a 3f 93 b6 04 bf 39 cc c7 bc b0 45 cd bb
       0.666821 -0.51841086 -0.024389373 -0.006264411
0000d0 de f6 a3 bd bc 49 ac be fd 3b 30 be 88 41 f3 bd
       -0.080060706 -0.33650005 -0.17210384 -0.118777335
0000e0 d6 bd 20 3e 8a 21 14 3d 46 63 0b 3d 67 52 0f 3c
       0.15697417 0.036164798 0.03403022 0.008747674
0000f0 91 79 06 bf 5a 27 e5 3e aa 7b b2 3e 24 90 b5 3d
       -0.52529246 0.44756585 0.34859973 0.08865383
000100 df 65 52 be 9b b2 a8 3e 67 6c 53 bd 6c b0 8c bd
       -0.20546673 0.32948765 -0.051617052 -0.06869587
000110 85 93 7d bd 56 f9 a4 bd 06 6a bc 3d 80 06 8b 3d
       -0.061908264 -0.080553696 0.0919991 0.06788349
000120 66 49 1f 3e 11 53 41 3e ba 2a 0d be 1e 51 18 bc
       0.15555343 0.18879344 -0.1378583 -0.009296684
000130 92 ec 74 bf 09 39 50 bd 3f b7 8a 3d e8 2e d9 bc
       -0.9567348 -0.050835643 0.06773233 -0.026511624
000140 26 bf fa 3d 03 65 42 3e 5e ff 19 3d 0e 97 70 3f
       0.1224349 0.18983845 0.037597053 0.9398049
000150 e9 14 0d bd 65 76 8b 3e 9c bd 80 bf b8 6c 9b be
       -0.03444377 0.27238765 -1.0057864 -0.30356383
000160 cc a4 da 3d a8 7c 2f bd 19 a6 ca 3b 24 9f ff 3c
       0.10675964 -0.04284349 0.006184351 0.031203814
000170 39 7f 8a bd f8 16 c5 bd fb b1 1a bd 5f e4 68 3d
       -0.06762547 -0.096235216 -0.03776739 0.056858417
000180 ef 8f d6 3d 07 75 d0 3e 8c 55 84 bc 8e 1c 7d bf
       0.10476672 0.40714285 -0.016154073 -0.98871696
000190 c8 36 eb bd 2b 53 ad 3d c2 09 85 bd 60 10 80 be
       -0.11485058 0.08463129 -0.06496002 -0.25012493
0001a0 8d ba 53 3e 20 a2 1d 3e dd bf 08 3e b1 b3 cc 3b
       0.20676632 0.15393877 0.1335444 0.006247007
0001b0 d5 94 71 3a 3e 1b ba bd 6a 13 aa bd 8e 83 8b 3e
       0.0009215598 -0.09087227 -0.08304484 0.27248806
0001c0 c1 e2 3c 3a b6 1b 0a 3c 52 9d 3c 3c 5e 30 a6 bd
       0.000720542 0.008429458 0.011512117 -0.08114694
0001d0 25 0e 96 bf 84 09 95 3c 71 64 cd bd a0 89 30 3e
       -1.1723067 0.018193014 -0.10028923 0.1724
0001e0 69 35 b0 be e7 de e6 3d 40 51 eb 3e b5 76 4f 3d
       -0.3441575 0.11272984 0.45960426 0.050650317
0001f0 fd bc 0a bd 0c fc f2 bd 3e 8c bf bb ce 1d 9d 3e
       -0.03387164 -0.118644804 -0.0058455756 0.30686802
000200 e7 88 6c 3d 9f 36 26 bc ba 80 60 3c 6f 1f 5f be
       0.057747748 -0.010144859 0.013702566 -0.21789335
000210 e4 53 9d be b5 2a 46 be e9 f4 fd be 58 cc b2 bd
       -0.30728066 -0.19352229 -0.49600914 -0.08730382
000220 77 78 24 bf 44 3f f3 be 1a f9 d0 3d 24 56 34 bf
       -0.64246315 -0.47509205 0.10203762 -0.7044394
000230 b5 50 1c 3e cd 0d c0 3e 2d de 54 be dc 33 a6 3d
       0.15265162 0.3751053 -0.20787878 0.0811536
000240 20 e5 8d bf 46 ca 11 3f 63 16 0b 3f b3 9b 54 3e
       -1.1085548 0.5694927 0.54331034 0.2076252
000250 40 f8 96 3d 76 6a 58 3f 22 54 f7 bd f9 7f 3a be
       0.07371569 0.84537446 -0.12076594 -0.1821288
000260 34 c7 1f bf a2 07 b5 3e 7b 37 ac 3c 00 aa 57 3e
       -0.62413335 0.35357386 0.021022549 0.21060944
000270 b1 86 ec be bb 5a 00 be 6a 41 9c be 35 a4 2a bb
       -0.4619651 -0.12534611 -0.30518657 -0.0026037816
000280 ad 65 db 3e 16 41 15 3f 51 6f 84 be fd 3e 7f 3a
       0.4285101 0.5830244 -0.25866178 0.0009736864
000290 76 d5 43 3d 80 d3 21 3c 0b c7 0f 3e a3 ba 1c 3d
       0.047810994 0.009877086 0.14040773 0.03826393
0002a0 4a d5 9a bb 53 2a 0e 3e ae fb 58 be 74 88 ca 3c
       -0.004725133 0.13883333 -0.21189758 0.024723269
0002b0 60 98 04 be 29 35 04 3e d8 8f 5f 3d 34 1d 94 3d
       -0.12948751 0.12910904 0.05458054 0.072321326
0002c0 77 be ff 3d 84 8e 4c bd 14 01 0d bb 4a ba 3d bb
       0.124875 -0.0499406 -0.0021515535 -0.0028950148
0002d0 ef 25 b1 be e3 54 ff bd 65 5c 92 3c dc 47 10 3d
       -0.34599254 -0.12467363 0.017866323 0.03522478
0002e0 85 d8 19 3d 3e cb 92 bd 0d d5 bc 3c 77 da fc 3e
       0.037560005 -0.071676716 0.02305081 0.49385425
0002f0 4e 03 33 3e 1f 26 0a 3c dd be 78 3f 25 64 e0 bd
       0.1748173 0.00843194 0.97166234 -0.10956601
000300 7c b8 b2 bd 55 8c 78 3f 16 06 9f 3e 25 d6 0c 3e
       -0.08726594 0.9708913 0.3105933 0.13753565
000310 6f 74 0f 3d 17 35 82 3f 09 2c 81 bd 01 3a d7 be
       0.03502315 1.0172452 -0.06307227 -0.4203644
000320 85 a1 92 3e 96 1b bf bc 54 04 cf be f8 92 8c 3c
       0.28638855 -0.023328584 -0.4043299 0.017159924
000330 74 bb d5 bc f1 1b 84 3d 21 c8 ed 3e 83 78 06 bd
       -0.026090361 0.06450642 0.4644175 -0.032829773
000340 9f 8e 27 bd 2c 64 b8 3e fa 15 0c bf 2b 2f cf 3f
       -0.0409075 0.36013925 -0.54721034 1.618627
000350 c1 3b 68 be da 9c 2f 3e f4 26 8f 3e 4e 9e a6 3d
       -0.22679044 0.17149678 0.27959406 0.08135663
000360 5f 13 cf 3e c5 50 ad 3c d9 1b 3a bd 5a 0f 96 3e
       0.40444466 0.021156678 -0.045436714 0.29308587
000370 54 5c 99 3e 30 d2 05 be 1a 85 c4 3d 79 f7 44 be
       0.29953253 -0.13068461 0.095956996 -0.19235028
000380 d2 10 88 be c5 ad 86 3e 65 b0 5c 3c d7 f8 11 be
       -0.26575333 0.2630445 0.01346979 -0.14255081
000390 3b fa 4d be 29 fd 54 3f 3b d3 4e bc 2a b5 93 bf
       -0.20114987 0.8319879 -0.012623603 -1.1539662
0003a0 99 db 68 3f 56 86 ae be 1b 15 79 bd 8f 3c 1a 3c
       0.9096008 -0.34086865 -0.060811143 0.009413852
0003b0 72 2d a4 3c 9e ac 86 be 33 f0 df 3b 3e 6a 54 3f
       0.020041201 -0.2630357 0.006834054 0.8297461
0003c0 4c 63 d4 bc f5 84 35 3e 31 c3 78 3f 57 83 58 be
       -0.025926255 0.177265 0.9717284 -0.21143852
0003d0 63 38 da 3c 2c b3 42 3a f2 d2 95 bd 8b e8 96 3d
       0.026638215 0.00074272114 -0.07315625 0.07368573
0003e0 92 83 bd bd 2e a2 5c be 9c f3 3e 3e b3 7e 14 bf
       -0.09253611 -0.21546242 0.18647617 -0.5800583
0003f0 c1 38 b5 3c 35 5c 81 3e 0a 28 1c 3c 59 16 d5 be
       0.022121789 0.2526566 0.00953103 -0.41618612

fc3.bias f4 [2]
000000 e1 d9 04 be 2d ab 76 3d
       -0.12973739 0.06022184
