checkpoint_critic1.pth (torch_old, 159746 bytes, 5 tensors)

fcs1.weight f4 [256, 24]
0	0xbd0babf5	-0.034099538
1	0xbe6c985a	-0.23104993
2	0x3cdae313	0.026719606
3	0xbcb1982e	-0.02167901
4	0xbee8a289	-0.45436504
5	0xbeee10aa	-0.4649709
6	0xbcac6e1d	-0.0210486
7	0x3d3c11de	0.045915477
8	0xbceaa391	-0.028642448
9	0xbe090a46	-0.13382825
10	0xbd3f33ef	-0.046680387
11	0x3d20776a	0.039176382
12	0x3d0c6a42	0.034281023
13	0xbe24e09f	-0.16101311
14	0x3d59be0f	0.05315977
15	0x3d42399f	0.047418233
16	0x3a8ed030	0.0010895785
17	0xbe78ecac	-0.24309033
18	0x3d4a3ed7	0.049376335
19	0xbc503925	-0.012708937
20	0x3ed4cd57	0.41562912
21	0x3f02f13c	0.51149344
22	0xbd3c407f	-0.045959946
23	0x3c71770d	0.014737857
24	0x3f141094	0.57837796
25	0xbdf29613	-0.11845031
26	0x3affc83c	0.001951463
27	0x3d41dd0d	0.04732995
28	0xbe992e75	-0.29918256
29	0x3b9e4b15	0.004830728
30	0x3d3efea4	0.046629563
31	0x3cd5b18e	0.026085641
32	0x3ed57084	0.41687405
33	0xbe3e5b01	-0.18589403
34	0xbda3966f	-0.07987677
35	0xbd0f0b80	-0.034923077
36	0xbe474595	-0.19460137
37	0xbd74736c	-0.059680387
38	0xbded682f	-0.11592137
39	0xbd1774a0	-0.036976457
40	0x3f04e8ab	0.51917523
41	0xbe398265	-0.18116148
42	0x3b84fac7	0.0040582153
43	0xbe08dc77	-0.1336535
44	0xbd3efeae	-0.0466296
45	0xbe8c087f	-0.27350232
46	0x3d3e5c51	0.04647476
47	0xbdd88f40	-0.10574198
48	0xbe679edb	-0.22619192
49	0xbc002dc9	-0.007823416
50	0x3cbaa9c5	0.02278603
51	0xbc5de5c4	-0.01354355
52	0x3dc1b956	0.09459178
53	0xbf088016	-0.53320444
54	0x3d3498e9	0.04409114
55	0xb90a3660	-0.00013180962
56	0xbc79ea2d	-0.015253586
57	0xbdcf5d99	-0.10125274
58	0xbbcfaf6b	-0.00633805
59	0xbea0d8b8	-0.31415343
60	0x3e60b989	0.21945776
61	0xbf34d569	-0.7063814
62	0x3c0336a5	0.008008634
63	0xbe734f3b	-0.23760693
64	0x3e5247ab	0.20535152
65	0xbe694655	-0.22780736
66	0x3bb64dce	0.0055634743
67	0x3dc85788	0.0978232
68	0xbd33fc88	-0.043942004
69	0xbed380de	-0.41309255
70	0xbd5beb3a	-0.053691126
71	0x3dcd5e2a	0.10027726
72	0xbc9e3961	-0.01931447
73	0x3e63363f	0.22188662
74	0xbbe4dab0	-0.0069840774
75	0x3dfd1078	0.12356657
76	0xbe1b0606	-0.15139017
77	0x3e7cc39d	0.24683996
78	0x3b864b14	0.0040983055
79	0x3e133b20	0.14378023
80	0x3c00365e	0.007825462
81	0x3e70b56e	0.2350671
82	0xbce64732	-0.02811012
83	0xbd49d67c	-0.049276814
84	0x3cee904b	0.029121539
85	0x3e243034	0.16034013
86	0x3d12db77	0.03585383
87	0xbe020182	-0.12695888
88	0x3cbe0876	0.023197394
89	0x3e3b348d	0.18281765
90	0x3a0e87b9	0.00054370944
91	0xbe4b7f04	-0.19872671
92	0x3eacfc5f	0.33786294
93	0xbf208ae7	-0.6271195
94	0x3c7f2adf	0.015574186
95	0xbe53de02	-0.20690158
96	0x3e0a55cc	0.13509291
97	0xbd5d2756	-0.05399259
98	0xbd1ad428	-0.037799984
99	0x3e17700e	0.14788839
100	0x3ed7447e	0.42044443
101	0xbd91ec42	-0.07125141
102	0x3cbb8ea2	0.022895161
103	0x3dd22962	0.102617994
104	0x3c72b7b5	0.014814307
105	0xbd74f082	-0.05979968
106	0x3c079d62	0.008277269
107	0x3de6c3c3	0.11267807
108	0x3ef85cb4	0.48508227
109	0xbd615837	-0.05501577
110	0xbc5dcd8f	-0.0135377785
111	0x3e56a96a	0.20963064
112	0x3e277141	0.16351797
113	0xbddde043	-0.1083379
114	0xbcfce712	-0.030871902
115	0x3d084471	0.033268396
116	0xbcc4ce68	-0.024024203
117	0xbed4dccb	-0.41574702
118	0x3c2be299	0.010491037
119	0xbc154204	-0.009109978
120	0x3ead62ed	0.33864537
121	0xbf0d7c3f	-0.5526771
122	0xbc1b1fe7	-0.009468055
123	0xbde8c2a2	-0.11365248
124	0x3e7d0e2c	0.24712437
125	0xbe46780c	-0.19381732
126	0xbd4e0f6e	-0.050307684
127	0xbe1ebd08	-0.15501797
128	0x3e98b5e9	0.29826286
129	0xbef4c5fa	-0.47807294
130	0x3d1bbd06	0.038022064
131	0x3c40c0c3	0.011764708
132	0x3e4fa393	0.20277242
133	0xbdcdb3bd	-0.10044048
134	0x3c59b3d7	0.013287506
135	0xbc41adb7	-0.011821202
136	0x3e6bc159	0.23022975
137	0xbeceda58	-0.40400958
138	0xbca70601	-0.020388605
139	0xbe108f06	-0.14117059
140	0x3e6d65eb	0.2318341
141	0x3de4127c	0.11136338
142	0xbb9c66f3	-0.0047730147
143	0xbe5b55b6	-0.21419415
144	0x3eb7963d	0.3585681
145	0x3e421a97	0.18955456
146	0xbe2d7394	-0.16938621
147	0xbea8fe36	-0.33006448
148	0xbdd76509	-0.10517318
149	0xbe9686ce	-0.29399723
150	0xbe03d914	-0.12875777
151	0xbe8d98e4	-0.2765571
152	0x3eddd3a7	0.4332554
153	0xbc71b8c3	-0.014753523
154	0x3db8493e	0.08998345
155	0xbe0e85f5	-0.13918288
156	0xbd8583f3	-0.06519308
157	0xbe632fa2	-0.22186139
158	0x3c0a6cdc	0.008448806
159	0xbe3e7825	-0.18600519
160	0x3ec1da03	0.37861642
161	0x3ddaee46	0.10689978
162	0xbd5a7019	-0.05332956
163	0x3d19b92a	0.0375301
164	0x3e1136f3	0.14181118
165	0xbe743afd	-0.23850627
166	0xbd652b81	-0.05594969
167	0x3da176ee	0.07884012
168	0x3f35f9bf	0.7108421
169	0x3d0cf1c3	0.03441025
170	0xbd31a8f0	-0.043374002
171	0xbe204883	-0.15652661
172	0x3e080c5c	0.13285965
173	0xbef94f36	-0.48693246
174	0xbc1bc3a8	-0.009507097
175	0xbe091c19	-0.13389625
176	0x3ed577c2	0.4169293
177	0x3ca15599	0.019694136
178	0xbd9cdee1	-0.07659698
179	0xbd6ce231	-0.0578329
180	0xbc6a0afd	-0.014284846
181	0xbebd42d4	-0.36965048
182	0xbba4d18d	-0.005029863
183	0x3c43fca9	0.011962094
184	0x3af348f6	0.0018561173
185	0xbeab5329	-0.33461884
186	0xbdaf437d	-0.08557794
187	0xbdd4ff95	-0.10400311
188	0xbe438cd0	-0.19096684
189	0x3e48e988	0.19620335
190	0xbd82fe6c	-0.06396183
191	0xbe0ee6da	-0.1395525
192	0x3e2a0fa4	0.16607529
193	0x3d869bb3	0.06572666
194	0xbcb668f8	-0.02226685
195	0x3cbdfa52	0.023190651
196	0xbc247b2f	-0.010039135
197	0xbe00b8a7	-0.1257044
198	0xba96bf32	-0.0011501072
199	0xba8a7348	-0.0010562921
200	0x3de6f125	0.112764634
201	0x3e0c2b54	0.13688403
202	0x3d06cf13	0.032912325
203	0x3d4fe370	0.05075401
204	0xbd212f13	-0.039351534
205	0xbdd9e943	-0.10640194
206	0xbd501a8a	-0.05080656
207	0xbce5422b	-0.027985653
208	0x3e3f11e8	0.18659174
209	0x3cec3bb3	0.02883706
210	0xbca14510	-0.019686252
211	0xbc67de84	-0.014152173
212	0x3b9510d4	0.004549125
213	0xbd374324	-0.044741765
214	0xbc91adb4	-0.017783023
215	0xbd1e3e30	-0.038633525
216	0x3d2a221b	0.04153643
217	0xbeb39427	-0.3507397
218	0xbc5fefca	-0.01366801
219	0x3d8c69b0	0.06856096
220	0xbe1466e1	-0.1449237
221	0xbeb34cd3	-0.3501955
222	0x3d5e68a2	0.054299004
223	0x3d782d9f	0.060590383
224	0x3e647ad6	0.22312483
225	0xbef178e8	-0.47162557
226	0x3d8279b6	0.06370871
227	0x3b4c68d8	0.0031190421
228	0xbe81ac38	-0.25326705
229	0xbe9734f9	-0.29532602
230	0xbb942e36	-0.0045221103
231	0xbbf19eef	-0.0073736827
232	0x3e20512e	0.15655968
233	0xbf0715f0	-0.5276785
234	0xbd2c42bf	-0.04205584
235	0x3ccfd437	0.025369747
236	0xbe9d25ab	-0.306928
237	0xbddc4979	-0.10756201
238	0x3d1e7fb9	0.038696025
239	0xbc2eb60c	-0.010663521
240	0xbddb63c7	-0.107123904
241	0x3e37931d	0.17927213
242	0x3d170459	0.03686938
243	0xbdf98daf	-0.12185227
244	0xbdb61ac2	-0.088918224
245	0xbed45994	-0.41474593
246	0x3cc27646	0.023738038
247	0xbd94e1e5	-0.072696485
248	0xbc9a3a15	-0.018826524
249	0x3d72410b	0.05914406
250	0x3da0146f	0.078163974
251	0xbe3ab047	-0.18231307
252	0x3cccc432	0.024995897
253	0xbe9072be	-0.2821254
254	0xbbcdd974	-0.006282026
255	0xbe2d5d4b	-0.1693012

fcs1.bias f4 [256]
0	0xbebb8e03	-0.36631784
1	0xb9e192f5	-0.00043024836
2	0xbdac1d42	-0.08404018
3	0x3e7bd141	0.24591543
4	0xbe51e8c5	-0.20498951
5	0xbf0a59c0	-0.540432
6	0xbf285185	-0.6574939
7	0xbe08854c	-0.13332099
8	0xbebfe4f3	-0.37479362
9	0xbe9fbfc8	-0.31201005
10	0xbd82b860	-0.06382823
11	0xbe0b0cfe	-0.13579175
12	0xbd89c5ee	-0.06727205
13	0xbf23ef23	-0.6403677
14	0x3ed2691d	0.4109582
15	0x3e605a01	0.21909334
16	0x3d929cff	0.07158851
17	0xbd337872	-0.043816037
18	0xbeb9f3a2	-0.3631869
19	0xbea23d33	-0.31687316
20	0xbd05f286	-0.03270199
21	0xbebaf8db	-0.36517987
22	0xbe23cf74	-0.15997106
23	0xbf125937	-0.5716738
24	0xbebc57bf	-0.36785695
25	0xbe1fbfad	-0.15600462
26	0xbebaaa31	-0.3645797
27	0xbed3c28f	-0.41359374
28	0xbed4ef2c	-0.41588724
29	0xbe67e89f	-0.22647332
30	0xbec47956	-0.38373822
31	0xbe1dc2dd	-0.15406366
32	0xbece76c4	-0.40324986
33	0xbeb44f26	-0.35216635
34	0x3e000c65	0.12504728
35	0xbddaa6bb	-0.106763326
36	0xbecd26f7	-0.4006879
37	0x3e0d8eea	0.13824049
38	0xbe97634c	-0.29567945
39	0xbdbd4bc7	-0.09242969
40	0xbee9959e	-0.4562196
41	0xbdedb1ad	-0.116061546
42	0x3e81425f	0.2524595
43	0xbf1013dd	-0.5628031
44	0x3e9e9469	0.30972603
45	0xbe7fed6f	-0.24992917
46	0xbca52488	-0.020159021
47	0xbf803ede	-1.0019186
48	0xbeaa586f	-0.33270594
49	0xbed5fd49	-0.41794804
50	0xbef76ef4	-0.48326838
51	0x3d6f0d13	0.058362078
52	0x3da0a7f2	0.07844533
53	0xbf1b4a98	-0.60660696
54	0x3e3317c4	0.17489535
55	0xbea62d04	-0.3245622
56	0x3eed465b	0.4634274
57	0x3e090d00	0.13383865
58	0xbe99d044	-0.30041707
59	0x3f150a9b	0.5821931
60	0x3dad9980	0.084765434
61	0x3e136558	0.14394128
62	0xbe504380	-0.20338249
63	0xbd979d1f	-0.07403015
64	0x3e03abc9	0.128585
65	0xbe19604c	-0.1497814
66	0xbf047604	-0.5174258
67	0x3ed9e796	0.425595
68	0xbf02331d	-0.5085924
69	0xbce43dd3	-0.027861511
70	0xbe691bba	-0.22764483
71	0xbeecc1fa	-0.46241742
72	0xbf153cbf	-0.58295816
73	0xbeda3f32	-0.4262634
74	0xbe14ff86	-0.145506
75	0x3ea2d82e	0.31805557
76	0xbeb22650	-0.34794855
77	0x3d2918e2	0.041283496
78	0x3da6aefc	0.08138844
79	0xbdadd652	-0.08488144
80	0xbe554f28	-0.20830977
81	0xbed84bcb	-0.42245325
82	0xbe152564	-0.14565045
83	0x3c298138	0.01034575
84	0x3ebb1563	0.36539754
85	0x3eb1c722	0.3472224
86	0xbf1ab321	-0.6042958
87	0x3e497038	0.19671714
88	0xbda6df3c	-0.08148047
89	0x3e923f68	0.28564
90	0xbe912d9e	-0.28355116
91	0xbe63e508	-0.22255337
92	0xbe965a9c	-0.29366004
93	0x3dede7f0	0.11616504
94	0x3d9b6038	0.07586712
95	0xbf403fe6	-0.750975
96	0xbe18cfeb	-0.14923064
97	0xbeacff01	-0.33788303
98	0xbd21b98d	-0.039483596
99	0xbe0a1f5e	-0.13488528
100	0x3ecbe0dd	0.39819995
101	0x3e2c505a	0.16827527
102	0xbd10d06f	-0.035355028
103	0xbe8facd3	-0.28061542
104	0xbe95c302	-0.29250342
105	0x3e55bb88	0.20872319
106	0x3e71b290	0.23603272
107	0xbd5a2451	-0.05325729
108	0x3d53468f	0.05158096
109	0xbeb1596b	-0.34638533
110	0xbeb3e7d2	-0.35137802
111	0x3c6f74de	0.014615266
112	0xbee0b9c5	-0.4389173
113	0x3e1d5be2	0.15367082
114	0x3cf7e5e6	0.030260991
115	0xbe37af72	-0.17938021
116	0x3d7af474	0.061268285
117	0xbe38791f	-0.18014954
118	0xbea8b8b8	-0.3295343
119	0xbebf1948	-0.37323976
120	0xbee812da	-0.45326883
121	0xbed08c74	-0.40732157
122	0x3dccc2eb	0.09998115
123	0x3db0bce5	0.08629779
124	0xbdf889a7	-0.1213563
125	0xbd8af8f8	-0.06785768
126	0x3db94b41	0.09047557
127	0x3c74359b	0.014905359
128	0x3dbae4b6	0.091256544
129	0xbf08266d	-0.53183633
130	0xbefaf7fc	-0.49017322
131	0x3e32e061	0.17468406
132	0xbe33482e	-0.17508003
133	0x3d685c3b	0.056728583
134	0x3ed62f80	0.41833115
135	0x3d197fec	0.03747551
136	0xbd63e83f	-0.05564141
137	0x39964185	0.00028659045
138	0xbe12f6a5	-0.143519
139	0xbeaf82c8	-0.34279466
140	0xbea9f2b8	-0.33192992
141	0xbf6ee55c	-0.93318725
142	0x3e3c04f3	0.18361263
143	0xbf18d6a0	-0.5970249
144	0x3ef76e34	0.48326266
145	0xbe9c8c36	-0.30575722
146	0xbf1f402b	-0.6220729
147	0xbe9024de	-0.28153127
148	0xbe9cea81	-0.30647662
149	0x3da93e7b	0.0826387
150	0xbd199a41	-0.037500624
151	0x3edee653	0.43535098
152	0xbd020c89	-0.031750236
153	0xbe9ced5b	-0.30649838
154	0xbe728a6d	-0.23685618
155	0xbc9b8370	-0.018983573
156	0xbdda5a2c	-0.1066173
157	0xbe4167a1	-0.18887188
158	0xbe8046a4	-0.25053895
159	0x3e6fc2e6	0.23414192
160	0xbefbecb6	-0.49204034
161	0xbf0ab202	-0.5417787
162	0xbe2d7be4	-0.16941792
163	0xbe5c3fc0	-0.21508694
164	0x3e4a7f59	0.19775142
165	0xbce35b9a	-0.02775364
166	0xbe790b3b	-0.2432069
167	0xbee273e3	-0.4422904
168	0xbeefd63a	-0.4684313
169	0xbde1ed65	-0.110316075
170	0xbdd9fca3	-0.1064389
171	0x3b8b09bc	0.004243104
172	0xbea2dc7b	-0.31808838
173	0xbf2331e4	-0.63748
174	0xbe9a9339	-0.30190447
175	0xbe805130	-0.2506194
176	0xbdd969a6	-0.10615854
177	0x3cf438ab	0.029812178
178	0xbe8d27fe	-0.27569574
179	0x3e9c6b43	0.30550584
180	0xbe7e88c5	-0.24856861
181	0xbe836710	-0.25664568
182	0xbd616bc6	-0.05503442
183	0xbe3ea706	-0.18618402
184	0x3e8afc02	0.27145392
185	0x3d6ff177	0.05857989
186	0xbebe0fe4	-0.371215
187	0x3ea9318e	0.3304562
188	0x3d8b701a	0.06808491
189	0xbea799f2	-0.32734638
190	0x3d797aa4	0.060907975
191	0x3e8e8824	0.27838242
192	0xbf2aa393	-0.66655844
193	0xbe7604a1	-0.24025203
194	0x3db8e56a	0.09028132
195	0xbeaa729e	-0.3329057
196	0xbe507d25	-0.20360239
197	0xbe84eed5	-0.25963464
198	0x3d02996f	0.031884607
199	0x3c791364	0.015202377
200	0xbe564a40	-0.20926762
201	0xbec9fc8f	-0.394505
202	0x3deccabb	0.11562105
203	0xbee27c42	-0.44235426
204	0xbcbf2c4d	-0.023336554
205	0x3edf1d6f	0.43577144
206	0xbe1bb44c	-0.15205497
207	0xbe1edaa8	-0.15513098
208	0x3d38dc2f	0.04513186
209	0x3ddbbb22	0.10729052
210	0x3d89f4ba	0.06736131
211	0xbeaab239	-0.33339098
212	0x3e91ffb3	0.28515396
213	0x3e963f8b	0.29345354
214	0xbe9f5363	-0.31118307
215	0xbf294f0e	-0.6613625
216	0x3f2058f3	0.62635726
217	0xbdc3d4b4	-0.09562054
218	0xbe31d590	-0.17366624
219	0xbe877424	-0.26455796
220	0xbea09e57	-0.31370804
221	0xbedf2b50	-0.43587732
222	0xbebe76b8	-0.3719995
223	0x3d2a88df	0.041634437
224	0xbeb4ad9e	-0.3528871
225	0xbf07b937	-0.5301699
226	0x3e4c1b86	0.19932374
227	0xbe9229da	-0.28547555
228	0x3d2b4879	0.041817162
229	0xbe5d114f	-0.21588634
230	0x3ea3b4e9	0.3197396
231	0xbd82ef74	-0.06393328
232	0xbe6ea435	-0.23304828
233	0xbe9ed140	-0.3101902
234	0x3d333a21	0.043756608
235	0xbda26a34	-0.07930413
236	0xbee691fd	-0.45033255
237	0x3eaed5ae	0.341474
238	0x3dcd2ffc	0.10018918
239	0xbdc2c143	-0.09509518
240	0xbeb1fb3f	-0.34761998
241	0xbe84042b	-0.2578443
242	0xbe09c749	-0.13454928
243	0x3e1be028	0.15222228
244	0x3d03b515	0.032155115
245	0x3e901a4d	0.28145066
246	0xbedb72f3	-0.42861137
247	0xbe52b19e	-0.20575568
248	0xbf0eda83	-0.5580217
249	0xbe3e113d	-0.18561263
250	0xbef3d8cd	-0.47626343
251	0xbe0cf5a2	-0.13765576
252	0xbe227176	-0.15863594
253	0x3f2b9227	0.67019886
254	0xbe9f78bc	-0.311468
255	0x3ee2be76	0.44285935

fc2.weight f4 [128, 258]
0	0xbd906841	-0.07051135
1	0xbcbff928	-0.023434237
2	0x3d94df7e	0.0726919
3	0xbc14820e	-0.009064211
4	0x3d2308e5	0.039803404
5	0xbce6d2fd	-0.028176779
6	0x3d5a8015	0.053344805
7	0x3da43ef6	0.08019821
8	0xbdcb6bb8	-0.09932655
9	0x3a606244	0.00085595646
10	0x3c9c1314	0.019052066
11	0xbd444a97	-0.047922697
12	0xbd7d4c9b	-0.061840635
13	0xbd99a1ef	-0.075015895
14	0xbbf1ca0c	-0.007378822
15	0x3d4f1a24	0.05056204
16	0xbdc3a80a	-0.09553535
17	0xbc4bf499	-0.012448453
18	0x3d2354c4	0.03987576
19	0xbde242ef	-0.11047923
20	0xb9d4da00	-0.00040598214
21	0xbcf77ae2	-0.030209962
22	0x3adf6798	0.0017044423
23	0x3c089499	0.00833621
24	0xbdd6ace8	-0.10482198
25	0xbd46c8b1	-0.048531238
26	0xbdaf4e89	-0.08559901
27	0x3d00c12c	0.031434223
28	0x3c8958b8	0.016765937
29	0xbbe78257	-0.0070650983
30	0xbd7c12d8	-0.06154141
31	0xbc130ba6	-0.008974945
32	0x3d7bca80	0.061472416
33	0x3d450a42	0.048105486
34	0xbe245303	-0.16047291
35	0x3d1fee17	0.03904542
36	0xbcb62793	-0.022235667
37	0x3cfac265	0.030610273
38	0xbdaf1ddd	-0.08550618
39	0xbd87cfc7	-0.06631427
40	0xbc7812fd	-0.015141246
41	0x3c380d56	0.011233648
42	0xbd1511e5	-0.03639402
43	0xbda7164a	-0.08158548
44	0xbd71ea6b	-0.05906145
45	0xbdbace3c	-0.09121367
46	0xbcf81a95	-0.030286113
47	0xbd871328	-0.06595451
48	0xbdc070a2	-0.09396483
49	0xbb037a2d	-0.0020061836
50	0xbd642f14	-0.05570896
51	0x3d22148c	0.039570376
52	0x3cf2386a	0.029567916
53	0xbcf06472	-0.029344771
54	0xbd655856	-0.055992447
55	0x3d74d00e	0.05976873
56	0xbda8b21f	-0.08237099
57	0x3d2fa524	0.0428821
58	0xbc89073c	-0.016727082
59	0x3c173e92	0.0092312265
60	0xbcfcb41b	-0.0308476
61	0x3cc026b0	0.023455948
62	0x3d1f53da	0.038898326
63	0xbdf52713	-0.119703434
64	0xbd5ad068	-0.053421408
65	0xbdcebcbe	-0.100945935
66	0xbd97fd58	-0.07421368
67	0xbdd3c165	-0.103396215
68	0x3afb0d76	0.0019153792
69	0xbda37727	-0.07981711
70	0xbd10b2ee	-0.03532689
71	0xbd4e815a	-0.050416328
72	0xbda2f2b3	-0.079564475
73	0x3c3a6df6	0.011378756
74	0xbd9be98c	-0.07612905
75	0x3bb8a2a2	0.0056346217
76	0xbdb5263d	-0.08845184
77	0x3cf51142	0.029915456
78	0x3b0945f9	0.0020946248
79	0xbdc9ad1c	-0.09847471
80	0x3d934069	0.0719002
81	0xbd919494	-0.07108417
82	0x3d751977	0.05983874
83	0xbe0c86c7	-0.13723288
84	0x3be460de	0.0069695553
85	0x3ce84865	0.028354833
86	0x3d823cff	0.0635929
87	0x3d70a392	0.058749743
88	0xbd881729	-0.066450424
89	0x3b46ae50	0.00303163
90	0xbccf5742	-0.025310162
91	0xbdd67628	-0.10471755
92	0xbda6584c	-0.0812231
93	0xbd626216	-0.055269323
94	0x3c6142c4	0.013748828
95	0xbd28139e	-0.041034333
96	0x3daba329	0.0838073
97	0xbd8a121a	-0.06741734
98	0xbd34ecaa	-0.044171013
99	0xbda7884a	-0.08180292
100	0x3d98c178	0.07458776
101	0xbdbd8a90	-0.09254944
102	0xbd8cf41f	-0.068825
103	0xbc57f5a5	-0.013181125
104	0xbc940337	-0.01806794
105	0xbcb74894	-0.022373475
106	0xbd07e1f1	-0.03317446
107	0xbd73a38b	-0.05948214
108	0x3c92f123	0.017937249
109	0xbc432cdf	-0.011912554
110	0x3cbd8c44	0.023138173
111	0x3d63bb5b	0.055598598
112	0xbd638dd1	-0.05555517
113	0xbce2f035	-0.02770243
114	0xbd920944	-0.071306735
115	0x3d124403	0.035709392
116	0xbdadd57b	-0.08487984
117	0xbc6f0876	-0.01458942
118	0x3d40dc77	0.04708525
119	0x3d463cec	0.048397943
120	0xbdca1b28	-0.09868461
121	0x3cd7784c	0.02630248
122	0xbd60c3c8	-0.05487421
123	0x3aff417c	0.0019474472
124	0xbdb2c43b	-0.08728834
125	0xbd7089ca	-0.058725156
126	0xbd97ac01	-0.07405854
127	0x3ba52fef	0.0050411145
128	0xbdb1ef6a	-0.08688243
129	0xbd3de193	-0.046357702
130	0xbe024ba0	-0.12724161
131	0xbc4df950	-0.012571648
132	0xbc7cb855	-0.015424808
133	0x3c6f9103	0.014621976
134	0x3c948611	0.018130334
135	0xbc2d8829	-0.010591545
136	0x3d771cfe	0.060330383
137	0xbc8e15cc	-0.017344378
138	0xbad157a1	-0.001597155
139	0x3cd8bff7	0.026458723
140	0xbcf41e0e	-0.029799487
141	0xbd5d3c8d	-0.054012824
142	0x3d01f823	0.031730782
143	0xbc9a3f5b	-0.018829038
144	0xbcba406f	-0.022735802
145	0xbd8ef298	-0.06979865
146	0xbd1c81d6	-0.03820976
147	0xbd2d7c7d	-0.04235505
148	0x3d850a9d	0.06496165
149	0xbb47d5b8	-0.0030492377
150	0xbdc7f58c	-0.09763631
151	0xbde99140	-0.11404657
152	0xbcf4abe9	-0.02986713
153	0x3c7d5fb9	0.015464717
154	0xbdb7014a	-0.08935793
155	0xbdb15967	-0.0865963
156	0xbce84e4c	-0.028357647
157	0x3bb004bc	0.005371658
158	0xbb1ab4c1	-0.0023606273
159	0x3d3e4bc1	0.046458963
160	0xbd4d2a52	-0.050089188
161	0x3cf86f9f	0.030326663
162	0x3d0d21bf	0.03445601
163	0xbdcffba6	-0.1015542
164	0xbd9424e8	-0.07233602
165	0xbd45b1cb	-0.04826526
166	0xbd7f1b47	-0.062281873
167	0xbdaf8531	-0.08570326
168	0xbcb472e3	-0.022027439
169	0xbd2ba541	-0.041905645
170	0xbd53c662	-0.051702864
171	0xbcb249b5	-0.021763662
172	0x3d3c97f4	0.04604335
173	0xbce467fb	-0.027881613
174	0xbda5d8cf	-0.080979936
175	0x3d041664	0.032247916
176	0x3d195710	0.037436545
177	0x3c69e6bb	0.014276202
178	0xbc8703ed	-0.016481364
179	0xbd2fb1a6	-0.042894028
180	0xbae26de3	-0.001727518
181	0xbd287e48	-0.041136056
182	0xbd00523b	-0.03132842
183	0xbe1c302c	-0.15252751
184	0xbdcb0888	-0.099137366
185	0x3d921245	0.07132391
186	0xbd13dd46	-0.036099695
187	0xbd38cf14	-0.04511936
188	0xbca93a6f	-0.020657746
189	0x3c7a4763	0.015275809
190	0xbc5cf1e2	-0.013485404
191	0xbda5b94a	-0.08091982
192	0xbcf6ae87	-0.030112518
193	0xbbf7b823	-0.0075597926
194	0xbbd00b13	-0.0063489764
195	0x3bf13976	0.007361586
196	0x3a60168e	0.0008548283
197	0xbc848c4e	-0.016180184
198	0x3cdb90d9	0.026802467
199	0xbdd9242d	-0.10602603
200	0x3d7b0033	0.061279487
201	0xbcd55d2a	-0.0260454
202	0x3cf58c6b	0.029974183
203	0xbcd4a9c5	-0.025959859
204	0xbd33698a	-0.04380182
205	0xbdc7e0ed	-0.09759698
206	0x3dd78ce6	0.10524921
207	0xbd03a395	-0.032138426
208	0xbd9de7ea	-0.0771025
209	0xbd1239a1	-0.03569949
210	0xbbe4cf8a	-0.0069827484
211	0xbd6b5e00	-0.057462692
212	0x3d3dc534	0.046330646
213	0xbd9df120	-0.077120066
214	0xbd030ebb	-0.03199647
215	0x3cb2e50a	0.02183773
216	0xbcfe5f4f	-0.031051306
217	0xbdad31b0	-0.08456743
218	0x3d040282	0.032228954
219	0x3d6c5715	0.057700235
220	0xbd8a0fbe	-0.06741284
221	0xbd5982c1	-0.053103212
222	0x3985c3bc	0.0002551357
223	0xbd58a4c6	-0.052891515
224	0xbd7e6e5b	-0.062116962
225	0xbdd39f6b	-0.10333141
226	0xbd8164e6	-0.06318073
227	0xbde8d0f3	-0.11367979
228	0xbdbef029	-0.09323151
229	0xbdcc9f1e	-0.09991287
230	0xbdf19297	-0.11795538
231	0xbcddaba2	-0.02705938
232	0x3d2b4dcd	0.041822243
233	0xbcd272a8	-0.025689438
234	0xbc508638	-0.012727313
235	0x3d8012f4	0.06253615
236	0xbcab2f54	-0.020896591
237	0xbc1d78ee	-0.009611351
238	0x3c399e78	0.011329286
239	0x3cf10df4	0.029425599
240	0xbc65fb09	-0.014036902
241	0xbd81f0e3	-0.063447736
242	0x3b94105b	0.0045185513
243	0xbd2debeb	-0.042461317
244	0x3d670bbd	0.05640768
245	0xbe0d9332	-0.13825682
246	0xbd5baaf6	-0.053629838
247	0x3ce920e5	0.028458068
248	0xbcc897b4	-0.0244864
249	0xbd85cf44	-0.065336734
250	0xbc8d9f46	-0.017287862
251	0xbdbac9b4	-0.09120503
252	0xbd7e6c78	-0.062115163
253	0x3d7c4fd7	0.06159958
254	0x3b24a9ef	0.0025125702
255	0x3d440031	0.047851745

fc2.bias f4 [128]
0	0x3caf7016	0.021415751
1	0x3dc18b0b	0.094503485
2	0xbbae093a	-0.0053111585
3	0xbd9a724b	-0.07541331
4	0xbe72469b	-0.23659746
5	0xbd88c992	-0.066790715
6	0xbd522b0f	-0.051310595
7	0xbbd48712	-0.006485828
8	0x3e0c914a	0.13727298
9	0xbe6a3619	-0.22872199
10	0xbbfb8a09	-0.007676367
11	0x3e2d33b2	0.16914251
12	0xbdc15067	-0.09439164
13	0x3d859e5b	0.065243445
14	0xbdaafaf3	-0.08348646
15	0x3eab360b	0.3343967
16	0x3e2cf1f7	0.16889177
17	0xbd08c14c	-0.033387467
18	0x3e0e902f	0.13922189
19	0xbd58c89d	-0.052925695
20	0xbea15485	-0.31509796
21	0xbd0ad0ff	-0.03389072
22	0xbe89adb2	-0.26890332
23	0xbdb244e7	-0.08704548
24	0x3d103756	0.035209022
25	0xbd8a9b4b	-0.06767901
26	0xbe898004	-0.2685548
27	0xbdf6702a	-0.12033112
28	0x3e087bb0	0.13328433
29	0xbc4d9c05	-0.012549405
30	0xbd14b8ee	-0.036309175
31	0xbf082f02	-0.5319673
32	0x3da24f8b	0.07925328
33	0x3e373eec	0.17895097
34	0xbdc5945c	-0.09647438
35	0x3e0b6cc4	0.1361571
36	0x3e624a3e	0.22098634
37	0xbd48abba	-0.048991896
38	0xbdc5aabd	-0.09651706
39	0x3e2d57b2	0.16927984
40	0xbbd5874e	-0.0065163737
41	0xbe0a3f66	-0.13500747
42	0xbd363d71	-0.04449219
43	0xbccfc48b	-0.025362274
44	0xbd0e890c	-0.034798667
45	0xbdc2f703	-0.0951977
46	0xbd1889b2	-0.03724069
47	0x3e407949	0.18796267
48	0xbdb58ad6	-0.088643715
49	0x3e71d461	0.23616172
50	0x3dc33f97	0.09533613
51	0x3d78d875	0.060753305
52	0xbe34a4ff	-0.17641066
53	0xbd6d6d5d	-0.057965625
54	0xbc2f04ad	-0.010682267
55	0xbdd4d06d	-0.103913166
56	0xbcccd990	-0.025006086
57	0xbdd13994	-0.1021606
58	0x3e997322	0.29970652
59	0x3e3ecdc1	0.18633176
60	0xbda15b67	-0.07878762
61	0xbe1a8ccf	-0.15092777
62	0x3c44ea3f	0.012018739
63	0xbd4112ff	-0.047137257
64	0x3d944a1b	0.07240697
65	0xbdc51c2b	-0.09624513
66	0xbe7e8f90	-0.24859452
67	0x3bb26c3c	0.0054450314
68	0xbd87c10c	-0.06628618
69	0xbe96245a	-0.2932461
70	0xbe1f0c91	-0.15532137
71	0x3e013f66	0.12621841
72	0xbda37322	-0.07980944
73	0x3c0eb37b	0.008709784
74	0xbdc8ece2	-0.09810807
75	0xbe1099fb	-0.14121239
76	0xbe66fe17	-0.22557865
77	0x3d19861f	0.037481423
78	0xbd9d9b8c	-0.07695684
79	0xbce00d8e	-0.027350213
80	0x3e1c9566	0.15291366
81	0x3e01be67	0.12670289
82	0xbd202b3c	-0.03910373
83	0xbe19b0f0	-0.15008903
84	0x3e150b46	0.14555082
85	0x3d585558	0.052815765
86	0xbdd9d12a	-0.10635598
87	0xbda99483	-0.082802795
88	0xbe36deeb	-0.17858474
89	0xbd643338	-0.05571291
90	0x3db77e32	0.08959617
91	0xbd3c829e	-0.046023004
92	0xbd0d5ee7	-0.034514334
93	0xbbee5a46	-0.007273945
94	0xbdabf8e1	-0.08397079
95	0xbe8710ea	-0.26380092
96	0x3cb804bb	0.022463193
97	0xbdb42ed8	-0.08797997
98	0x3cba7f36	0.022765737
99	0x3d0ca73f	0.034339186
100	0x3bfc1d37	0.0076939124
101	0xbda4aff2	-0.080413714
102	0xbe007b0f	-0.12546943
103	0x3d647c6f	0.05578273
104	0xbcf68ebb	-0.030097356
105	0xbde9b056	-0.114105865
106	0xbe429852	-0.19003418
107	0xbe82f944	-0.255808
108	0x3c8ceaf7	0.017201884
109	0xbd5be840	-0.053688288
110	0x3c09643e	0.008385716
111	0xbd10559d	-0.035237897
112	0x3dbf92e9	0.09354193
113	0xbe122092	-0.14270237
114	0xbd7ba09e	-0.061432473
115	0x3ebac29b	0.36476597
116	0xbe5eb502	-0.21748737
117	0xbda00de2	-0.07815148
118	0x3e87e2bc	0.26540172
119	0xbe27d9f1	-0.16391732
120	0xbb8acca9	-0.004235823
121	0xbe116c23	-0.14201407
122	0xbc5bb76d	-0.013410431
123	0xbe1df068	-0.15423739
124	0xbd9f7e62	-0.077877775
125	0xbc0eef4b	-0.008724044
126	0xbe2ec242	-0.17066291
127	0x3e5c8adc	0.21537346

fc3.weight f4 [1, 128]
0	0xbbf2e8c0	-0.007413
1	0x3d686945	0.056741018
2	0x3d15ed69	0.036603365
3	0x3bbcbd16	0.0057598455
4	0xbe17e85b	-0.1483473
5	0x3c6c7e6b	0.014434437
6	0x3cbce8d9	0.02306025
7	0xbd194e36	-0.037428103
8	0x3d210da5	0.039319653
9	0xbc8f30f5	-0.0174794
10	0xbbf4a81c	-0.0074663293
11	0xbd098066	-0.033569716
12	0xbd442fbc	-0.047897086
13	0x3d724fb3	0.05915804
14	0xbd55a01d	-0.05215465
15	0xbc831286	-0.016000044
16	0x3d18642c	0.037204906
17	0xbe79b75c	-0.24386352
18	0x3d1413fe	0.03615188
19	0xbc74e49e	-0.014947085
20	0xbe02ac41	-0.12761022
21	0x3c705cc6	0.014670556
22	0xbddaeedf	-0.10690092
23	0xbc9822fa	-0.018571366
24	0x3c9f15be	0.019419547
25	0x3b11e7ee	0.0022263485
26	0xbd427955	-0.047478992
27	0xbdf7b21c	-0.120945185
28	0x3d5a4b7c	0.053294644
29	0x3c16191d	0.009161261
30	0xbba4156a	-0.0050074356
31	0x3d035c73	0.03207059
32	0xbd1c9b99	-0.038234327
33	0xbdebe833	-0.11518898
34	0x3c198a98	0.009371422
35	0x3c801a35	0.015637496
36	0xbc8f5a70	-0.017499179
37	0x3bcf2eef	0.0063227336
38	0xbdd47d63	-0.10375478
39	0x3c90aa65	0.017659375
40	0x3d018d4c	0.03162889
41	0xbc27a452	-0.010232048
42	0xbc2c8249	-0.010529109
43	0x3e37135b	0.17878477
44	0xbccacf34	-0.024757005
45	0x3bb6580c	0.005564695
46	0x3e1c882f	0.15286325
47	0x3cd5c6fc	0.02609586
48	0xbd47296e	-0.048623495
49	0xbc84ce71	-0.01621172
50	0x3c805c2e	0.015668955
51	0x3d614738	0.05499956
52	0xbca21bd1	-0.019788655
53	0xbc63a544	-0.013894383
54	0xbc88c09a	-0.016693402
55	0xbc8b19a0	-0.016979992
56	0xbbef95f3	-0.0073115765
57	0x3c97ac9f	0.01851493
58	0x3d1356ca	0.03597144
59	0xbcb43065	-0.021995733
60	0xbd0ce53b	-0.0343983
61	0xbd403630	-0.046926677
62	0xbcb12ea1	-0.02162868
63	0xbd97de11	-0.07415403
64	0x3d468a81	0.04847193
65	0xbb810fa7	-0.0039386335
66	0xbdb04e35	-0.08608667
67	0xba758899	-0.0009366363
68	0xbc553bad	-0.013014716
69	0xbd6d15b2	-0.05788202
70	0xbde339ef	-0.11095034
71	0x3c5d4832	0.013505982
72	0xbbd043c5	-0.006355735
73	0xbda2de59	-0.07952566
74	0xbd80c946	-0.0628839
75	0xbdada821	-0.08479334
76	0xbe65534d	-0.22395058
77	0x3ddd7e5e	0.10815118
78	0xbdd9eb26	-0.10640554
79	0xbcca3a4b	-0.024686
80	0xbd08dbce	-0.033412747
81	0x3c8cd162	0.017189685
82	0xbd1b54fe	-0.03792285
83	0x3d477b0c	0.04870133
84	0xbd2542ce	-0.040346913
85	0x3d539518	0.05165586
86	0x3dbfd811	0.09367383
87	0x3c4d2b3d	0.012522516
88	0xbe2f5f0f	-0.17126106
89	0xbe09055b	-0.13380949
90	0xbd8649a5	-0.06557015
91	0xbc638040	-0.013885558
92	0x3d76d771	0.060264055
93	0xbccc673d	-0.024951572
94	0x3b19a492	0.0023444039
95	0xbd108f6c	-0.035293028
96	0x3d870e0b	0.06594475
97	0xbc5660d0	-0.013084605
98	0x3d0788f6	0.0330896
99	0xbd6d9034	-0.05799885
100	0x3d225c6a	0.039638914
101	0xbc2831f9	-0.010265821
102	0xbd35db78	-0.044398755
103	0xbd744764	-0.059638396
104	0xbad9f8f5	-0.0016629981
105	0xbcc15d72	-0.023604129
106	0xbd4fdcbe	-0.050747626
107	0xbc4b4d9b	-0.012408639
108	0xbd9a72bb	-0.07541414
109	0xbbba4df3	-0.005685562
110	0xbd6b2323	-0.057406556
111	0x3ae96e90	0.001780944
112	0xbcf6bc25	-0.030119011
113	0xbd5e17e1	-0.05422199
114	0xbc36953b	-0.011143978
115	0x3c4567d9	0.012048685
116	0xbc574503	-0.013139012
117	0x3b5d3b21	0.0033757167
118	0xbcc113cd	-0.023569012
119	0xbd104709	-0.035223994
120	0x3c8efa1c	0.017453246
121	0x3ce40016	0.027832072
122	0xbd37dc5f	-0.044887897
123	0xbcbdeb65	-0.023183534
124	0xbcf5ab58	-0.02998893
125	0xbc9237cc	-0.017848872
126	0x3cbbf5c6	0.022944342
127	0x3d81b6a8	0.06333667
