checkpoint_critic2d.pth (torch_old, 159738 bytes, 5 tensors)

fcs1.weight f4 [256, 24]
000000 a7 fc a9 3d f6 56 68 3d 73 97 92 3c 09 87 94 bd
       0.08300143 0.056723557 0.017894482 -0.072523184
000010 79 3b 18 bd ea 6e ff bd de b9 f4 bc e1 82 a1 bb
       -0.037166093 -0.12472327 -0.029873785 -0.004928932
000020 0f 31 8f 3d f9 c0 d5 3d d7 ac 73 bd f0 ab 95 3c
       0.06991779 0.10437197 -0.059491005 0.018270463
000030 23 68 42 3d 01 d8 2a bd f9 44 25 3d 0b 30 d9 3c
       0.047462594 -0.041709904 0.04034898 0.026512166
000040 4c 1e 86 3d 90 23 a6 ba ec 75 32 3d 24 42 d1 bc
       0.065487474 -0.0012675393 0.04356949 -0.025544234
000050 cb 65 ce bc 5c e7 6e 3d 23 09 54 bd 66 5f f9 3a
       -0.025195023 0.05832611 -0.051766526 0.0019025623
000060 03 ee 07 3f 84 93 99 3e 4f 0c ed bc 60 bf 0b be
       0.5309755 0.29995358 -0.028936533 -0.13647223
000070 39 11 cf 3d 49 8c 4d 3e a0 f3 80 3c 31 80 21 be
       0.10110707 0.20073046 0.01574117 -0.15771557
000080 e8 b1 14 3e 1a 19 8c 3e 47 14 0d 3d 52 f0 04 be
       0.14520991 0.273629 0.034443166 -0.129823
000090 74 63 90 3d 6c 39 2a 3e 22 ee d1 ba 96 0a 07 be
       0.07050219 0.16623467 -0.0016016404 -0.13187632
0000a0 79 f6 d5 3e 90 07 86 3e 2b 6f cf 3c 46 a9 7a be
       0.41789606 0.26177645 0.025321564 -0.24478635
0000b0 c6 49 f1 3d 35 eb 0a 3f 47 ba 8a 3d 7b 14 5e be
       0.11781649 0.5426515 0.06773811 -0.216875
0000c0 69 bd 70 bc 40 94 a2 bd 26 c6 bb bb a7 b8 6e bc
       -0.014693596 -0.07938433 -0.0057304082 -0.014570392
0000d0 c8 38 11 bf 13 c5 dd be 9a 2d 7f 3c a2 d8 97 ba
       -0.56727266 -0.43314418 0.015574837 -0.0011584947
0000e0 e0 d0 07 bd a8 67 01 bd a0 58 73 bc b1 ef b6 bd
       -0.033158183 -0.031592995 -0.014852673 -0.08932436
0000f0 80 be 19 be 21 9a e3 bd 96 a0 04 ba d5 57 51 bc
       -0.15014076 -0.11113382 -0.00050593296 -0.012777288
000100 4c 8c e5 3c ae fa bd bd 04 ba b9 3c c2 51 9b 3a
       0.028021 -0.09276329 0.022671707 0.0011849927
000110 4a d3 37 3f 95 57 d7 3e 44 d8 15 bd e7 7d 6e 3b
       0.71806777 0.42059007 -0.0365832 0.0036390962
000120 7a 26 8d 3d ec c8 89 3e 15 a4 ca 3b 8d f8 17 3e
       0.068921044 0.26911104 0.006184111 0.14840908
000130 7f 72 0a be 4d 50 a7 3e 47 72 8d 3c 60 ab 2c 3e
       -0.1352024 0.32678452 0.017266406 0.1686225
000140 e6 d9 f4 bc 12 a7 a3 3e 3d 42 72 bc 22 ca 03 3e
       -0.029889058 0.31963402 -0.0147863 0.12870076
000150 57 39 23 bd 67 6a a2 3e 8d 6e 49 3d 0e f9 50 3d
       -0.039849605 0.31721804 0.049177695 0.051018767
000160 77 21 dc bd 4a 7b 91 3e c9 eb 11 3d c3 47 68 bd
       -0.107485704 0.28414375 0.035625253 -0.056709062
000170 fc 85 1e 3e 4a 79 7e bf 03 7c 4f 3d 8c e1 84 bd
       0.15480798 -0.9940382 0.050655376 -0.06488332
000180 34 a4 32 3e 5e 25 18 3e 1e 11 65 bd 30 d8 59 be
       0.17445451 0.14858004 -0.055924527 -0.21273875
000190 45 0f 54 bc 40 8e 9e be 81 50 9c 3b 84 19 84 be
       -0.012943094 -0.30967903 0.004770339 -0.25800717
0001a0 45 a8 b7 3d 17 8d 69 3e 6d f9 b0 bc 68 cf 4a bd
       0.08967642 0.22807728 -0.02160331 -0.049514204
0001b0 10 65 3e 3d 5f 09 5b 3e fc d6 31 bd b8 4f 42 3d
       0.0464831 0.21390294 -0.043417916 0.047439307
0001c0 65 02 43 3e 35 11 56 3e f2 07 1a 3b 56 2c b8 3e
       0.19043882 0.20905001 0.002350327 0.35971326
0001d0 fc 6c 44 bd cc 8d c7 bf 33 0c 33 3d af 79 a2 3e
       -0.047955498 -1.5590148 0.043712806 0.31733462
0001e0 57 98 79 3e 68 1c 43 bd f1 78 43 3c 6c 2e cd 3c
       0.2437452 -0.047634512 0.01193069 0.02504655
0001f0 46 e9 8c 3d 58 aa 5a 3d 7a d2 ec bc 74 ac 85 bc
       0.06880431 0.05338511 -0.028908957 -0.016317584
000200 38 27 86 3e 4b 01 bb bd 7b f4 b5 b9 2d 0c 10 3d
       0.26201797 -0.09131106 -0.00034705162 0.03516786
000210 b9 aa 63 3c dc 45 09 3d cd 77 cd bc a0 c0 3d 3c
       0.013895684 0.03351389 -0.02508154 0.01158157
000220 72 70 3f 3e 50 a1 26 bc 59 c9 af bc 06 43 72 3d
       0.18695238 -0.010170296 -0.021458315 0.05914595
000230 41 e8 8d bd b0 1f 1d 3d d0 76 bf bb 3a 5f 63 bc
       -0.069290645 0.038360298 -0.005843021 -0.013877684
000240 a7 1a ad 3d 63 9d a1 3d 2e 5e e4 bc d5 e1 77 bb
       0.08452349 0.07891347 -0.02787694 -0.0037823815
000250 36 ab 41 bc a7 05 9c 39 d5 ef 50 3c 1c ad 4b 3d
       -0.011820605 0.0002975885 0.012752493 0.049725637
000260 9c 88 5c 3d c1 6a 46 3d 79 60 09 3d 03 8a 19 3d
       0.05384122 0.048441652 0.03353927 0.037485134
000270 8d 4a 30 bd a6 70 fb bc 27 97 44 bd e7 f9 18 bc
       -0.043039847 -0.030693363 -0.047995713 -0.009336925
000280 e4 09 8e 3d 75 1b 91 3d 9f e0 0b bc 02 05 61 bd
       0.0693548 0.07085315 -0.008537441 -0.054936416
000290 b5 e1 75 3c a4 ac 4d bd c8 cd 36 bc 0a 40 5f bc
       0.015007426 -0.05021347 -0.0111574605 -0.013626108
0002a0 cf e9 40 bd be 13 07 3e 84 71 dc bc 04 7c 3d bd
       -0.047097977 0.13191125 -0.026909597 -0.04626085
0002b0 f5 50 26 3d 34 b7 22 be 60 f6 e3 3b e5 95 c1 bc
       0.04060455 -0.15890199 0.0069568604 -0.023631046
0002c0 60 3d 6b bd 4d b8 03 3e 3c 7b 45 bd 45 c7 03 3e
       -0.05743158 0.12863274 -0.04821323 0.12868984
0002d0 e6 44 ac bd 5e e5 77 be c3 4f bf 3c d7 3f 4b 3e
       -0.08411579 -0.2420859 0.023353463 0.19848572
0002e0 34 e3 df bd da 12 86 3d ed 9d a3 bc a5 98 49 3e
       -0.109320074 0.065465644 -0.019972766 0.19687136
0002f0 bd 41 b1 be a7 89 e1 be 0b 72 d7 3a 59 31 25 3e
       -0.34620467 -0.44050333 0.0016437186 0.16132106
000300 4b 6f c5 bc e0 b2 ad bd 3a 95 e3 bc 4c 59 3d be
       -0.02410092 -0.08481383 -0.027781118 -0.18491095
000310 75 d7 22 3e 0a 3f f2 be 84 62 da bb 9a 2d 56 be
       0.15902503 -0.4731372 -0.006664576 -0.20915833
000320 57 84 13 3d 5b fc 9d bd e8 43 3a 3d 5d 3f e5 bd
       0.03601488 -0.077141486 0.045474917 -0.11193726
000330 41 24 90 3d cd 68 09 3e aa a5 1c bd eb 40 43 be
       0.07038165 0.13418885 -0.038243927 -0.19067733
000340 1d 79 29 3e ad 03 29 be 68 80 f2 bc cd 5a ef 3c
       0.16550107 -0.16505308 -0.029602244 0.029218102
000350 7f 93 db bd 62 ad 3b 3f fc e8 e2 bc 8d 36 9b 3b
       -0.10721492 0.73311436 -0.027698986 0.0047367276
000360 37 d3 7d 3d 17 ed 24 3e f7 af 1f bd d5 09 7b bd
       0.06196901 0.16106068 -0.038986173 -0.061288673
000370 a9 69 a5 3b ba eb 15 be 8e 68 ed 3c cd d7 8d bd
       0.005047996 -0.14640704 0.02898052 -0.06925926
000380 32 13 22 3e 36 02 dd 3d 6a 3f cc 3c 0b f6 67 3d
       0.15827635 0.10791437 0.024932582 0.05663113
000390 9f 91 6f bc 9c 1a c2 bd 60 5a 31 bd a4 fb 3c 3d
       -0.014622121 -0.094777316 -0.04329908 0.04613842
0003a0 14 84 65 3d f0 6d 43 3e 43 25 28 bd 44 15 95 3d
       0.056034163 0.19084907 -0.04105116 0.07279447
0003b0 a8 c1 c8 bc 61 c5 0e bd fb 9c 22 3d df 92 16 3d
       -0.024506405 -0.034856204 0.03970049 0.03676116
0003c0 e2 58 ec bd bc 74 6a 3f 5f e7 f7 3b 64 28 d0 3d
       -0.115403906 0.9158437 0.0075654234 0.10163954
0003d0 d0 03 af bd 3e 96 c0 bd 40 66 b6 bb 1c 6a 1a 3e
       -0.08545649 -0.094036564 -0.0055663884 0.1507954
0003e0 c5 ac 86 bc 6e bb 6b 3f fa 07 88 3d b4 07 32 3c
       -0.016439805 0.9208287 0.066421464 0.010866094
0003f0 53 a4 84 bd 0b 6a 60 be 95 a7 93 bc 10 9c c3 3c
       -0.06476655 -0.21915452 -0.018024245 0.023878127

fcs1.bias f4 [256]
000000 92 37 30 be 24 10 ac be 7b 91 97 bd 5e 21 72 3e
       -0.17208698 -0.33606064 -0.07400795 0.23645541
000010 fe 3b 2f be 51 30 73 be c6 e5 71 be 88 38 1c bd
       -0.17112729 -0.237489 -0.23622808 -0.03813985
000020 a8 e6 09 bf 9a 27 90 be 3f 81 5d bc e0 8b a4 be
       -0.5386758 -0.28155214 -0.013519584 -0.32137966
000030 d0 5e 6f bd 9e e7 26 bf e2 f8 50 3e 30 ce 89 3e
       -0.05844003 -0.6519717 0.20407441 0.2691512
000040 e9 85 b2 be 23 a2 77 be 52 93 77 be 42 66 c8 be
       -0.3486779 -0.24182944 -0.24177292 -0.39140517
000050 34 85 17 be 64 1f e5 be 63 67 8d be fa c0 c3 be
       -0.14796907 -0.44750512 -0.2761794 -0.38233167
000060 e7 06 88 be b5 39 e6 be dd 43 84 be ac e7 58 be
       -0.26567766 -0.44965902 -0.25833026 -0.21182126
000070 5b 45 4d be 1c 33 ec be 7e 7b e4 bd 25 5d 15 bf
       -0.20045988 -0.46132743 -0.11156367 -0.5834525
000080 3c 26 2f be 50 aa 8f bd f7 84 d1 be 66 9d f6 bd
       -0.17104429 -0.070149064 -0.40921757 -0.1204174
000090 ee 92 b0 be 7b 00 5b 3e 8b e0 0e be 72 cd 01 be
       -0.34487098 0.21386902 -0.13952844 -0.12676027
0000a0 96 8a 82 be 87 cb 51 be 8f 96 74 be d7 74 b8 be
       -0.25496358 -0.20487796 -0.23885559 -0.36026642
0000b0 7d a6 63 3e a4 a6 7e be 9a dd 19 bf b7 24 90 be
       0.22231479 -0.24868256 -0.6010376 -0.2815301
0000c0 d1 87 12 be 5c 41 5e be 29 c9 26 be 31 6d 27 3c
       -0.14309622 -0.2170462 -0.16287674 0.010218904
0000d0 5f 6e d7 be eb 18 d0 be 97 5a b5 bd c5 77 bf be
       -0.42076394 -0.4064401 -0.08855169 -0.37396064
0000e0 6e 10 83 be 44 df a3 be 1f a7 e8 be dd a5 6e 3d
       -0.25598472 -0.32006276 -0.45440003 0.05826365
0000f0 31 2e 32 be ea 49 3a be 8a dc 4a be 9f 20 2e bf
       -0.17400433 -0.18192258 -0.19810691 -0.68018526
000100 c1 fa 07 3b 52 6b 3a be 5c 84 c2 be ca 0b c2 3e
       0.0020748826 -0.18205002 -0.37991607 0.3789962
000110 09 80 da be d0 45 71 be 99 f1 ab be fa 87 02 be
       -0.42675808 -0.23561788 -0.33582762 -0.12747183
000120 fb 9a 06 bf fd 7c b3 be b9 b6 19 be 95 2f aa 3e
       -0.5258023 -0.35056296 -0.1501111 0.33239427
000130 bf 52 5b bd 25 98 1a 3e 00 d8 19 3d a0 39 d9 bd
       -0.05354571 0.15097101 0.03755951 -0.10606694
000140 ca 8c 8d bd f5 e2 06 be 4c 27 d5 be cf c4 da be
       -0.06911619 -0.13172515 -0.41631544 -0.42728278
000150 55 69 d6 3e 9b 9e b4 be 99 2a 65 be 3c 67 f7 bd
       0.41877237 -0.35277256 -0.22379531 -0.12080237
000160 2d 32 13 be 2d ee cf bd 24 72 0f be eb bd 79 3b
       -0.1437461 -0.1015285 -0.14008385 0.0038107585
000170 e7 90 3a be 26 97 db bb eb 0c ac be d2 5b 10 bf
       -0.18219338 -0.006701368 -0.33603606 -0.56390107
000180 78 6d f2 bc cf 4c db be 05 c1 ea bd 76 aa 71 3e
       -0.029593214 -0.42832038 -0.11462597 0.23600182
000190 f9 c0 83 3d ff b9 79 3e 29 70 f8 bd 7c 93 5e bd
       0.06433291 0.24387358 -0.12130768 -0.05433987
0001a0 9d 10 a6 be 7a 8e d9 bd 5f fc ce 3a 08 d3 5b be
       -0.3243455 -0.106228784 0.0015791765 -0.21467221
0001b0 86 3b 63 be 4c a5 56 be 21 23 af be 6f 9b b5 be
       -0.22190675 -0.20961493 -0.3420649 -0.3547015
0001c0 3c 25 83 be 33 18 95 3d c4 35 3b be 78 4b 02 be
       -0.25614345 0.07280006 -0.18282229 -0.12724102
0001d0 6b fb b5 3d 23 f8 8a be 47 8b a5 be 53 e4 b5 bc
       0.08885845 -0.27142438 -0.32332823 -0.0222036
0001e0 2e ac d5 be 6d de 8d bd 10 cb 3c 3e eb c7 bf 3a
       -0.41732925 -0.0692719 0.18436837 0.0014631724
0001f0 55 e1 ce 3d b7 54 70 be 6e fc 5e be 18 f2 12 bf
       0.101015724 -0.23469816 -0.21775982 -0.57400656
000200 ea d9 dd bd 69 53 a3 be bb 2e 41 bf 7c 30 94 3c
       -0.108325794 -0.31899574 -0.7546193 0.018089525
000210 dd 7b 6e be 09 75 5c be eb 77 25 3e c8 b3 ad bd
       -0.23289438 -0.2152902 0.16159026 -0.08481556
000220 e9 2b c0 bd 90 71 3a 3a ec d0 ce bd ff 69 88 bc
       -0.09383375 0.0007112259 -0.100984424 -0.016652105
000230 c6 e9 20 be 23 91 85 be 92 4c 98 bd 4c c3 6f be
       -0.15714177 -0.26087293 -0.0743648 -0.23414344
000240 e0 0d 49 be 13 2e 3b bf c7 51 b2 be 70 ed 91 be
       -0.19634199 -0.7311718 -0.34828016 -0.28501463
000250 5f ee b8 bd 14 fe ef 3d 5a 89 92 bd a3 50 b3 bd
       -0.09029841 0.117183834 -0.07155104 -0.087556146
000260 92 89 03 bd b8 1d bf be d4 34 cd bd b5 45 f4 bd
       -0.03211362 -0.3732736 -0.10019842 -0.11927358
000270 f2 e4 36 3e 05 50 4c be af 88 ad be 01 99 1f be
       0.17860773 -0.199524 -0.33893344 -0.1558571
000280 8b 41 9f be 1f 1b d0 bd b0 24 44 be 58 b0 3a bd
       -0.31104693 -0.10161423 -0.1915462 -0.04557833
000290 6c 9c 9e be 27 14 a2 3d e1 c2 c5 bd 9a 75 85 bd
       -0.30978715 0.07914 -0.09656311 -0.06516571
0002a0 c7 1e 15 be 77 77 13 3c 2f bf 17 be d3 7e b4 be
       -0.14562522 0.009000651 -0.14819025 -0.3525301
0002b0 61 65 1a bf ce dd 22 bf 1f 63 70 be b1 22 b5 be
       -0.6031094 -0.636197 -0.23475312 -0.3537803
0002c0 8c 5d 8c be c0 86 85 bd 1a cf 37 bf fb b7 dd bb
       -0.2741512 -0.06519842 -0.71800387 -0.006766317
0002d0 a5 4f 13 bf 34 bc 0c 3e 64 c4 8e bd 20 7b 87 3d
       -0.575434 0.13743669 -0.06971052 0.06615281
0002e0 f3 65 50 3e 5a 9a d4 be 57 a3 34 bf 5d 3b b6 3a
       0.2035139 -0.4152401 -0.70561737 0.001390319
0002f0 b5 2e c3 bd ad 53 1f be d3 a1 71 3e 49 73 cd bd
       -0.09530393 -0.15559264 0.23596887 -0.100317545
000300 1a 33 38 be 9e fa b3 be a5 91 d9 3e a2 69 b9 be
       -0.17988244 -0.35152143 0.4249393 -0.36213404
000310 fd 9e 09 bf 00 ad 2f 3b 15 40 87 3d 1e fc 68 be
       -0.5375822 0.0026805997 0.066040196 -0.22752425
000320 86 b3 c7 be 7c 97 80 be d0 d3 86 be 20 9c 02 bf
       -0.39004153 -0.25115573 -0.26333475 -0.5101948
000330 98 3a 1b be 9b 28 5e bc 45 4b fb be 6d ef 3c be
       -0.1515907 -0.013559486 -0.49080864 -0.18450709
000340 fb 3a 3f be 35 2d 2d 3d 55 e4 81 bc bc 8d 61 be
       -0.18674843 0.04227944 -0.015855948 -0.22026724
000350 10 4f 43 bc 6f b2 61 bd 4d 92 55 bf 99 b1 a9 be
       -0.011920705 -0.05510181 -0.8342636 -0.3314331
000360 75 08 81 bd 7a 6b 45 3d 9a 58 a2 be bc 96 4c be
       -0.06300441 0.0481982 -0.31708223 -0.19979376
000370 0f 5f a1 be f4 8b 0e be d3 9a 1d bf 9b 28 00 bf
       -0.31517836 -0.13920575 -0.6156437 -0.5006196
000380 05 85 ee bd f0 f8 03 bf ca da 70 be 13 b8 43 bf
       -0.11646465 -0.51551723 -0.23520961 -0.7645275
000390 10 79 df be 89 55 df be a0 20 36 3d 5f e4 8e 3e
       -0.4364705 -0.43619946 0.044464707 0.27908608
0003a0 b2 8e 4f be 48 0d dd be 7d 45 fc bd 3d e4 43 be
       -0.20269278 -0.43174195 -0.12317941 -0.19130035
0003b0 5c 87 80 be e5 e3 e6 3d 02 e4 01 be e5 d2 ce be
       -0.2510327 0.11273936 -0.12684634 -0.40395275
0003c0 57 2b 05 bf 15 bf d7 be 61 c3 8d be 39 c0 42 be
       -0.52019256 -0.42137972 -0.27688125 -0.1901864
0003d0 a6 9e 05 bf bd 8b ee bd 07 6b 09 bf e1 9e 5e be
       -0.52195203 -0.11647747 -0.53678936 -0.21740295
0003e0 89 aa 55 be 7d 61 7f be 0c d7 bd be 75 fd 2f be
       -0.20865835 -0.24939533 -0.3707813 -0.1718653
0003f0 70 11 28 be 0f 70 a5 3e de b6 31 be ed 4c 0b be
       -0.16412902 0.32312056 -0.17354915 -0.13603564

fc2.weight f4 [128, 258]
000000 83 0b ee bc 92 30 c9 bc 27 28 02 3d 4d 2d f1 bc
       -0.029058224 -0.024559293 0.031776574 -0.029440546
000010 d9 cb 43 3d 91 53 2e bd e9 a6 b0 3d d5 f9 a6 3d
       0.047801826 -0.042560164 0.086255856 0.081531204
000020 4d fa 15 bd a8 48 0d 3c 73 d5 7f 3b 78 2c 87 bd
       -0.03661566 0.00862328 0.0039037138 -0.066002786
000030 bd 02 0a bd db 5a 34 bd 2d eb a6 bd 55 2f 6d 3d
       -0.033694018 -0.04403196 -0.08150325 0.057906467
000040 9b e6 16 be 18 71 14 3e be 4f 4e 3d e3 75 eb bc
       -0.14736407 0.14496267 0.050369017 -0.028742736
000050 0b 1a 5c 3b af 82 f7 bd d8 ee 8e 3c 78 f9 29 bc
       0.0033584859 -0.12085473 0.017447874 -0.010374419
000060 36 61 08 be 7e dc 83 bd 60 e5 1f bd d5 2b 0c 3d
       -0.13318333 -0.0643854 -0.03903711 0.03422149
000070 d5 aa c9 3d 27 6c 36 bc d5 c9 c0 bc b9 19 45 bc
       0.09847037 -0.011134184 -0.023533741 -0.012030059
000080 06 3d 62 3d a0 15 46 3d 46 20 00 be 84 ae 61 3d
       0.055233978 0.048360467 -0.12512311 0.05509807
000090 4e 5a 9e bc 2b da 35 bd 02 c4 b6 bd e2 44 7e be
       -0.01933017 -0.044397514 -0.08924104 -0.24830964
0000a0 a6 75 bb bc 10 79 1b 3c d0 42 1f bd 7f 7a db bc
       -0.022883248 0.009489313 -0.038882077 -0.02679181
0000b0 12 bd 53 bd 57 3d a4 bd 3a 1c 10 bd cb eb 6a bd
       -0.051693983 -0.08019512 -0.03518317 -0.057353776
0000c0 2b 8f 49 bd 59 d0 6f bd e3 42 9c bd ee a6 0f 3b
       -0.0492088 -0.058548305 -0.07629945 0.0021919566
0000d0 0e d8 ce 3c 42 b5 9f be df 1f 7b bd 40 c5 51 3d
       0.025249507 -0.31192976 -0.06130969 0.051213503
0000e0 29 1d fb bd 38 8f 1d 3d 28 04 7c bc 40 f1 21 3d
       -0.12261421 0.038466662 -0.01538185 0.039536715
0000f0 76 53 b7 bc 66 37 f7 bd 80 9e 92 3d ae c1 2c bd
       -0.022378664 -0.12071113 0.07159138 -0.042176895
000100 0e 15 89 bd 1b 3b db bd d7 12 6c bd ce 9a cc be
       -0.06693469 -0.10704633 -0.057635155 -0.39961857
000110 33 9c 7d bc 52 97 af bd d6 7f 17 bc 2b dd 6c 3d
       -0.015479135 -0.08573784 -0.009246787 0.05782811
000120 61 ba 4d bd a1 c3 ea bd ac b8 fd bd 01 33 bd bd
       -0.050226573 -0.114630945 -0.12388739 -0.09238244
000130 b1 2d 6e bb 61 61 04 3d de 94 1e 3d 19 f2 9d bd
       -0.0036343152 0.03231943 0.03871619 -0.07712192
000140 e8 9a a5 3d b2 cb 33 bd 8b c1 1d 3d c0 5d 9b bd
       0.08086187 -0.04389543 0.038514655 -0.07586241
000150 9e c3 a6 3c 62 6f 3d 3d 94 b5 57 3c 1c 83 32 3d
       0.02035695 0.0462488 0.01316585 0.043582067
000160 62 2b 7b bd 81 db 76 3c e3 1d e3 bc 0b 9e ab bd
       -0.06132067 0.015066982 -0.027724212 -0.08379754
000170 87 c3 b5 bd 6d 46 3a bd e9 db 84 3b 67 7a 41 3d
       -0.088751845 -0.04547732 0.0040545356 0.047235873
000180 88 c3 29 3d b1 18 47 be b2 36 99 bd c4 08 23 be
       0.04144624 -0.19443013 -0.074811354 -0.15921313
000190 1d 15 06 3d 0f ef 28 be 81 46 90 bd 7a 1d da bd
       0.03273498 -0.16497444 -0.070446976 -0.106501535
0001a0 5d 27 34 be 29 f9 31 be f1 25 1c bd 4c c1 4a bd
       -0.17593141 -0.17380203 -0.03812212 -0.04950075
0001b0 de 6b 8a 3c d9 f7 c4 bc 1e e3 7d 3c 9c d9 25 bb
       0.016897138 -0.024043964 0.0154960435 -0.0025306707
0001c0 7f c1 2a bd 80 9f 5f bc 3c d5 91 bd 98 14 19 3d
       -0.04168844 -0.013648868 -0.07120749 0.037373155
0001d0 ec ce 5f bd 96 25 36 bd a4 d5 82 3d 59 eb 79 3d
       -0.054640695 -0.04446944 0.06388405 0.06101546
0001e0 5c e9 2b be 02 ba 00 3d a8 03 bf bd ca b4 9b bd
       -0.16788238 0.03142739 -0.09326869 -0.07602842
0001f0 eb f6 d7 be 81 8e 40 bd 9f 43 1e be d7 2a e1 bc
       -0.4218057 -0.047010902 -0.15455483 -0.027486248
000200 f5 e5 e2 bd 13 03 11 bd 59 9a a1 be 52 f8 9f bc
       -0.11079017 -0.035403322 -0.3156307 -0.019527588
000210 3b 8c fc bd 8d b3 dd 3b 24 73 3c be 4f d4 ae 3b
       -0.12331434 0.006765789 -0.18403298 0.0053353678
000220 33 73 3e 3c 69 70 95 bc 38 84 b0 3d a9 f5 39 3c
       0.011624145 -0.018242078 0.08618969 0.011350074
000230 b1 ff ee bc e3 4c 18 bb f8 c1 a1 3c 48 66 5b 3c
       -0.029174658 -0.0023239187 0.019745812 0.013391085
000240 94 31 87 bd 14 4a 81 bd d0 2a 20 bd ab 72 08 bd
       -0.06601253 -0.063129574 -0.03910333 -0.03331248
000250 16 7c 1c 3d 78 62 fa 3b e5 74 85 bd c5 3e bf bd
       0.038204275 0.007641133 -0.065164365 -0.09338144
000260 59 19 1a 3d 20 82 d6 3c 57 60 9b bd 42 bc 8c bd
       0.03762183 0.026185095 -0.07586735 -0.06871845
000270 9c 56 2f bd 78 f8 3c bd fc e1 48 3b 90 ea a1 3d
       -0.042807207 -0.046135396 0.0030652275 0.07906067
000280 1e 01 43 bd 10 7e d2 3d d4 c6 00 3d d1 20 ae bd
       -0.047608487 0.10277951 0.031439617 -0.08502353
000290 d9 8b 93 bd c1 ba a6 bc 4e 0a 8e bd ac 67 c6 bc
       -0.07204408 -0.020352723 -0.06935559 -0.024219356
0002a0 c2 96 69 3c 00 c1 02 ba e8 2f 03 be 33 e7 33 bd
       0.014257135 -0.00049878657 -0.12811244 -0.04392166
0002b0 3f 9d 93 bc 6c f5 cf 3c c5 0d d5 bd 54 a8 18 3b
       -0.018019317 0.025385581 -0.10403017 0.002329369
0002c0 2b 85 28 3d cc 8c 4c 3b ac cd 84 3c 44 06 54 bd
       0.041142624 0.0031211851 0.016211353 -0.051763788
0002d0 d4 39 60 bb 99 fc 4b bd 5c 7f 01 bd 65 46 91 bd
       -0.0034214156 -0.049801443 -0.0316156 -0.07093505
0002e0 af de 42 be 81 c7 1c be c4 dc e7 bb 45 d5 80 be
       -0.1903026 -0.1531048 -0.007075878 -0.25162712
0002f0 c9 20 06 be 82 3b 70 3b a3 25 f4 3b 72 30 83 bd
       -0.13098444 0.0036656563 0.0074507757 -0.064057246
000300 df 80 97 bc ae 08 08 be d7 a8 48 bd 11 90 67 bd
       -0.018494068 -0.13284561 -0.048989143 -0.056533877
000310 fb f3 05 be 5e ce 49 bb b9 65 7c 3d 30 4d 49 be
       -0.13081352 -0.003079317 0.061620448 -0.19658351
000320 45 1b 53 3d 27 ff 57 bd 70 07 08 3d b9 5b 9d bd
       0.051539678 -0.052733567 0.033210218 -0.0768351
000330 87 2b f0 bc ca 7e 58 bd c5 f7 83 3d 1b 57 97 bd
       -0.02931763 -0.05285529 0.06443743 -0.07389661
000340 f9 30 b1 bd 44 39 00 bd f6 b5 30 3c 33 b4 83 bd
       -0.08651919 -0.031304613 0.01078557 -0.06430855
000350 10 af 24 3d f0 c5 d4 bb a0 37 8e ba 34 2c ab 3c
       0.040206015 -0.0064933226 -0.0010850318 0.020895101
000360 79 95 40 be c5 7f e7 bd 88 f7 c1 3c 40 bf 86 3d
       -0.1880702 -0.11303667 0.023677602 0.06579447
000370 bd 8b db bc 53 1c bf 3b 54 1c 78 bc c3 88 8f bc
       -0.02680003 0.005832234 -0.015143473 -0.017521268
000380 e8 be 46 bd 9f 64 b3 bd 71 9d 18 be bf c5 16 be
       -0.048521906 -0.08759426 -0.14903809 -0.14723872
000390 22 bf 2f be 50 91 6e bd 33 ad 94 bd 6f 19 23 bd
       -0.17162755 -0.05824405 -0.07259598 -0.039819177
0003a0 7c 51 00 3d 0e 70 16 bd 2c 3b 99 3c 8e 04 16 3d
       0.03132771 -0.036727957 0.018704973 0.036625437
0003b0 eb 84 19 bd d0 47 88 bb 9d 33 1a 3c 6a ad e6 3c
       -0.037480276 -0.0041589513 0.00941172 0.028158862
0003c0 78 c8 de bb 35 06 4c 3d ee dc b4 3c da d5 1b bd
       -0.0067988 0.049810607 0.022078004 -0.03804574
0003d0 29 d3 78 3d 50 ae 96 bd db df 63 bd de 56 bd 3c
       0.060748253 -0.07357466 -0.055633407 0.02311271
0003e0 03 fb b9 3c fd 49 cf bd fb 3d bc 3b 3f 2b 93 bd
       0.0227027 -0.10121534 0.0057446933 -0.07185983
0003f0 53 a6 78 bd 28 b8 17 3d 69 81 61 3c dc 97 29 3d
       -0.060705494 0.03704086 0.013763764 0.04140459

fc2.bias f4 [128]
000000 5d c7 df 3c d5 a7 28 bd 5a 80 06 be a8 c6 88 bd
       0.027316744 -0.041175682 -0.131349 -0.06678516
000010 93 8e ca bd d0 c7 cf bd b1 f8 8b bd 29 f5 57 bd
       -0.09890475 -0.10145533 -0.068345435 -0.052724037
000020 12 12 89 bd 39 4f 21 be 9a d3 be bc 0c 40 01 3e
       -0.066929 -0.15752877 -0.023294259 0.12622088
000030 69 86 08 bb dd fa fd bd d9 4c 9a bc 8e ec 5e be
       -0.0020832068 -0.12401364 -0.018835472 -0.21769926
000040 70 04 ab bb c3 8f d5 bc 13 61 df 3c 7b 76 68 bd
       -0.005219035 -0.026069527 0.027267968 -0.056753617
000050 46 c3 cd bd 9b aa f8 bc d5 f1 91 bd b1 4d d2 bd
       -0.10047011 -0.030354789 -0.07126204 -0.10268725
000060 f9 6e 3a be 69 60 e2 bd a7 b5 33 bd 78 3e a4 3a
       -0.18206395 -0.11053545 -0.04387441 0.0012530824
000070 4e d7 86 bc a3 02 12 bd c8 c3 ba bc 95 ec f9 3b
       -0.016460087 -0.035647046 -0.022798434 0.0076270797
000080 b4 32 cb 3b 16 38 28 bd d7 c7 02 be 6a d8 82 bb
       0.0062011126 -0.041069113 -0.12771545 -0.0039930837
000090 09 cd 6a 3c 0a bb 6b bd 10 ee de bc d6 fb fc bc
       0.014331111 -0.05755142 -0.027213126 -0.030881803
0000a0 3c 92 f1 bd b5 b1 91 bd 5c b4 ba bd a8 fe 0a bd
       -0.1179547 -0.07113973 -0.09116432 -0.033934265
0000b0 6a 7e dc bc 06 ae a1 bd 64 69 f1 bd 5f e1 ec bd
       -0.026915748 -0.078945205 -0.1178768 -0.115664236
0000c0 44 82 98 bd aa 17 52 bd c8 c7 01 be e1 5e 7d bc
       -0.07446721 -0.0512921 -0.12673867 -0.015464515
0000d0 bf 1c 17 bd 4a 2f de bd be 6a 12 bd 52 09 00 be
       -0.03689265 -0.108488634 -0.03574633 -0.12503555
0000e0 bf 58 db bc f0 92 1c be cd 05 d8 bb c0 70 48 bd
       -0.026775716 -0.15290427 -0.0065924884 -0.04893565
0000f0 9b 67 a2 bd ce e2 bf bd 9b 80 23 3e e2 e8 b3 3c
       -0.079299174 -0.093694314 0.15967028 0.021961633
000100 74 b3 a3 bd 02 c9 00 be 3f 33 45 3c f5 57 65 3a
       -0.07993212 -0.12576678 0.012036144 0.00087487634
000110 d1 17 9b bd 71 63 df bd 32 4a 9a bd 2e 3e 91 bd
       -0.07572902 -0.10907639 -0.07533683 -0.07091938
000120 20 85 fb bd f0 19 8e bd 47 48 bc bd 7d 28 ba bd
       -0.12281251 -0.06938541 -0.09193473 -0.09089754
000130 f3 42 0b 3d db f8 9d bd 8d db 17 bd f1 fd 9c bd
       0.033999395 -0.07713481 -0.037074614 -0.07665623
000140 a6 39 ad bd 98 24 ee bd cf 03 48 bd 07 28 00 be
       -0.08458261 -0.116280735 -0.048831757 -0.12515269
000150 43 ca 7d bd ae 09 b8 bd 1e b6 d5 bd 7b 2b ea bd
       -0.06196047 -0.08986221 -0.10435127 -0.114340745
000160 dd bd 81 bd 74 f6 97 bd 0c 87 be bd 9c 93 9d bd
       -0.06335042 -0.07420054 -0.09303102 -0.0769417
000170 05 eb e7 bd 68 ee bf 3b 6f ee 3a bd 63 f1 af bd
       -0.11324123 0.0058572777 -0.045637544 -0.08590963
000180 e2 59 af bd 08 b7 f2 bd a3 44 9e bd a7 61 d9 bc
       -0.08562066 -0.11851317 -0.07727935 -0.026535822
000190 a2 f4 00 bd 17 18 6a 3e ee 9a 0d bd 21 1c 75 3c
       -0.0314833 0.22860752 -0.03457158 0.01496032
0001a0 2b 20 2f bd 09 c0 25 3e 07 0c af 3c 6f ed 75 3d
       -0.042755287 0.16186537 0.02136804 0.060040887
0001b0 89 18 42 bc f4 b3 0e bd f9 a0 4c bd e1 67 5b bd
       -0.01184667 -0.034839585 -0.049958203 -0.053565864
0001c0 d9 16 f1 bd 23 dc d9 bc 8b da 48 bd 12 46 42 3d
       -0.11771936 -0.026594227 -0.049036544 0.047430106
0001d0 ba b9 b4 3e 59 6a e2 bd 82 e2 46 3d ba ce 96 bd
       0.35297948 -0.110554405 0.04855586 -0.07363649
0001e0 74 89 f7 bc 98 48 68 bd 9a e3 e5 3e cf 40 3c 3e
       -0.03021691 -0.056709856 0.4490021 0.18384098
0001f0 f0 0c 97 bc f8 73 33 bd 50 e6 b8 bd b3 7d e3 bc
       -0.018438786 -0.04381177 -0.090283036 -0.027769899

fc3.weight f4 [1, 128]
000000 14 d5 a5 bc 12 5a c9 bc aa 3f 8b bc 5f 50 4c 3d
       -0.020243205 -0.024579082 -0.01699813 0.049881335
000010 01 d7 d4 bb 7a e9 c5 3b bd 78 52 3b a4 78 b7 3a
       -0.006495357 0.0060397955 0.0032115423 0.0013997746
000020 c7 89 5c bc fa 5d 42 3c 5e b7 01 3c 29 33 04 bd
       -0.013460583 0.011863226 0.007917253 -0.032275353
000030 eb 14 3a 3c ff dc 9e bc 2e bf 67 bc 25 7c 93 bc
       0.011357526 -0.019392489 -0.014144702 -0.018003533
000040 55 2e 9d bd d5 0c 9f 3c 3d 05 44 bc c7 52 ff bb
       -0.07674853 0.019415298 -0.0119641395 -0.0077918503
000050 6d 31 15 3c 5b 73 6e bc 24 15 8f bc 85 da 70 bc
       0.009106022 -0.01455387 -0.017466135 -0.014700537
000060 1a ff ab 3c af c1 5e 3b 10 ec 95 bc 8d 8d b1 bc
       0.020995665 0.0033989956 -0.01830104 -0.021673942
000070 0f ab 64 bc f8 b9 3f 3c 1b f1 b2 3c 9c 7d 7f 3c
       -0.013956799 0.011702053 0.021843484 0.015593912
000080 2f 98 0a 3c 39 b1 b2 3c c3 e8 9d 3c da fa 77 3c
       0.008459135 0.021813022 0.019276028 0.015135491
000090 7c 82 9f bb 4d 29 f9 bc 52 23 4c 3b bb 4c f8 bc
       -0.00486785 -0.030415202 0.0031148982 -0.030310025
0000a0 4f c8 75 bc 73 e0 f7 bc 76 44 16 bc 74 c2 c6 3c
       -0.015001371 -0.030258393 -0.009171596 0.024262644
0000b0 59 d1 92 bb 57 18 9c bb aa fa d1 bc a0 88 4d bb
       -0.0044805226 -0.0047636437 -0.025632221 -0.0031361952
0000c0 1b 90 b2 3c c2 59 c4 3a 1f 42 b5 3c 1b 0c 1b 3c
       0.02179723 0.0014980363 0.022126256 0.009463335
0000d0 1e 36 96 bb 3a 5a c2 bb ec 2f 2d 3c f2 f6 e7 bb
       -0.004584088 -0.005931166 0.0105705075 -0.0070789987
0000e0 1a a8 96 3a 43 a9 fa bb 1e 07 57 3c d8 7c 29 3c
       0.001149419 -0.007649572 0.013124255 0.0103447065
0000f0 e5 20 88 3c cc 29 b1 3b 5e 89 bf bc 83 f3 18 3c
       0.016617248 0.005406594 -0.023380931 0.0093354015
000100 3c 53 c0 38 f8 d3 94 bc d0 c5 8b 3c 81 38 90 b9
       9.170777e-05 -0.01816748 0.017062098 -0.0002750792
000110 e6 60 78 bc af c2 5d 3b 33 09 0f bc cf 00 9c 3b
       -0.015159821 0.0033837964 -0.008730221 0.0047608386
000120 39 d2 40 3b eb 78 9d bc 1b 7a ab 3b 81 7e be bc
       0.0029422177 -0.019222697 0.005233062 -0.023253681
000130 84 6c 94 bc 2c 27 71 bc 3d 95 d8 3c 60 10 f1 3b
       -0.01811815 -0.014718812 0.02643835 0.0073566884
000140 75 7d a7 3b a6 04 99 bc fa f4 91 bb 4f 7e 5b bc
       0.005111391 -0.018678974 -0.0044542523 -0.0133968135
000150 cb e2 f1 3b fe cf 94 bc 61 88 cc 3c a0 dc c6 3c
       0.007381772 -0.018165585 0.024967374 0.024275124
000160 fc f3 9d bc ef 27 86 bc c1 ef e2 bc 4a 14 74 bc
       -0.01928138 -0.016376464 -0.027702214 -0.014897415
000170 9f 82 01 3d ca 5b 94 bb 17 41 cd bb cf 48 ad 3c
       0.03161871 -0.0045275437 -0.006263863 0.021152882
000180 79 25 cc bb 77 c9 2b 3b 9e ee 97 bc 21 d1 aa bc
       -0.006230053 0.0026212612 -0.018546399 -0.020851674
000190 22 75 d4 bb f5 94 c8 bc 69 3a c3 bc 09 66 87 3c
       -0.00648369 -0.02448509 -0.023831563 0.016528146
0001a0 4f d0 5d 3c c7 92 8e bc 2b 78 ba 3a 5c 44 66 3c
       0.013538434 -0.017403973 0.0014226487 0.014054384
0001b0 f3 82 1d 3b 5b 6d 29 bc 6b f7 c8 3b e8 94 c4 3c
       0.002403435 -0.010341014 0.00613301 0.023996785
0001c0 d9 cb fa 3c 9d 58 7f 3b a2 7d 07 3b 4e 61 93 bc
       0.03061478 0.003896273 0.0020674248 -0.017990734
0001d0 ae 2a 97 bc 4b e0 40 bc b3 50 ef bc 87 f8 3a bc
       -0.018452968 -0.011772226 -0.029213285 -0.011411793
0001e0 8f 0d a6 ba 23 d1 83 bb 75 dd 53 bd 28 e4 17 bd
       -0.0012668836 -0.004022734 -0.05172487 -0.03708282
0001f0 0b 28 27 3b 19 93 36 bb b8 91 c0 bb 00 44 92 3c
       0.0025506045 -0.0027858673 -0.005876746 0.01785469
