checkpoint_critic2.pth (torch_old, 159746 bytes, 5 tensors)

fcs1.weight f4 [256, 24]
00000000: 19bb 9fbc 34d9 a8bd 8b15 b33c a23d 11bd
00000010: babe 5fbe 5b00 08bf b73b d4bc a8a0 033d
00000020: 5c9e 4ebd 5b93 f4bd 47af 38bd f179 2d3e
00000030: 8232 c93d 1da5 8abe 7542 603d 79ea 353e
00000040: d94e bfbb bf1b 64be 8298 463d 42e9 79be
00000050: a3e4 433e 673a 723f 90e6 3fbd 46ce 5dbe
00000060: ff3d 573e 77ab b2bd 90db b1bc d458 613e
00000070: d6df 813c 12d3 cabe 0025 bc3c ee97 4b3e
00000080: 790e 1d3e b7dd 473c 3007 e13c 67b3 623e
00000090: bb4c a73d 0a5d 49be 457f 0cbc 1f99 603e
000000a0: 3a49 573e e77d e33d c271 16bd 030b 743e
000000b0: be3e ff3e 74f3 ebbe 8957 ba3b ac4f 883e
000000c0: 4434 9ebd dd5e 40bf f8b1 91bb 801d efbd
000000d0: 6032 6abe b29d 08bf 1f1c 8a3c 2ca6 d3bd
000000e0: 2962 b5bd 8453 3cbf 7c2c 28bc fbc8 50bd
000000f0: eabd c2bd 7887 e3be 03c3 853b 5380 d13c
00000100: 912f 5bbd 6b70 5fbf c2e4 7d3c 160e e53b
00000110: fe2f 103d 1072 36bf 023c 33bd 25bc 1a3c
00000120: eda9 6d3d 5620 873d 2c5d acbc 9658 533e
00000130: 280f e13d 1b1a 733e 3227 23bc 860b 683e
00000140: ec39 023d a2a0 033e a4bc 0abd c5a9 8f3c
00000150: ac15 243e 1714 c7be a185 f63c 185a 76bd
00000160: feb5 32bc febd db3d 6f13 45bd c8cb 5ebd
00000170: b619 c83d 86fd bcbf a482 07bd c723 80bd
00000180: 1c6c 103f 6464 2cbe b373 2a3b 2a2a e83b
00000190: 809c dabe 1a26 e33c 4ba1 813d 3066 1cbd
000001a0: 1cd1 7f3e 46dc 86be 862f a9bd 0c43 50be
000001b0: 09fe 38be 0087 19be 2cdd d5bd d8f6 d9bd
000001c0: 4f7e 893e 15c3 bebe ddfc d53b a8b8 aabc
000001d0: e012 13bd 7fd2 edbe 262b 443d b478 81bd
000001e0: 9851 3a3e da3f ad3e 85c4 0e3b 9318 b63d
000001f0: 2533 d93d 0778 db3d 165b 1ebd 71c3 423d
00000200: 298c 6c3e 5866 bc3e ae75 c33c 6616 303e
00000210: 502c 53be 15d6 a5bd 2e4f 65ba 68ef 173e
00000220: 42e7 803e 8013 e23e 5639 863b 7897 70bd
00000230: 54ab 08bf df53 99be 977a a13c 75ec 06be
00000240: c5df 2f3e 519c ec3e 58e6 43bd 66e6 15be
00000250: 8623 193e 16fc 1fbd 3cde ebbb 7737 bebd
00000260: 0c25 633b 3964 cb3e 0628 bc3b 59c0 233e
00000270: e2b0 933e 546f 1abd 9539 9bbd bc9c e73d
00000280: f0e5 b2bc eef0 db3e 74dc 173c 9e23 8c3e
00000290: fa44 c23e 1d93 c1be 35df d93b 3c4a a13e
000002a0: 8995 603d 620d bebe 95e3 36bd d215 613e
000002b0: b488 a537 7f41 c7be 85b0 30bc 2a42 783e
000002c0: 8d62 853b 8aa3 12bf b520 e0bc 619a 20bd
000002d0: cbfd b73c 7046 abbe ae12 353d 008f fa3c
000002e0: 269c a3bd 3003 46bf a3c3 60bb 2a9d 1dbe
000002f0: eac8 51bd 955e b83d 59fc 943c 3a04 42be
00000300: fb73 013e 1626 e0bd 8d26 13bd a941 c4bd
00000310: a12e 803d 6623 0bbe a0a1 72bc ffe9 f5bd
00000320: 6d48 e63d ff88 01be 7a79 c8bc 336a 633e
00000330: e406 573d 3970 d1bd da92 ddbd 23c9 123e
00000340: 6c17 323e 5aa8 c8bc 39c5 64bd a8c5 5c3e
00000350: f323 af3e af00 b9be 83f9 5cbd 28b4 433e
00000360: 5f22 81bc 2d0e b3bd cca3 68bd f43f 9d3d
00000370: bcb4 54be 5845 c1be 8d01 373c 19ed 8c3d
00000380: 437b 4e3e 3c4e 46bd 7455 fe3c 02b0 d73d
00000390: 3337 29be abde 1ebf b54e 18bd ae32 c23d
000003a0: 8f0f 8f3d bd24 88bd 4661 94bd fccc 8dbe
000003b0: 33f1 fcbd d2c2 47bf 0d01 083c 1240 a0be
000003c0: 420a 57be c196 473e 2e4b 64bc 526c 4f3d
000003d0: d1b5 bd3b f674 5ebf 82b8 ddbc 4062 cc3d
000003e0: 88de 15be 109b dc3d c0b7 b93c 13ea 16bb
000003f0: b5f5 d33d 8a34 68bf ad07 7dbd 6c74 2f3c
-0.019498395 -0.08244553 0.021860858 -0.03545917 -0.218501 -0.5312554 -0.02590738 0.032135636
-0.050443992 -0.11942168 -0.045089033 0.16941048 0.09824087 -0.27079096 0.05475088 0.17765225
-0.005838257 -0.2227621 0.048485287 -0.24405387 0.19130187 0.94620365 -0.04685074 -0.21660718
0.21019743 -0.087241106 -0.02171114 0.22006541 0.015853804 -0.3961416 0.022966862 0.19882175
0.15337552 0.012198857 0.027469248 0.22138749 0.08168932 -0.19664398 -0.008575265 0.21933411
0.21024027 0.11107998 -0.03672958 0.23832326 0.49852556 -0.46084177 0.0056867045 0.26623285
-0.077248126 -0.7514475 -0.0044462644 -0.116755486 -0.22870779 -0.53365624 0.016859112 -0.10334429
-0.08856613 -0.73564935 -0.010264512 -0.05097292 -0.095088795 -0.44439292 0.004082085 0.025573885
-0.05351216 -0.8728091 0.015496435 0.0069902046 0.03520202 -0.71267796 -0.0437584 0.009444271
0.058023382 0.065979645 -0.021040522 0.20639262 0.10989219 0.23740427 -0.009958075 0.22660646
0.03179352 0.12854245 -0.033871308 0.017537007 0.16023892 -0.38882515 0.030093016 -0.060144514
-0.010907648 0.107295975 -0.048114236 -0.05439356 0.09770529 -1.4764869 -0.033083573 -0.06256824
0.5641496 -0.16835171 0.0026008904 0.0070851045 -0.42697525 0.02772813 0.06329592 -0.03818339
0.24982113 -0.2633993 -0.082610175 -0.20338076 -0.18065657 -0.14992905 -0.10442576 -0.10642785
0.26854178 -0.3725821 0.006530388 -0.020840004 -0.035906672 -0.46449658 0.047892712 -0.063218504
0.18195188 0.33837777 0.0021784615 0.08891406 0.10605458 0.10716253 -0.038661085 0.04754967
0.23100342 0.36796832 0.023859825 0.17196044 -0.20622373 -0.080974735 -0.00087474554 0.1483742
0.25176436 0.44155502 0.0040961904 -0.0587382 -0.53386426 -0.299468 0.019711776 -0.13176139
0.17175205 0.4621301 -0.047827095 -0.14638671 0.14954957 -0.039058767 -0.0071981233 -0.09287923
0.0034659533 0.397249 0.005742076 0.15991344 0.28845888 -0.037703827 -0.07579342 0.113091916
-0.021838158 0.42957252 0.009268869 0.27370924 0.3794325 -0.3780755 0.006648923 0.3150195
0.054830108 -0.37119585 -0.044650633 0.2198098 1.973319e-05 -0.38917157 -0.010784273 0.2424399
0.004070586 -0.5728079 -0.027359346 -0.039209727 0.022459885 -0.33452177 0.044207267 0.030585766
-0.07988767 -0.77348614 -0.0034296296 -0.15391985 -0.051216997 0.09002415 0.018186735 -0.18946925
0.126419 -0.10944764 -0.035925437 -0.09582836 0.06258894 -0.13587722 -0.014809042 -0.12007522
0.11244283 -0.12649916 -0.024471987 0.2220848 0.052496806 -0.10226483 -0.10819025 0.1433454
0.17391747 -0.024494339 -0.05585215 0.21559775 0.34207115 -0.36133334 -0.05394889 0.19111693
-0.01576346 -0.08742938 -0.056796834 0.07678214 -0.2077207 -0.37748218 0.011169803 0.0688116
0.20164208 -0.048414454 0.031046607 0.10531618 -0.16524963 -0.62058514 -0.037184436 0.09482323
0.069853894 -0.06647632 -0.07245116 -0.27695453 -0.123506926 -0.7803165 0.008301032 -0.31298882
-0.21000007 0.19491102 -0.01393394 0.05064041 0.0057894965 -0.8689722 -0.02706552 0.09979677
-0.1463567 0.10771763 0.022670627 -0.0023027703 0.10349599 -0.9070517 -0.0617749 0.0107089095

fcs1.bias f4 [256]
00000000: cdda ccbe 73ea 663e b572 3fbe 4e27 503e
00000010: 5fa4 b8bc d2fc 79be 3efb efbe 0095 b3be
00000020: 29a3 c5be bf24 57bd 0533 8abd f93e 543e
00000030: 60ba 3bbd f960 02bf bd5f ea3e 1d74 033f
00000040: 3430 bc3e cb3a 9f3e 072b 9cbe 9b0a 8abe
00000050: 71f9 5b3d 060c ddbe 8519 ae3c d61e a4be
00000060: 0a80 e2be 5bb8 18bf 8ba0 143d 5527 d13d
00000070: 85a2 25bf a06b 60bd 464a e0be 938c a8be
00000080: 45d3 16bf 2db4 6a3d 4ad1 a23e 215e 1b3e
00000090: 5e56 0bbf 274b e63c 73c4 683d ebb7 a3be
000000a0: a46c 3dbf 02f9 3fbd ab0c b93d ae92 e0be
000000b0: c7a0 94bd df68 2fbe 4ed8 a6be 77d3 febe
000000c0: d1f9 1cbe a9a6 1f3d 7ec5 8ebe fee2 5d3c
000000d0: 741e 02be 3291 a5be 2872 f3bd 26ea e9be
000000e0: 884b 1c3f 5f18 01be bba7 0dbf 9716 343e
000000f0: 7cd2 743e 986f ecbe 036f 7f3e a77e 3a3d
00000100: 83fc 1dbe c04c 093e b4b5 03bf 4ac3 233f
00000110: 00d0 42be a216 1f3d 10d2 d1be c44f 29bf
00000120: 93df bcbe 7536 93be eadc a83b 4d38 1f3e
00000130: aa4b 8a3e e45a 293e 626b 5c3e 48cc 31be
00000140: 5fa1 9d3d 3bcf c9be 25c5 29bf c243 04be
00000150: 8c9b a1bb d097 c83d 3e5b 643d 823f 9dbe
00000160: d68f 18be 4027 193f 0d28 71be 44c7 11bf
00000170: a9fe a9be 06e7 083d 0113 26bf 3c9b fbbe
00000180: 0d9b 543c 4a94 eebe 48c3 16be 10af bbbd
00000190: 9084 22bd 8ce7 adbd d060 24bd c775 b3be
000001a0: bafc 6dbe 9bbb 793e f90d 603e 4bae d33e
000001b0: bbc6 55be 4d47 9d3d 08b9 09bf fb76 39be
000001c0: 2ed4 91be ca65 38bb 0733 debe 2511 18be
000001d0: 710e c0bc 84e7 c5be c49d f5bc d9e2 d3be
000001e0: e4d8 c6be 86ee efbe 2bc5 59bd 5510 53be
000001f0: 9797 043d 3700 22be 9110 d7bd 56fa fcbd
00000200: 1973 61be c8ee 21be bae6 2bbf 6f56 a83d
00000210: bdd1 69be 32fe 963e 4641 b23d 73c5 853e
00000220: 14d6 803d 5f05 00bf 3b39 46be e807 17be
00000230: 5a94 663d 4253 5cbe d390 16bd 2820 65be
00000240: 23e3 c93c 4ab8 b1be 7a01 09bf 391a c7be
00000250: a8ed 33be de37 123f 844b 69be f226 ed3e
00000260: 5f20 583e fc68 f7be be33 54bd ead7 6abe
00000270: c1e3 8ebd b92e 63bd d00d e7be ced2 0e3e
00000280: 1623 4ebe 30c7 47be ea11 6fbe 0368 e4be
00000290: b329 ad3e 7573 953e eb51 613e 290a 15bf
000002a0: 10bb a8be abd0 3abe 8418 fdbe 81ae 2bbc
000002b0: 599d a1be 8c5d 40bf 40b2 14bf b51c 32bf
000002c0: 5d22 ae3d a496 21be 3442 4cbe df09 1ebe
000002d0: 26f2 babd 10e0 f73d 9e64 65be 2efc 1cbe
000002e0: a8d4 443e 88b2 28bf ff52 71be 99ec f83e
000002f0: 277c c53e c17c d13c 54c6 83bd 7958 c63d
00000300: 65b1 8dbe c408 c5be f752 0f3e 9f86 fcbe
00000310: d1c9 23be 2e66 103c 5095 6e3d b623 cfbe
00000320: a9db 26bf c48f 8cbe c6af e03c 1e5a 51bf
00000330: 9c47 9fbe 71ab de3e f1c1 8c3d 8e2c 043f
00000340: a7b3 17bf a066 aebe 4f0f 2e3e 547c edbe
00000350: fb64 753e 9c32 033d 83dd c1bd 595f 19bf
00000360: eda9 983e 639a f83c 57d4 9c3c 990d bbbe
00000370: 452e c1be 169b 7cbe 9cf5 04bf c0d3 53be
00000380: f4cc 9a3e 8387 e5be 10c6 183e bdea 0bbf
00000390: e51e 7bbe 51cf dabe f4d8 dc3e 2077 0e3e
000003a0: 7e9c 2dbf 6ccf 6dbe 51d1 503e c665 dcbd
000003b0: 5a0c 20bf 576f f23e aa2a a13e bee5 1cbe
000003c0: dcc2 acbd e566 f1bd 45a2 8f3c a7fc 5bbe
000003d0: 1c58 a5ba b51a 0d3f 3e52 cabe a841 1cbe
000003e0: 0844 ecbe 2147 48bf c85a 2ebf 3a75 9abd
000003f0: d1fd e93d 51be 7f3e c56b ebbd 8fef a73d
-0.40010682 0.22550373 -0.18696101 0.20327494 -0.022539316 -0.2441285 -0.4687137 -0.35074615
-0.38601044 -0.05252528 -0.067480125 0.20727147 -0.045832038 -0.5092922 0.45776168 0.5134905
0.36755526 0.31099543 -0.30501577 -0.26961216 0.053704683 -0.43173236 0.021252403 -0.32054776
-0.4423831 -0.59656304 0.03628592 0.1021258 -0.6470111 -0.05479014 -0.43806666 -0.3291975
-0.5891612 0.057300735 0.318003 0.15172626 -0.5442866 0.028112007 0.056827974 -0.31976256
-0.739939 -0.04686833 0.09035619 -0.43861908 -0.07257228 -0.17129849 -0.32586902 -0.4977071
-0.15329672 0.0389773 -0.2788505 0.013542889 -0.1270693 -0.32337338 -0.11887008 -0.45686454
0.6105275 -0.12606953 -0.5533406 0.17586742 0.23908418 -0.4617889 0.24944691 0.04553094
-0.15428357 0.13408184 -0.5144913 0.6396986 -0.19024658 0.038839944 -0.40980577 -0.6613734
-0.36889324 -0.28752485 0.005153288 0.15548821 0.27010852 0.16538578 0.21525338 -0.17363083
0.07696795 -0.39415917 -0.66316444 -0.12916473 -0.0049318727 0.09794581 0.055751078 -0.30712515
-0.14898619 0.59825516 -0.23550434 -0.5694468 -0.33202103 0.033423446 -0.6487275 -0.49141872
0.01297642 -0.4659751 -0.14722931 -0.0916425 -0.039677203 -0.0849143 -0.04013139 -0.35050794
-0.23240939 0.24387972 0.2188033 0.41343912 -0.20876591 0.07679615 -0.5379796 -0.18111794
-0.28482193 -0.0028136843 -0.43398306 -0.1485029 -0.023444386 -0.38653195 -0.029982455 -0.4138401
-0.3883735 -0.46861666 -0.05316655 -0.20611699 0.03237113 -0.15820394 -0.10501207 -0.12352435
-0.22016563 -0.15813744 -0.67148936 0.08219611 -0.22833915 0.2949081 0.08703856 0.26127204
0.06290832 -0.50008196 -0.19357769 -0.1474911 0.056293823 -0.21516135 -0.03675921 -0.22375548
0.02464444 -0.34710914 -0.5351788 -0.38887194 -0.17571127 0.57116497 -0.22782713 0.46318775
0.21106099 -0.48322284 -0.051807158 -0.22933927 -0.06977034 -0.05546448 -0.45127726 0.13947603
-0.20130572 -0.19509578 -0.23346677 -0.44610605 0.33820876 0.2918965 0.22003905 -0.5821863
-0.32955217 -0.18243663 -0.49432766 -0.010478617 -0.3156536 -0.7514274 -0.5808449 -0.69575053
0.08502648 -0.15780121 -0.1994713 -0.15433453 -0.091282174 0.121032834 -0.22401664 -0.15330574
0.19221747 -0.6589742 -0.23566817 0.4861801 0.38571283 0.025572183 -0.064343125 0.096848436
-0.27674404 -0.3848325 0.13996492 -0.49321458 -0.15994956 0.008813424 0.058247864 -0.40456933
-0.65178925 -0.27453434 0.027427565 -0.8177813 -0.3110932 0.43490174 0.06872929 0.51630485
-0.592585 -0.34062672 0.16998027 -0.46383917 0.23964302 0.032030687 -0.09466078 -0.59911114
0.29817143 0.030347055 0.01914422 -0.36533812 -0.37730613 -0.24668536 -0.5193727 -0.20686245
0.30234492 -0.4482995 0.14919305 -0.5465506 -0.24523504 -0.42736295 0.43134272 0.1391263
-0.67816913 -0.23223656 0.20392348 -0.10761599 -0.62518847 0.4735057 0.31477863 -0.15322015
-0.08435604 -0.11787204 0.01753343 -0.21483098 -0.001261476 0.55118877 -0.3951587 -0.15259421
-0.46145654 -0.78233534 -0.6810727 -0.075418904 0.11425365 0.24974944 -0.11495165 0.08199989

fc2.weight f4 [128, 258]
00000000: f078 8ebd da62 70bd 933c 90bc 88a1 013d
00000010: b840 86bd 8688 1dbd a430 563d 603a 84bd
00000020: e4c2 10be d4e1 c23c bbb3 c83b ec64 2fbe
00000030: 1349 40be f336 3a3c aaa0 fc3d 6eff 37bd
00000040: c878 3fbe c13d f63c 34cf 72bd 678b 93bd
00000050: d07d c6bd af10 8bbe b008 1cbc 2ef0 ef3c
00000060: ad23 c13c 1946 a9bd 9454 b4be 4b59 943e
00000070: 282b eabd 08cd 2f3c c356 bfbc 5f39 bb3c
00000080: 8417 bebc 2a5f 5abe 5c52 25bf 9e66 013e
00000090: 6180 23bc b65c 44be 3950 6bbd addc 6cbe
000000a0: 421f f9bc f37f 47be aa17 84be ee57 ef3d
000000b0: 9bff 82be 7b45 00be 4c16 65be 291e 78be
000000c0: 9245 ffbd c22c 05bf c2cc 7fbe c923 fabd
000000d0: 2356 853e c06f 81be ae06 123c eac3 103c
000000e0: ee78 6dbe 5dd1 f0bd a2fc 773c 0dd7 21bc
000000f0: e519 cdbe dff0 34bc efc4 853d 8727 f9bb
00000100: 27c4 d6bc 1200 7e3d d001 eabe 2b3b cd3c
00000110: e512 423c db05 5bbd c31a 963d 9254 acbd
00000120: 3bf5 d33d b434 43b9 74d6 36be b273 68be
00000130: cdac 84bd 3d86 c9bc 2bb7 48bc b309 a4bc
00000140: f85a 443e 7e8b 82bb 878e d1bc 27c1 75bf
00000150: 5be5 853c 7ad5 68be f6ea 083d d185 20be
00000160: a608 c9bd 15bd dbbe 1274 193c 2022 b2bd
00000170: ece6 793d 6e42 ffbd e9ba de3c e8d1 b83c
00000180: 0f1d 42be 8031 c3bc c6b2 c2be 9293 5fbd
00000190: e336 543d 3db4 df3b dbd2 373a 7590 84bd
000001a0: 8389 813e 9ef2 b73d 5e69 b03c 8f2d 853c
000001b0: 3f4e 73bd 2505 99bc d62b adbe c4c0 76be
000001c0: 3cf4 c7bd 7859 993e 503b 6abd 69f3 44bd
000001d0: 10a0 83bd 5ce9 f6bc ab75 6abd 1342 5cbd
000001e0: 024e c5bd eaee 71be 7eae 95bd e669 e3bc
000001f0: e106 fdbe 93a8 5abc bd90 98bd eece 9abe
00000200: 95b6 7ebe 4353 cbbc a257 833d 4b8e cbbd
00000210: 7645 1cbe b366 e93c 5a0b dfbc 81de 0bbe
00000220: 6681 02bd 6e8a d03c db98 abbd a4eb 53bd
00000230: decf 7c3d 715a 77bb e8d6 2ebe f19a 6abe
00000240: 13bb 38bf 05a7 82bd af20 47be f187 81bc
00000250: d518 863d e409 84be d4a6 e2bd 9322 f23d
00000260: c4b3 3cbd f83f 133c fa46 b73e e301 8ebd
00000270: db00 dabd fdfc 9a3d 9b8d ee3c e0c3 4bbe
00000280: 3ced 32be 61b2 813d 407c 3c3d 8af7 4cbe
00000290: e6df b0bd 0f84 693c 6303 543d b1b4 9bbd
000002a0: 3b2d a5bb 926d aa3d 2322 23bd 7e01 9abd
000002b0: a624 79be b3ce b1bd f075 46be 94cb 40bd
000002c0: 7381 75be c417 93bc 2f9e c4bd f358 883d
000002d0: 1935 a0be aeea ca3d d8f7 06bd 9347 273d
000002e0: 0a9b 4abc 2fd0 68be 9882 843c 6a3a d9bc
000002f0: 7691 87be 72aa 54be b017 51be fddb afba
00000300: 17ce 67be 50d0 7fbd 90e0 8d3e a0e7 b1be
00000310: 2115 4abf b929 7b3b b733 09be f920 a3bd
00000320: 1bbb a23d ff86 00bf c20e 2e3d 1fc9 82be
00000330: 8291 54bc d2a8 aabe cc77 abbd d98a 1ebe
00000340: 71d1 a0be ffd8 bb3c be96 1bbe 5bd7 5bbd
00000350: 283c cb3c 70fc 6abe 7f11 0ebe 871f 833c
00000360: bd80 44be 6269 e2be 04b4 7c3e d2cb ad3d
00000370: cc1f 1e3e ee26 3ebe 2e83 eebc f728 b7bd
00000380: dbed 78bd ead6 8cbd 9f24 97be 57fc ca3c
00000390: 5960 04be a1b3 afbd 1f74 c1bd 30d1 5b3d
000003a0: 2a1e 9bbd a798 c43b 66b6 7bbd 700f 0ebc
000003b0: 699e 553d 5632 e5bd f46a 35bd 188c 243d
000003c0: 3e60 f33b e33c 1cbe 8435 67bd 43e6 fb3d
000003d0: 2f46 83bd cb55 8dbc b338 6c3c 9b04 183d
000003e0: 1bb1 43be 7389 c1bd 5e05 edbc 39f3 e7bc
000003f0: cb71 95be ad22 c53d 7cae 8a3d ec9d 2d3c
-0.06956661 -0.058688022 -0.017607009 0.03164819 -0.06555313 -0.038460277 0.05229248 -0.06456447
-0.14136845 0.023789324 0.006124941 -0.17128342 -0.18777876 0.01136564 0.12335332 -0.04492133
-0.18698418 0.030058743 -0.059279636 -0.07204323 -0.096919656 -0.27161166 -0.009523556 0.029289331
0.023576582 -0.08265323 -0.35220778 0.28974375 -0.11434013 0.010730036 -0.0233568 0.022854505
-0.023204572 -0.21325365 -0.64578795 0.12636802 -0.009979338 -0.19175991 -0.057449553 -0.23131056
-0.030410413 -0.19482403 -0.25799304 0.11686693 -0.25585636 -0.12526505 -0.22371787 -0.24230255
-0.12464441 -0.5202142 -0.24980453 -0.12213857 0.2604228 -0.2528057 0.008912725 0.008835772
-0.23190662 -0.11758683 0.015135916 -0.009877932 -0.40058818 -0.011043756 0.06531703 -0.007603589
-0.02621658 0.062011786 -0.45704508 0.025052628 0.011845325 -0.05347238 0.07329323 -0.08414568
0.103495084 -0.00018616283 -0.17855245 -0.22700384 -0.06478272 -0.024600143 -0.012250702 -0.020024156
0.19175327 -0.003983914 -0.025580658 -0.9599785 0.016344717 -0.22737685 0.0334272 -0.15676047
-0.09816103 -0.42917696 0.009366052 -0.08697915 0.06101124 -0.12463842 0.027188735 0.022561029
-0.18956397 -0.023827314 -0.38027018 -0.054584093 0.051810157 0.006826906 0.0007012316 -0.064728655
0.25300226 0.089818224 0.021534618 0.016257076 -0.059400793 -0.01867921 -0.33822507 -0.24096972
-0.09763381 0.29951072 -0.05718547 -0.048083697 -0.06427014 -0.030140571 -0.057241123 -0.05377395
-0.096340194 -0.23626295 -0.07308672 -0.027760457 -0.4941931 -0.013345855 -0.07449482 -0.30236
-0.24874337 -0.024819976 0.06413199 -0.099392496 -0.15260872 0.028491354 -0.027227093 -0.13659097
-0.031861685 0.025456633 -0.08378764 -0.051738396 0.061721675 -0.0037743116 -0.17074168 -0.22910668
-0.7216045 -0.06379513 -0.19446062 -0.015811892 0.06547705 -0.25788796 -0.11066976 0.11823001
-0.046069875 0.008987419 0.35796338 -0.069339536 -0.106446944 0.07567785 0.029120257 -0.19898939
-0.1747331 0.06332851 0.04601693 -0.20016304 -0.08636455 0.014252677 0.051761042 -0.076028235
-0.0050407923 0.0832168 -0.039827477 -0.07519816 -0.24330387 -0.08682003 -0.19380927 -0.047069147
-0.23975162 -0.017955668 -0.096004836 0.06657591 -0.3129051 0.09908043 -0.032951206 0.040839743
-0.012366066 -0.22735666 0.016175553 -0.026517112 -0.26478165 -0.20768145 -0.20419192 -0.0013417002
-0.22637211 -0.06245452 0.2771039 -0.34747028 -0.7893849 0.003832443 -0.13398634 -0.079652734
0.07945844 -0.5020599 0.042494543 -0.25544068 -0.012974145 -0.33331925 -0.08372459 -0.15482654
-0.3140979 0.02293062 -0.15194222 -0.053672176 0.024808958 -0.2294786 -0.13873862 0.016006244
-0.19189735 -0.44221026 0.24678046 0.08486141 0.15441817 -0.18569538 -0.029115286 -0.0894336
-0.06077371 -0.06876929 -0.29520127 0.024778528 -0.12927379 -0.08579183 -0.094459765 0.053666294
-0.07574113 0.005999643 -0.061453246 -0.008670673 0.052153025 -0.111912414 -0.04429145 0.040172666
0.0074272444 -0.15257601 -0.05644752 0.12299778 -0.06409871 -0.017252823 0.014417815 0.037113767
-0.19110529 -0.094500445 -0.028933223 -0.02831422 -0.2918838 0.096257545 0.067715615 0.010596734

fc2.bias f4 [128]
00000000: 4e50 2dbe 620c 13be 15a4 c4bd 3264 463d
00000010: d8c6 b2bd 606a ecbd 1992 64bd 225e 963d
00000020: f362 7cbe a3a7 ec3c 1d17 fdbc 8cf0 42be
00000030: f674 80bd cbb4 fbbd 0ad8 14be da39 d03b
00000040: 7ae6 c4bd 3176 e83d d534 e7bd d31a 2dbd
00000050: 7c4b 83be ee1a 07bd af2d a83d bff2 c8bd
00000060: c52f d8bc cc5c 803e 39c6 1bbd 325b bf3e
00000070: 9343 8cbc d7f0 1bbe 7664 5d3c 15a4 0bbe
00000080: b80e 913d a3ce 1abd 6c2c 01be b9e0 1b3e
00000090: 7044 353e 3bff 9abd 0087 ab3c 74a6 663e
000000a0: 6428 d8bd 8f76 15be 66c3 723d 45bd 243e
000000b0: 8a46 04be 6107 3bbe 2c8c f8bd 7118 51be
000000c0: 1264 26be 0602 da3e d0ec ccbd 2694 7dbd
000000d0: e7bf 6bbd 68b9 fcbe 6381 e23b 39b8 aebe
000000e0: e419 41bb 0813 b6bd 2cb0 5c3e 8119 733d
000000f0: b08d 6cbe 43c3 0cbd 283c 6abe b958 4bbd
00000100: 00b1 b9bd 7fcd febd 112e 6ebe e5c4 6dbc
00000110: 0e16 ec3d 48fb 8abd 2be8 f53d 4155 993e
00000120: 898f b6bd d1d2 1a3e 2b6f 03be 3a2c cfbd
00000130: 11f7 1a3c a9f6 e8bd 2cb2 43bc 3353 62be
00000140: b203 7cbe 80f9 00be 5ed9 293e c482 b8bd
00000150: da10 90be 2df2 7bbd 40c9 5cbe ed07 e23d
00000160: b4d9 04be f81a c7bd 04e9 913e fde4 06be
00000170: 1bdd 3fbd 7156 22bd aa80 41bd 0372 e83a
00000180: 1f4c 82be c64f 98bd a1d7 87bd 9c0c 2abe
00000190: 6468 6ebd 04b1 893d 3111 e53e 100e 04be
000001a0: 1210 bd3b 0024 1ebe 2e4c 00bd 4789 afbd
000001b0: 4ae0 2b3d 4666 5dbd 5208 b93d cbe5 c1bd
000001c0: 84d2 713e 2144 10be 35e9 593d c6f0 8d3d
000001d0: 072b b53e daa6 05be c211 983e 9eeb 35be
000001e0: 6548 b03b 2079 01be 5d12 893c 687a 2ebd
000001f0: 388c 5cbe 93e3 8a39 cd9b 9abd 802f 993e
-0.16925165 -0.14360192 -0.09601609 0.048435397 -0.08729333 -0.11543727 -0.055803392 0.07342173
-0.24647121 0.02888853 -0.03089481 -0.19037074 -0.062723085 -0.12290343 -0.14535537 0.0063545527
-0.096142724 0.11350668 -0.11289374 -0.04226191 -0.25643528 -0.032984667 0.082118385 -0.09811925
-0.026389966 0.25070798 -0.038030837 0.37374264 -0.017122066 -0.15228592 0.013512721 -0.13636811
0.070828855 -0.03779472 -0.12614602 0.15222444 0.17701888 -0.075682126 0.020938396 0.22524434
-0.10554579 -0.14596008 0.059268378 0.16087826 -0.12917534 -0.18264534 -0.12136111 -0.2041948
-0.16249111 0.4257967 -0.10006106 -0.061908863 -0.05755606 -0.49360204 0.0069123968 -0.34124926
-0.0029464895 -0.08890349 0.21551579 0.059350494 -0.23100924 -0.034365904 -0.2287451 -0.04964516
-0.09066963 -0.12441539 -0.2325976 -0.014512275 0.11527644 -0.06786209 0.12007173 0.29947856
-0.08914096 0.15119483 -0.12835376 -0.101158574 0.009458319 -0.11375172 -0.011944335 -0.2210205
-0.24610785 -0.12595177 0.16586825 -0.090093166 -0.28137857 -0.061510254 -0.21561146 0.11036668
-0.12973672 -0.09721941 0.2849809 -0.1317329 -0.046841722 -0.03963322 -0.047241844 0.0017734173
-0.254487 -0.074370906 -0.06632925 -0.16606373 -0.058205023 0.06723216 0.44739679 -0.1289599
0.005769738 -0.1544342 -0.03132265 -0.085711055 0.041961946 -0.054052614 0.0903479 -0.09467658
0.23615462 -0.14088489 0.05320092 0.069306895 0.3538439 -0.1305193 0.29701048 -0.17765662
0.005379724 -0.12643862 0.01673239 -0.042597204 -0.21537864 0.00026490967 -0.07549248 0.29919052

fc3.weight f4 [1, 128]
00000000: f1ea 29be 10f4 323d b8a7 77bc c48b 8a3d
00000010: e54f 23bd 873d 093d c112 cc3c d636 9b3c
00000020: 8034 503c 5c57 cdbc af6b 3a3c 5949 2fbd
00000030: bf43 2ebe db8c 223c a7ef 46bd 8083 77bd
00000040: f605 603c 15a2 28bd 3027 14be 5453 c2bc
00000050: c821 8ebd 6aa5 f6bc d2fc c3bc b1c8 59bc
00000060: c0eb 383e 179e 12be 0ff7 8a3c 503b cbbc
00000070: fb63 c9ba d4da ae3d d74c 70bd 4a48 413d
00000080: efb5 1cbd b28e cdba 7f6f b63b 7dbb e4bc
00000090: fa4a 76bd 1b38 15bc 3537 9cbb 0fc7 133d
000000a0: 3682 69bd ea85 43bc 72a2 5a3d 9d26 663d
000000b0: e043 2b3d 7b43 1f3d eb84 a63c 2afa 993c
000000c0: 6dfc a1bd 916f 3dbd b5f8 4a3a 9606 76bd
000000d0: 4765 273c 7b63 a6bd 79f6 b3bc 0c91 3dbe
000000e0: 49df 643c dc53 433c cbef e93c 3710 b0bd
000000f0: 4da2 7f3d 9bd5 58bd aab6 36bd 6954 5ebd
00000100: 34ca 0bbd f652 e6bc efed e8bc 7ef9 6f3b
00000110: e7b3 6dbd 10b7 84bd 0e26 b8bc 3904 0a3d
00000120: 648d 813b fea2 87bc 2e0f c1bc 3efa 1abe
00000130: 36d7 8ebd e5f8 bf3c dd54 e43b f103 3ebd
00000140: e20e 30bd fc7f 943d c634 fc3c 51b6 993c
00000150: c4ce 1dbe 2263 123d d9fe 113d 0bb7 7ebd
00000160: 40cf 07be f018 0b3d 2f60 233d 384a 0cbb
00000170: 0152 0b3d 4711 9a3a 08c6 1ebc 73bf a9bc
00000180: 8cc2 62bd dfdb be3c 89d7 8abb 9a9b 22be
00000190: c651 cd3d aab3 93bc 4244 d9bc 6c6c 8ebd
000001a0: 259e 15bc 5ff4 1cbe 729b b8bc bbcc 41bd
000001b0: d6d6 a53d bf91 5a3b cd9b edbc 025b cc3c
000001c0: a308 aabc 93a6 a5bd b37f a9be 276f c9bc
000001d0: 8004 7dbd 8259 553b dbbe d6bc ef05 9fbe
000001e0: 6f4b 993c 84e1 113d 201a 73bd 7cef 4dbd
000001f0: 795b c5bd 8be8 64bc 4d13 673c 02d0 7e3d
-0.1659353 0.043689787 -0.015115671 0.067649394 -0.039871115 0.033505943 0.024911286 0.018947046
0.0127078295 -0.02506607 0.011378213 -0.04279456 -0.1701803 0.009921278 -0.048568394 -0.060428143
0.013673296 -0.0411702 -0.14468074 -0.023721375 -0.06940037 -0.030108172 -0.023924265 -0.0132924775
0.18058681 -0.14318119 0.01696351 -0.024808556 -0.001536488 0.08537832 -0.05866703 0.04718808
-0.038259443 -0.0015682785 0.0055674906 -0.027921433 -0.060130097 -0.009107615 -0.0047673234 0.03607851
-0.057008944 -0.011933783 0.053377576 0.05618917 0.041812778 0.038882714 0.020327052 0.018796045
-0.079094745 -0.046248976 0.0007742749 -0.060064875 0.0102170175 -0.08124443 -0.021968113 -0.18512362
0.013969251 0.011921849 0.028556725 -0.08596843 0.06241064 -0.052938085 -0.044607796 -0.05427972
-0.034128383 -0.02811573 -0.028433768 0.0036617215 -0.058032896 -0.06480229 -0.022479083 0.033695433
0.0039536227 -0.016557213 -0.023566809 -0.15134522 -0.06974642 0.023434112 0.0069681243 -0.046390478
-0.042982943 0.072509736 0.030786883 0.018763693 -0.15410906 0.03573907 0.035643432 -0.062186282
-0.13262653 0.03395933 0.03988665 -0.0021406543 0.034013752 0.0011754417 -0.009690769 -0.020721173
-0.055361316 0.023298202 -0.0042371196 -0.1587967 0.10025363 -0.018030006 -0.026521806 -0.069542736
-0.009131943 -0.15327595 -0.02253506 -0.047314387 0.08097617 0.0033351032 -0.029004956 0.02494574
-0.020756071 -0.08088412 -0.3310524 -0.024589134 -0.06177187 0.0032554572 -0.026214054 -0.31059214
0.018712727 0.03561546 -0.059351087 -0.05027722 -0.09636588 -0.013971458 0.014103723 0.06221009
