checkpoint_actor2.pth (torch_old, 291831 bytes, 6 tensors)

fc1.weight f4 [256, 24]
00000000: da43 723d f82d 07bc 90f9 653c 1454 693d
00000010: 407e 973c a0d7 febc ec33 703d 162a 69bd
00000020: 75ae 67b9 c568 543d 30b7 debc c048 77bb
00000030: 4c29 febc 883d 0bbd 0024 5039 e210 26bd
00000040: 8c90 c93b be05 6c3c 163d 32bd edc2 2abd
00000050: 5982 64bc 23e9 18bc a01a 34bd 01b6 1d3d
00000060: 258b d2bd 2970 64be d562 863b e5a3 afbc
00000070: 0fd7 913d d7d1 a13d 8fab 71bc 302b d5bd
00000080: 7863 e5bd 9a03 7ebe 2e49 393d f4bb 003e
00000090: c348 5e3d 8c2b 143e e64c 88bb 4eda 143c
000000a0: d807 ecbd 8577 14be c385 1a3d 86df 10bc
000000b0: 3b37 ee3c e06f 093e f084 e5bc c656 04bb
000000c0: bc47 55be 79a8 49be c8c6 833d 6064 f4bd
000000d0: c8d9 a73d d76c 5c3e c06f f13d ec46 0dbe
000000e0: 8356 30be 5f93 46be 6f7e cf3d 6518 adbd
000000f0: c2ef 673d 0cc8 e13d 2357 2b3d 0660 a0bd
00000100: a12c 0bbe 7926 80be e20a 903d 03e8 3c3d
00000110: 0d39 5b3d 664d 0f3d 9d3f 243e e4e2 053d
00000120: 8f9e 9b3c 3e8e d6bc 14e5 11bd e527 85bc
00000130: f265 083b 696e c2bc c335 133d 7392 93bc
00000140: a164 cbbd 816a e2bd 093d 6cbd 6a44 f23c
00000150: 1bbb e6bc 0f5a 8b3b 6e15 56ba 3feb 153c
00000160: d073 e7bd 6581 80bd b8f5 b7bb cf5e c53d
00000170: 0967 1abe f439 2f3b e80e babc eef8 6a3d
00000180: 692e 353d 9635 f63d e4d6 563d 1872 9a3c
00000190: 95e3 50bd 10bc 12bd 589b 503a 9a0c 093d
000001a0: 6e5c 513d 8751 8b3d e463 81bb 8340 863c
000001b0: 87e6 8e3d 9fa8 50bb c903 bbbc 0a45 833a
000001c0: ec07 943c 1c71 4b3d 6a79 8c3d 3aec 65bd
000001d0: 90da 4ebd 8ff3 a9bd a07b 7c3d 92ac 103d
000001e0: 9aa5 c03c 61d3 1ebd 462b c13c 4480 a83c
000001f0: e2a0 443d f2f6 813d 546c ad3c 35a0 953b
00000200: 98b0 babd 02f8 ddbd 2f70 b3bc 85e9 193c
00000210: 4e08 353e ce53 da3d 708b 0e3d 7446 463d
00000220: 7555 55bd 22d2 38bd 15f7 09bc 031d 913d
00000230: 094b 143e a194 ef3d 20be 7e3b 91af ad3c
00000240: 033c 16be 6f5f 69be 280a 223d cdfe 6bbd
00000250: f3b9 363e 849d f93d 5bd5 bf3c c80d f3bd
00000260: 3bdc 03be 2630 6abe 1e2d 683d 8453 babb
00000270: 8d96 f43d 20b0 d53d d805 b03d d907 173d
00000280: 35a6 05be 6851 21be 6f16 cf3b 1390 6b3d
00000290: 0ef0 c33b 7eac fa3d cc92 923d beda b5bc
000002a0: 1ce4 673d 20df 823c 0094 243d 17da 0a3e
000002b0: cd79 1cbd d7f9 69bc 4b54 563d a2a3 043e
000002c0: 672e ac3d 1f4f 0a3e e806 5f3d cebc 453d
000002d0: 86e5 81bd cdef babd d317 3abc a2e4 d83c
000002e0: 3067 00bd 8e9a 8a3d 654b 38bd 700e 99bd
000002f0: 1b68 7ebd aede 83bd 83ba 633d 95d9 adbd
00000300: 56b3 ae3d f1dd f83c 6527 59ba 55f8 873c
00000310: 0f07 77bc d9ec d2bd f1cf 6abb 5088 bd3c
00000320: 61bf 41ba dcf9 f43c 5082 a8bd 2922 473c
00000330: 20ae 8039 a86e 14bc 1841 6dbc a95f 2f3b
00000340: e061 df3d 81e9 043d 2e6f 64bd 9ba5 6b3c
00000350: 3c42 25bc 8198 afbc fc7b ecbc cb1a babc
00000360: 3eab 73bc 20aa d1bd aade aabc 3a05 363d
00000370: 8340 0d3e 7f1d 853d 8b4d 34bd aef3 9f3d
00000380: 6c72 40bc 9de8 83bd b9f3 8f3d 89f2 523d
00000390: 687d 133e 15fb e13d 5e5d 1d3d 573f e13d
000003a0: f087 6fbd d270 70bc 618e fe3b 9980 b63d
000003b0: 1a93 043e 6cd5 b23b f0cb babb d16e be3d
000003c0: b482 15be 0322 2bbe 39f8 bc3d c593 a2bd
000003d0: fdaf a73b 823c a33d dd28 e23b f644 b8bc
000003e0: 6ed6 0abe 5b77 06be e1b4 633d dd8e 9dbc
000003f0: 10d6 f13c a8ac e33d f575 713c ed71 53bd
0.05914674 -0.008250706 0.014036551 0.05696495 0.018492818 -0.031108677 0.058643267 -0.056924902
-0.00022094867 0.05185773 -0.02718696 -0.0037732571 -0.031025551 -0.033994228 0.00019849837 -0.040543444
0.0061512645 0.014405666 -0.043515287 -0.041689802 -0.013947093 -0.009332928 -0.043970704 0.03850365
-0.10280446 -0.2230841 0.004101137 -0.021440456 0.07121097 0.07901352 -0.014750375 -0.10408628
-0.11200613 -0.24806061 0.045235805 0.12571698 0.05426861 0.14469737 -0.0041595576 0.009085251
-0.115249336 -0.14498718 0.03772522 -0.008842355 0.02907907 0.13421583 -0.028017491 -0.0020193323
-0.20828146 -0.19693173 0.06434399 -0.119332075 0.08195835 0.21525894 0.11788893 -0.13796586
-0.17220502 -0.19392155 0.10131537 -0.084519185 0.056625135 0.11024484 0.041831147 -0.07830815
-0.13591243 -0.25029352 0.07033326 0.0461197 0.053521205 0.034985922 0.16039892 0.032687083
0.018996505 -0.026190873 -0.035618857 -0.016254375 0.0020812717 -0.023734288 0.035939943 -0.018014168
-0.09931303 -0.1105547 -0.057675395 0.029573638 -0.02816539 0.004252679 -0.00081666454 0.009150325
-0.11301386 -0.0627468 -0.0056140088 0.09637224 -0.15078367 0.0026737424 -0.022712186 0.057366304
0.044233713 0.120219395 0.05245103 0.018853232 -0.05099829 -0.03582388 0.00079577183 0.033459283
0.05111354 0.068026595 -0.0039486755 0.016388183 0.06977563 -0.0031838787 -0.022828953 0.0010015082
0.018070184 0.049668416 0.068590954 -0.056133486 -0.050501406 -0.08298408 0.061641335 0.035320826
0.023516465 -0.038775805 0.023580205 0.020568974 0.048004992 0.06345929 0.021169819 0.0045662173
-0.09115714 -0.10838319 -0.02190408 0.009394054 0.17678949 0.10660516 0.034800947 0.048407033
-0.05208345 -0.045122273 -0.008420725 0.07085612 0.14481749 0.116982706 0.0038870648 0.02120188
-0.1467133 -0.22790311 0.039560467 -0.057616044 0.17844371 0.12188247 0.023417166 -0.11867863
-0.1287698 -0.2286993 0.056683652 -0.0056862254 0.11942778 0.10433984 0.085948646 0.03687272
-0.13051684 -0.1575371 0.006319813 0.057510447 0.0059795445 0.122399315 0.071569055 -0.022199031
0.056614026 0.015975535 0.040180206 0.13559757 -0.038202096 -0.014280758 0.05232648 0.12953046
0.08407288 0.13506745 0.054449946 0.04827576 -0.06342606 -0.091277696 -0.011358219 0.026476208
-0.031348407 0.0676776 -0.044993777 -0.07473457 -0.062111 -0.06438957 0.055597793 -0.08488766
0.08530299 0.030379267 -0.00082837633 0.016597906 -0.0150773665 -0.10299081 -0.003582951 0.023136288
-0.00073908834 0.029904298 -0.0822798 0.0121541405 0.00024543796 -0.009059586 -0.014480852 0.0026759899
0.1090734 0.03244925 -0.05577009 0.014382745 -0.010086592 -0.021435024 -0.028867714 -0.022717854
-0.01487237 -0.10237527 -0.020858128 0.04443858 0.1379414 0.064997666 -0.044019263 0.0781015
-0.01174603 -0.06440852 0.07028908 0.05150083 0.14403307 0.11034218 0.03841912 0.10998409
-0.05847925 -0.014675336 0.0077684377 0.08911247 0.1294674 0.005457571 -0.005700581 0.0929848
-0.1460064 -0.16712193 0.09227032 -0.07938341 0.005117415 0.07970525 0.006901844 -0.02249382
-0.13558361 -0.13131468 0.05559242 -0.019233162 0.029521018 0.11116916 0.014737596 -0.05162232

fc1.bias f4 [256]
00000000: c9f2 a5bd a9d3 583e 1357 8f3e d80a 1f3e
00000010: 7065 e4bd e6da cabd 05ed 63bd 2c52 4fbb
00000020: 65c5 8fbe 9d3d d4bd d7f8 853e 63e8 66bd
00000030: 0538 a83d 2855 2bbd 6aee 983d f44a 023e
00000040: f059 91bb e157 03bc acd5 10be 2022 f53b
00000050: 363a e93d b722 60be f2a5 20bd 4a0f 5ebe
00000060: 19ed 213e 4958 69be 7687 163d 87c6 8c3c
00000070: c838 0abd 5f9a e5bd bc16 49bd 3c62 05be
00000080: 1ac1 493d fbaa 2e3e 1981 05be a1e0 c8bc
00000090: 2ab8 5dbd 73e6 343e baab 1ebe dd31 623e
000000a0: fa1b 25be 0602 1ebe df54 88bd c208 20be
000000b0: 848c 1abe 89c7 09be 7ae7 70bd d93b 72be
000000c0: 1e36 883e da40 513e 1810 9dbd c0f8 123e
000000d0: 0e29 ecbd fd4f 31be 1528 633c 01df 10be
000000e0: 5087 6a3e ed07 51bd 57c4 4fbe a659 333e
000000f0: 98fb b93c 399e 4c3d 2eac 033e c162 d9bd
00000100: c362 8c3d d2b2 54bd 7b77 28be 6a22 003d
00000110: 48f6 4dbe f528 29be 3559 e3bd 2306 69bd
00000120: 2e2f 8ebd cbf6 18be c211 86bd 2c09 c73d
00000130: f0fc a53c bf62 283e eb89 053b 2b39 ecbc
00000140: 5b1a 5cbd 134c 723b d651 7cbe 077b d8bd
00000150: 4bfa 913d 7511 d7bc 1d2e c3bd cee8 cd3d
00000160: 17f0 24be f137 fb3c b381 c0bc 596f 0e3e
00000170: 7552 c8bd 070c a13d b8df 2bbe 3e76 8cbd
00000180: 4b8a 073e 68de 28be d966 f23d 71d0 3d3d
00000190: dbf6 253d b66f 8ebd c27d 11bc 2458 8a3c
000001a0: e599 13be 635b f73d 58db c83d 9410 20bd
000001b0: 1af2 6abc 5b4b 4ebd 7485 9abd 5019 ecbd
000001c0: 1328 17be 8322 42be 852b a5bd 883e 203c
000001d0: 1570 dd3d 2ecc 9bbe 07e5 2ebe df1b 873e
000001e0: e0d3 83bd 4249 9fbd fa85 883e 546c 293e
000001f0: 0f24 bc3b 6a7b fc3c cbf9 bebb d40c ab3c
00000200: 6016 433e 2637 8cbd f356 69be a51d c83d
00000210: f3d9 99bd d840 3d3d 32fe c93d 7c2c a73d
00000220: 0569 ab3d 966c 803b 3119 933d f9bb 033e
00000230: 42ac 49bd ce84 43be 7de5 853e 82e2 c73d
00000240: 1a9d e43d 5090 36be f509 f2bd 01dd 33be
00000250: b3ea e03c 5e83 a33d 742f 363e 5d67 7b3e
00000260: 8900 9b3e a12b 1abe ca7c 463e 952e 47bd
00000270: 619e d83e 325b 313c aea0 e0bd 56ec c53d
00000280: a0ec 68be 7bea 10bd bbfa 023e 277a 8b3b
00000290: 52af 273d 7087 8f3d 17e2 b3bd 780a 9b3d
000002a0: 2b25 623d 5564 423e dad6 563e 8c00 53be
000002b0: e8e0 2dbe f909 63be f34a 94bd 77fd 44be
000002c0: da75 e43d 174c 8a3e 2837 2dbe 8e68 573d
000002d0: 24ac 16be 3c5e 863e c25a 0f3e 0634 2a3e
000002e0: 9379 553e ecdc 20be f844 35be 8767 f8bd
000002f0: d2db dd3d 6bd9 533e 27b2 053e 0211 ce3b
00000300: 3b36 4abd 7f7b cebd 1424 a43e e314 46be
00000310: fad4 31be a16e b63e aadf 8b3e 00fa 3f3e
00000320: 9589 f73d 1307 debd ea1f 5d3c 88ef 5a3d
00000330: c406 1b3e 06aa 343e e503 00be 7bdc 7a3e
00000340: 9cba 46bd 48ed 36be d294 22ba 399e 913d
00000350: 3068 a13e 6d6f f6bb 5d14 0dbe ce31 27be
00000360: 9102 673e 3e09 463d 4cb4 283e 70f8 d9bd
00000370: 0532 76bc c559 8e3b f2ed 3b3e b097 753b
00000380: 2b77 cabc 6aaf afbd 41c9 5a3d 81ff 053d
00000390: 48db a3bd 00f2 fcbd 8be3 4b3e 0387 023e
000003a0: b06c 053d 362b a0bd a6a2 343d ad16 ac3b
000003b0: f317 f8bd 95ab d93d b4c8 323e 92d9 a13d
000003c0: 4232 13be 516e 17be 745e 493d ab64 23bd
000003d0: 50c1 f2bd 2506 843d 0747 863d ae43 2bbe
000003e0: 5d34 edbc 5507 5b3d fa9d e63b fa37 3dbe
000003f0: bf9d 203e 0728 2f3e 24c6 45be 564c c83d
-0.08102948 0.21174492 0.2799612 0.1553148 -0.1115216 -0.09905033 -0.05564596 -0.0031634672
-0.28080288 -0.10363314 0.26166412 -0.056373965 0.0821381 -0.04182926 0.07467349 0.12723905
-0.00443577 -0.008016557 -0.1414401 0.0074808747 0.11388056 -0.21888243 -0.039220758 -0.2168552
0.15813102 -0.22787584 0.03675028 0.017184509 -0.033745557 -0.112110846 -0.049093947 -0.13025755
0.04925642 0.17057411 -0.13037528 -0.024521174 -0.05413071 0.17666034 -0.15495196 0.22089334
-0.16123953 -0.1543046 -0.06656813 -0.15628341 -0.15092665 -0.13455023 -0.058814503 -0.23655643
0.26603788 0.20434895 -0.07669085 0.14352703 -0.11531268 -0.1731567 0.013864537 -0.14147569
0.2290318 -0.05103295 -0.20289741 0.17514667 0.022702977 0.04995558 0.1285865 -0.10614539
0.06854775 -0.05192835 -0.16451828 0.03128282 -0.2011348 -0.1651953 -0.11100999 -0.056890618
-0.069425926 -0.14937894 -0.06546356 0.09718546 0.020262212 0.16443919 0.0020376395 -0.028835854
-0.053736072 0.0036971613 -0.24640593 -0.105703406 0.07127818 -0.026253441 -0.0953028 0.100541696
-0.16107212 0.030666323 -0.023499345 0.13909663 -0.097813524 0.07863622 -0.1678456 -0.068584904
0.13236348 -0.16491091 0.11836023 0.046341363 0.040518623 -0.06954901 -0.008880081 0.016887732
-0.14414175 0.120779775 0.098074615 -0.03907831 -0.014339948 -0.050364833 -0.075449854 -0.115282655
-0.14761381 -0.18958478 -0.08064941 0.009780534 0.108123936 -0.30429214 -0.17079554 0.2638845
-0.06436896 -0.07777645 0.26664716 0.1654523 0.005741603 0.030820567 -0.0058281175 0.02088014
0.19051504 -0.06846456 -0.22787075 0.09771279 -0.07512274 0.046204418 0.09862937 0.081627816
0.0836964 0.0039191945 0.07182539 0.12864675 -0.049236543 -0.1909363 0.26151648 0.0976
0.11162777 -0.17828488 -0.118183054 -0.17564775 0.027455663 0.07984041 0.1779154 0.24551149
0.30273846 -0.15055706 0.19383541 -0.04862841 0.42308334 0.010824965 -0.10968147 0.09664218
-0.22746515 -0.035379868 0.12790959 0.004256505 0.040938683 0.070082545 -0.087833576 0.07570356
0.055211227 0.18983586 0.20980397 -0.20605677 -0.16980326 -0.22171773 -0.07240858 -0.19237314
0.11155291 0.27011177 -0.16915572 0.052589945 -0.14714104 0.2624377 0.13999465 0.16621408
0.20847158 -0.15709275 -0.1770209 -0.12129121 0.10832943 0.20688407 0.13056241 0.0062886486
-0.049368124 -0.10082149 0.32058775 -0.19343905 -0.173664 0.35631278 0.2731908 0.18747711
0.120867886 -0.10841193 0.013496378 0.05345109 0.151393 0.17642984 -0.12501486 0.24498169
-0.04851781 -0.17863953 -0.00062019855 0.07110257 0.315248 -0.007520607 -0.13777299 -0.16327593
0.22559573 0.048348658 0.16475028 -0.10643089 -0.015026574 0.0043441975 0.18352488 0.0037474446
-0.024715027 -0.085783795 0.053414587 0.03271437 -0.08000809 -0.12350845 0.1991102 0.12746815
0.032574356 -0.07820742 0.044100426 0.0052517266 -0.12113943 0.1062843 0.17459375 0.07902826
-0.1437464 -0.14788176 0.049162343 -0.039890926 -0.11853278 0.064464845 0.06556516 -0.16725037
-0.028955633 0.05347379 0.0070378752 -0.18478385 0.15685175 0.17105113 -0.19313866 0.09780185

fc2.weight f4 [256, 256]
00000000: a585 733c 9643 d3bd d6e8 e33c 2bcb 183d
00000010: d8ee 843c c867 d93c 0955 f03c 0be2 85bc
00000020: 18b1 93bd c44c 8ebb 89ec 2bbd bc92 eb3c
00000030: 7c7d aabc 84e8 c7bd c790 80bd a83f 0a3d
00000040: 9acc 50bd 51bb bb3b b806 403d 083f e6bd
00000050: d1aa e3bc 331d 6fbd bfc5 273d 48ca b9bc
00000060: 466c 903c ecef b03c cfce b7bc eb5f aebd
00000070: 51b2 623d ac96 333d b31c f539 615f b5bc
00000080: a6c4 3f3b 28ba 05bd b4c4 9b3c a00a 25bd
00000090: dbb2 5dbd 6d80 68ba 28ec d73b 0aeb 0a3a
000000a0: b27c 4fbc 3528 f0bc 8500 81bd 899e d4bc
000000b0: 59f8 f33c c1ab 633d c866 e8bc 8e3c 11bd
000000c0: c2d1 2fbd 7068 533c e741 33bd c933 e7bb
000000d0: 498a 24bc 9564 8e3c c961 b2bc e6a6 53bd
000000e0: fef2 a0bd 5515 26bd d378 12bd b63c 263b
000000f0: 7a83 a03c e23e 18bd 93f4 d8bd e474 d1bc
00000100: 5785 1a3c 1538 47bd cba8 3fbd ee88 b0bd
00000110: 8f47 01bd 08b5 2b3b 4bb0 99bd 04ee a93b
00000120: ee21 bcbd a0d1 643d fb5b 6d3d 1034 72bd
00000130: 538b 98bd b4db 343d 3baf 283d c0f2 e1bc
00000140: 0feb 093d 4b6c ffbc 90d0 6dbd a3d2 ff3c
00000150: ff87 753d b18f 3cbd 7531 fa3c a961 783d
00000160: 47ab efba d480 ebbb b7b6 5a3d ccbc a4bd
00000170: 8c37 ed3c b6c6 df3b 30b8 e33c 3087 7bbc
00000180: 6cdf 0d3d 90e5 8dbc 31a5 85bd 004f e53c
00000190: c22a 0fbd c9d9 aabb 5954 c8bc 3edb 8c3b
000001a0: 8a3e 2e3d 456b f1bb 2597 46bd 0f96 5bbd
000001b0: 9d3b 113d 0a68 10bd 6568 7b3d 0b86 91bd
000001c0: 1c52 7e3d 1ec1 4e3d 4e4e 32bd c914 9fbd
000001d0: e94c b03c 95a4 8cbd dba5 143d 89a1 04bd
000001e0: 5d3f babb f04f 5c3c 7383 82bd 2b70 f7bb
000001f0: 7916 4cbd b6d8 233d 1b2e 433d 8033 7d3c
00000200: c2ec 1fbd f279 553b d22f 193d 67c4 193d
00000210: 2a68 8d3c c5c2 143d 74ff 0ebd 9ac3 45bd
00000220: 6378 6cbb d092 85bc a667 803d 93d6 fe3c
00000230: 1ea9 8d3b da92 dfbc 17a2 98bd 93cd 033d
00000240: 2024 07bd 8512 20bd f34f 14bc 1fdc 2ebd
00000250: f280 cbbd 4049 1e3c e1ac acbd ab9b c3bc
00000260: 9b3c c3bd 0f17 673d a5a3 33bd 291d 92bd
00000270: 4a44 1a3b ee49 23bd fa11 ce3a d659 38bd
00000280: 4e27 0bbd ead7 303d c161 0ebb 5931 483d
00000290: 74ea af3b 72dc 6abd 88bc 00bd cd71 0a3d
000002a0: 52f4 e33c 61cd 8cbb 90b5 a8bc 889c 773c
000002b0: c7d8 773d 133b 65bd 2db6 adbd 16f8 8f3d
000002c0: ae5f 84bd abd1 513b e572 cdbc 52b6 22bc
000002d0: 74e7 fabb cd3c eab9 bc03 72bc eebb 25bd
000002e0: af5f 913c 4c3a 9b3b 3bf7 7abd c51c 13bd
000002f0: a2dd 5abc 3a81 02bd ddf8 5f3d 4755 11bd
00000300: cc5c 913c 1869 e5ba 6465 8dbd 0da6 55bb
00000310: dbe7 42bd d5fc 563d 4b32 76bd 72d5 90bd
00000320: 2709 33bd 715c cabc ed2f 22bd 47b0 9fbd
00000330: 3717 0f3d af54 75bd e33e 163c d8e3 75bd
00000340: 8ea1 193d 729d c73b 6f68 c1bc 5d3c 04bc
00000350: b683 dcbd 09bb 5cbd 0777 ab3c c09d 67bd
00000360: b94f 2fbb 4636 283d 2b6e 0ebd c5cd 13bd
00000370: 3daa bcbc d257 e8bb 4d30 d7bc d166 13bd
00000380: 7ea5 4fbd 95eb 5dbc 6a28 5f3d 7038 d6bc
00000390: 52aa 973d 7a03 dfbc f16e 6dbd 4fad eebc
000003a0: 3b70 19bc cf7a a63c 8ad6 df3c 1438 09bd
000003b0: 3bd1 81bd ad7e aebd f25a b9bd 250e 733d
000003c0: 6103 823d a14c 58bc df38 b23b 1efe 543d
000003d0: 0f96 2c3d a04c d63c f705 4dbd e4a4 b6bc
000003e0: 14ce 863b 5127 19bd 9603 133c 612e 783d
000003f0: fc07 343c 2a29 bb3c fafc a23c 457d 803c
0.014863406 -0.10315625 0.027820986 0.03730313 0.01622717 0.026538745 0.029337423 -0.016343137
-0.07211512 -0.0043426473 -0.041973624 0.028756492 -0.020811789 -0.09761146 -0.06277614 0.033752114
-0.050976373 0.005729117 0.046881407 -0.11242491 -0.027791413 -0.058377456 0.04096007 -0.022679463
0.017629754 0.021598779 -0.022437481 -0.08514389 0.055345837 0.043844864 0.00046751424 -0.022140207
0.0029261499 -0.032648236 0.019014694 -0.040293336 -0.054125648 -0.00088692346 0.0065894313 0.0005299306
-0.012664007 -0.029316047 -0.06298927 -0.025954502 0.029781507 0.05558372 -0.028369322 -0.03545814
-0.04292465 0.012903318 -0.04376402 -0.007055734 -0.010042735 0.017381946 -0.021775143 -0.05167284
-0.07858847 -0.040547688 -0.03575976 0.0025365776 0.019593943 -0.037169345 -0.10593524 -0.025568433
0.009431205 -0.04863747 -0.046791833 -0.08619867 -0.031562384 0.0026200432 -0.07504328 0.0051858444
-0.09186159 0.055863976 0.057949048 -0.059131682 -0.07448449 0.044154838 0.041182738 -0.027581573
0.033671435 -0.031179568 -0.05806023 0.03122837 0.05994415 -0.046035472 0.030541161 0.06064001
-0.0018285298 -0.0071869884 0.053396907 -0.08043823 0.02895715 0.006829108 0.027797788 -0.015352055
0.0346369 -0.017321378 -0.065256484 0.027991772 -0.034952886 -0.0052139503 -0.024454283 0.0042985966
0.04254011 -0.007367524 -0.048483986 -0.053609904 0.035457242 -0.03525547 0.061378855 -0.07105645
0.062090024 0.05047714 -0.04353171 -0.07767636 0.021521049 -0.06867329 0.036290985 -0.032380614
-0.005683823 0.013446793 -0.06372728 -0.0075512133 -0.04982612 0.040001594 0.04765139 0.015454173
-0.03904415 0.0032573906 0.03739912 0.03754082 0.017261583 0.03631856 -0.034911588 -0.048282243
-0.0036082498 -0.016305357 0.06269769 0.031108176 0.004323139 -0.027291704 -0.07452791 0.032178473
-0.032993436 -0.03908016 -0.0090522645 -0.042690393 -0.09936704 0.009661019 -0.084314115 -0.02387794
-0.09533044 0.056418475 -0.043857235 -0.07134468 0.0023539239 -0.039865427 0.001572191 -0.04500755
-0.03397303 0.04317466 -0.0021725746 0.048875187 0.005368525 -0.05733914 -0.031429797 0.033799935
0.027826462 -0.004296944 -0.020594388 0.015113004 0.06050947 -0.05596454 -0.08482013 0.070297405
-0.06463562 0.003201584 -0.0250792 -0.009931164 -0.007656986 -0.00044677258 -0.014771398 -0.040462427
0.01774582 0.004737174 -0.061270934 -0.03591611 -0.013358505 -0.03186152 0.054680694 -0.035481717
0.017744444 -0.0017502634 -0.06904104 -0.0032600195 -0.047584396 0.052487213 -0.060106557 -0.070719615
-0.0437099 -0.024702283 -0.039596487 -0.07797294 0.03493425 -0.059895214 0.009170267 -0.06003174
0.037507586 0.006091767 -0.023609368 -0.008071032 -0.10767309 -0.053889308 0.02093078 -0.056546926
-0.00267504 0.041067384 -0.034773033 -0.03608491 -0.023030395 -0.007090547 -0.026268149 -0.035986725
-0.050694935 -0.013544937 0.0544819 -0.026149958 0.07405533 -0.027223337 -0.05796713 -0.029135374
-0.009365137 0.020322232 0.02732398 -0.033500746 -0.06338736 -0.08520255 -0.090505496 0.05933966
0.06348301 -0.0132018635 0.0054389085 0.052000158 0.042135295 0.026159585 -0.050054517 -0.022295423
0.004113922 -0.03739101 0.008973023 0.060591105 0.010988232 0.022846777 0.01989602 0.015684733

fc2.bias f4 [256]
00000000: 0d2a 2a3b 8854 cbbb de94 043e 0d1e 21bc
00000010: e787 a63d 5f90 7dbd 3c1a da3b 2db1 b13d
00000020: 1d3c 80bd 8c8b e8bd de25 99bd 2510 073b
00000030: 1553 de3d f6b1 b7bb b21d 68bd 6428 bebd
00000040: 2a07 e8bc d5cc ecbb dcee 0abd 6fc5 513c
00000050: 2c10 273e f279 193d c368 26bd cd53 1eb9
00000060: 87f0 e13d cfec 3abd 7707 d7bd 67e7 d6bd
00000070: 2d99 4bbd 0706 a5bd 2649 51bd 55b9 c23d
00000080: 586f 06bd 2478 3dbd f7b9 9cbd bc87 56bc
00000090: ff4b 2fbc 7bed 01bd a691 95bc 1571 b8bc
000000a0: aceb 63bd 19c4 80bd 7e68 113e 478f 8dbd
000000b0: 354f 4dbd f7f3 c3bc 6909 63bd 48ec f53a
000000c0: a897 6bbd 604b d4bc 40a9 d4bb a07f aabd
000000d0: dbe0 b0bd 9f0e 9bbd 9f85 13bd ace5 dbbc
000000e0: 531c 0abd 502b ce3d b69c de3d 8817 58bd
000000f0: 4417 52bd 82a4 eabc 709e b5bd a943 3dbd
00000100: 6703 5abd 5111 6ebc aa04 88bd 3832 88bc
00000110: e669 5c3d 8dee 2cbb da5d 24bc 9198 f9bb
00000120: e15e c9bd 31e0 2ebd 06ea eebd 028d 263e
00000130: fea9 42bb f9a9 4d3c 0aaa fab6 f407 d93c
00000140: f6e3 c6bd 67fb 193e 31c5 eebd 0b48 c8bd
00000150: 86ae 7abc 9545 1d3d 8a80 cbbd f498 b83c
00000160: 593e 88bd 667a 8fbd 4dc7 e6bd a0e5 4abd
00000170: 4fe0 99bd b1a1 663c 51e5 91bd 8788 83bd
00000180: de42 92bd 2cbf e8bd 7c65 97bc 700e d9bd
00000190: 8727 46bd 3a09 60bd b8b2 99bd 9832 85bd
000001a0: 91a3 86bd 7328 9fbd 0e67 abbd f36b 62bd
000001b0: 395f b0bc 4a6d d0bd 6a75 8bbc 5f51 09bd
000001c0: f1a7 8fbc 0508 ccbd 4ec7 ccbd 0d42 42bd
000001d0: f549 913c c688 6abd 2cb1 1d3d afb2 703c
000001e0: 7e9d 0bb8 2aa0 49bd 2b69 89bc 29c5 adbd
000001f0: efd5 923b 6323 cdbd 928b c2bc 9916 b2bb
00000200: dc96 86bd a276 d6bd 45f7 2dbd 4068 513c
00000210: fa2d 09bd acf0 c1bd 5263 b7bc 384e 71bc
00000220: 998d 263e cf60 2e3e 00de 463c 3cef 083e
00000230: f633 f8bb ceef a4bd 2309 59bd 7fcc c7bd
00000240: 4b49 4ebc bdf5 92bd 059b 383c 0063 85bd
00000250: 3076 43bd 1ef5 49bb 07df e3bc c4db c4bd
00000260: 7ada cebd e02b d8bd c2e1 13bd 1200 643c
00000270: 9a68 ffbc 38f9 263c 7249 363b f078 873b
00000280: 76d7 7d3c 35ee 813b 4b88 adbd 047b e4bc
00000290: 9db2 8bbd 2897 a3bd f621 03bb 7a3e c2bc
000002a0: 6326 593e eef4 523d 60b4 063e 1717 0a3d
000002b0: cac2 f93d 7fb8 99bd c7ae bf3d 29f4 8abd
000002c0: ff38 99bd 36df 3abd 6b05 cc3c 56f5 9cbd
000002d0: d8cb f83b 55be b1b8 3ec7 573c 05d5 e6bc
000002e0: 98be 0cbc 091b d0bc 400d 9bbd a44a 92bd
000002f0: c461 f8bb 453e c8bc dd3c 59bd 694e 25bc
00000300: a8cd 96bd a7a8 9e3d fcd8 fc3d 8ed2 b03d
00000310: 7ca8 bbba d325 91bd d57a 8ebd 3865 883c
00000320: a3de c4bd 2248 8ebd dd59 8ebd 4c30 aa3a
00000330: 3bed b5bd bd85 e0bd d036 c4bd 787b 4ebc
00000340: c915 0bbd 26cc 65bc 4f71 38bd a97c c5bd
00000350: 0a7c 18bc 63a8 a0bd 0025 3abc 8451 d5bd
00000360: 9e67 36bd f8da c2bd 4ca4 303c 7fc3 05bd
00000370: c76d acbb c557 4dbd 70ef 8ebd 9bfd 2abc
00000380: 09a6 76bd 7e3d 033d 3d21 9a3c 5da6 72bd
00000390: c24f afbc 2211 1b3e b7eb 363e f23b 88bc
000003a0: 88e5 76bd b4ce 73bd dd43 31bd f094 f6bc
000003b0: b009 e53d b847 bfbc c709 d63b ab3a ba3d
000003c0: 30d0 d53d df2a a0bc 5cec 863b 317e 1cbb
000003d0: 5b03 02bc 21ed 88bd dbb1 ea3d 4025 893a
000003e0: a6f0 0fbd f00b 85bc 0b5d 90bd 1b53 063e
000003f0: c8b6 e3bd 5c94 00bd 6249 e53b bb90 313e
0.0025965006 -0.0062051453 0.12947413 -0.009833825 0.0813139 -0.06190526 0.0066559594 0.08676372
-0.06261466 -0.113547415 -0.07477926 0.0020608988 0.108556904 -0.0056059314 -0.056668945 -0.09285048
-0.028323729 -0.0072265663 -0.0339192 0.0128034195 0.16314763 0.03746981 -0.040627252 -0.00015099272
0.11032205 -0.045635995 -0.10499471 -0.10493355 -0.049706627 -0.0805779 -0.05109515 0.095080055
-0.03282103 -0.046257153 -0.076526575 -0.013093885 -0.010699271 -0.03172062 -0.018257927 -0.02251486
-0.055644676 -0.06287403 0.14200017 -0.069120936 -0.050124366 -0.023920042 -0.055428896 0.0018762434
-0.057517678 -0.025914848 -0.0064899027 -0.08325124 -0.08636638 -0.07571148 -0.036016103 -0.026842915
-0.03371842 0.10066855 0.10869734 -0.052756816 -0.05129172 -0.028642897 -0.0886811 -0.046207104
-0.0532259 -0.014530496 -0.066415146 -0.016625509 0.05381193 -0.0026387305 -0.010032142 -0.0076170643
-0.0983255 -0.042694274 -0.1166573 0.16264728 -0.0029703374 0.012552732 -7.4703757e-06 0.02649305
-0.09711449 0.15037309 -0.11658705 -0.09779366 -0.015300399 0.038396437 -0.09936626 0.022533871
-0.06652517 -0.070057675 -0.11268482 -0.049535394 -0.075134866 0.014076636 -0.07123817 -0.06422525
-0.0714166 -0.11364588 -0.018481009 -0.10598457 -0.04837754 -0.0546963 -0.07504791 -0.065037906
-0.065741666 -0.07771387 -0.083692655 -0.05527873 -0.02152978 -0.10177095 -0.01702376 -0.033524867
-0.017536135 -0.09962467 -0.09998952 -0.047426272 0.01773546 -0.057259344 0.038499042 0.014691039
-3.328686e-05 -0.04922501 -0.01677378 -0.08484871 0.0044810693 -0.10016515 -0.023748193 -0.0054348228
-0.06571743 -0.10471846 -0.042472143 0.012781203 -0.033491112 -0.09469733 -0.022386227 -0.014728121
0.16264953 0.17029117 0.01213789 0.1337251 -0.0075745536 -0.080535516 -0.05298723 -0.097558014
-0.012590717 -0.07175777 0.011267428 -0.065130234 -0.047720134 -0.0030816267 -0.027816309 -0.096122295
-0.10100265 -0.105552435 -0.03610397 0.013916032 -0.031177808 0.010191254 0.0027814773 0.00413429
0.015493264 0.003965164 -0.084732614 -0.02789069 -0.06821177 -0.07987815 -0.0020009256 -0.023711432
0.2120605 0.051503114 0.13154745 0.033713426 0.12195356 -0.07505893 0.09359508 -0.06784851
-0.07481574 -0.045623027 0.024904927 -0.076639816 0.0075926594 -8.47547e-05 0.013170062 -0.028177748
-0.008590363 -0.025403516 -0.075708866 -0.07143143 -0.007580014 -0.024443755 -0.05303656 -0.010089495
-0.073634446 0.07747012 0.12346074 0.0863391 -0.001431718 -0.070872925 -0.06957022 0.016649827
-0.09612777 -0.06947352 -0.06950734 0.0012984364 -0.08883139 -0.109630086 -0.09580767 -0.012602679
-0.033956323 -0.014025724 -0.045029934 -0.09642918 -0.009306917 -0.07844617 -0.011361361 -0.104159385
-0.04453241 -0.09514421 0.010781359 -0.032657143 -0.00526211 -0.05013253 -0.06979263 -0.010436441
-0.060216937 0.032041065 0.018814677 -0.059240688 -0.021400336 0.15143254 0.17863356 -0.016630147
-0.06027749 -0.0595233 -0.04327761 -0.030100316 0.11183488 -0.023349628 0.0065319273 0.09093221
0.10440099 -0.019551693 0.0041175317 -0.0023878927 -0.00793537 -0.06685854 0.114597045 0.0010463372
-0.03514161 -0.016241044 -0.070489965 0.1311764 -0.11118847 -0.031391487 0.0069972733 0.17340367

fc3.weight f4 [2, 256]
00000000: a02c c7bc 45bd eeb8 7fd4 fdbd ddb1 ebbc
00000010: fa17 07be 1a16 a73b bd54 4eba bf67 00be
00000020: 6121 e43a e419 dd3c d1fc 7bbc 09c7 673d
00000030: fa63 cbbd 75e9 a63c ac03 2d3b 5c2a a9bb
00000040: e210 8b3b 729f 403c ec99 0b3c 2771 173d
00000050: 016b febd b0bb ab3b 486a fa3b 663e 1b3c
00000060: 86cd a6bd 6aa1 823c 3722 ae3c e855 183c
00000070: 1db6 4a3c 9f04 a03d 8860 123c a878 0bbe
00000080: 3b87 893b a157 c83c bba2 4dbc 8024 0f3c
00000090: 1675 aebc aeef a73a 34ae 203c 1ca2 b63b
000000a0: a374 763c 76fa 163c 6fbf ccbd ec13 3c3b
000000b0: 355b f83b 3aa5 c53a fb98 183b dbb2 8ebc
000000c0: c749 413c 932f aa3b de08 9fbc 4b83 353c
000000d0: 4f03 7abc 1978 9bbc d8d2 ce3b ada6 873c
000000e0: b158 953c db34 febd 3f84 03be 2631 393b
000000f0: 4d07 a03b ac5f 323c 4456 193c 0802 cb3b
00000100: 07c2 c939 dd5c cc3d b421 273c e359 7c3b
00000110: f2d2 143c 4472 7ebc b353 4e3c cff8 8bbc
00000120: 67ed b63b bf39 abbc ef9a 3e3d cd0d fcbd
00000130: fcc7 56bb b1ef 0a3c cb5c c23c 4720 d3ba
00000140: 72e5 2a3d 6e65 00be 6650 a93c e76d 983c
00000150: 9eea 653c 7078 d53b 4779 b23c ea42 053c
00000160: dadc 8f3c 867a 7dbc 65de 6f3c ca43 a03b
00000170: be4f df3b 0592 04bc 62bf 2ebc 1cff da3b
00000180: 95c9 0e3d 95e2 333c 1804 c6b9 4520 133b
00000190: 0c6f 423c 2387 ad3b a71b 843b e6ee c73b
000001a0: 5d2b 42bc c4fd e83c 2ae6 9f3c d253 2e3c
000001b0: 2eea 453c 4d89 80bc d80c 3bbd f80c 173c
000001c0: f127 ae3b 25ac 27ba 0fc9 84bc 86d1 80ba
000001d0: 8b3b 1b3c c506 3abb 4cd6 0bba 1a6b e73a
000001e0: 1be7 053c 5036 d7bb 3ef3 9fbc ad3d f93b
000001f0: 1400 233c fc30 adbc 536c 56bb 3b34 0b3d
00000200: d555 f5bc ab37 4abb 84fc 09bd c799 4ebc
00000210: 1716 debc faec f73b 550a 28bc 6434 133b
00000220: 97fe f4bd aa45 0ebe afab c1bc e1df fbbd
00000230: 427e 2e3c 7b7e 883b 1e9b cd3b 47a0 f93b
00000240: 9918 7d3d 325a 1e3d 3da9 f53b 007c a43c
00000250: e5fd 813d 35ea 7fbb 2240 023a 0a6f 1d39
00000260: 33ce 353c b2fe 16bd ffa6 c33b f504 043c
00000270: a70a 97bb 0480 123b c048 39b9 a05a f13a
00000280: e39d 86bb 1d5e 493c 65f9 17bc 337a 013c
00000290: 5654 343c 02bb 8dbc e25e be3b b0ea d33b
000002a0: 83c7 f7bd d031 3a3b f7d5 11be a5c8 013c
000002b0: b5a1 fcbd bd4c fe3b a99e febd 9265 523b
000002c0: 3261 c7ba c34c 35bd b00c ccbc 4e77 5c3c
000002d0: 28d5 113c 7660 5e3b f87b 55bc a9af 833b
000002e0: 7c65 eabb 855a b53b 6546 c93b 5bae b8bc
000002f0: a1f9 223c 20cb f73b 808e b83b ee4f 3ebc
00000300: 704c f83b ffef 01be 2476 c9bd d917 e0bd
00000310: 178c 6eba ff14 1c3b cb3c fdbb c68c 9f3b
00000320: f481 2c3d 4667 b8bb 4170 0c3c 074d b4bb
00000330: a6c9 a83d b460 263c f644 1dbb a1dc 17bb
00000340: 0211 48bb cbbd 06bd fe7b 1c3c 6ce7 133b
00000350: e19c 223c 6ca0 9c3c 2495 1f3a abc3 b6bb
00000360: 6268 ef3d 3a27 8a3c fe39 7fb8 fbd3 11bd
00000370: b0c0 2e3c 85c1 26bd 28cc b43c a964 223c
00000380: 2ce2 b739 4eb2 f83b aa17 9c3d d48f 683c
00000390: aae4 0a3c b326 f7bd 880b e3bd a9cb 8c3b
000003a0: f860 92bc 5002 5fbc c5a6 793c 4ffe 0e3c
000003b0: 1ef7 fbbd 1c2f 883c b37e 6b3c 3a96 a3bd
000003c0: 0764 f8bd 318e 52ba 2f7e e3bc 4e46 abbc
000003d0: 9d98 3e3c ce2d 15bc b8dc f7bd 1813 f13c
000003e0: 791f a43c 3d05 c4bb 532b 5d3c ba8a f3bd
000003f0: e955 9d3c c037 613c 6c76 afbb 6e10 b4bd
-0.024313271 -0.000113839786 -0.12394046 -0.028771335 -0.1319274 0.0050990703 -0.00078709034 -0.12539576
0.0017404967 0.026989885 -0.0153801 0.0565863 -0.099311784 0.020374993 0.0026399894 -0.0051625203
0.004243956 0.011756765 0.008520585 0.036973145 -0.12422753 0.00524088 0.0076420642 0.009475326
-0.08144669 0.015946109 0.02125655 0.009297825 0.012372521 0.078133814 0.008934148 -0.13620245
0.004197029 0.024455847 -0.012551005 0.00873673 -0.021296065 0.0012812519 0.009807158 0.005573524
0.015042457 0.009214988 -0.099974506 0.0028698398 0.007579232 0.0015079149 0.0023284543 -0.01741927
0.011797375 0.0051936596 -0.019413408 0.011078666 -0.015259578 -0.018978165 0.0063117556 0.01655897
0.018230768 -0.12412425 -0.12843417 0.0028258055 0.004883683 0.010887068 0.009358946 0.0061953105
0.0003848227 0.0997865 0.010200907 0.0038505725 0.009083496 -0.015530173 0.012593198 -0.017086415
0.0055825 -0.020901559 0.046534475 -0.1230732 -0.0032773009 0.008479998 0.023725888 -0.0016107642
0.041722722 -0.12538692 0.02066822 0.018607093 0.014032988 0.0065146014 0.021786345 0.008133629
0.017561365 -0.015471106 0.014640425 0.0048908936 0.006814926 -0.008091454 -0.010665746 0.0066832434
0.034860212 0.010979314 -0.00037768553 0.0022449654 0.011867296 0.0052956506 0.0040316167 0.006101477
-0.011851159 0.028441317 0.01951893 0.0106401015 0.012079759 -0.01569047 -0.045666546 0.009219401
0.00531482 -0.0006396196 -0.016209153 -0.0009828068 0.009474645 -0.0028385383 -0.0005334362 0.001765582
0.008172776 -0.006567754 -0.019525167 0.0076062293 0.009948749 -0.021141522 -0.0032718375 0.033985358
-0.029948154 -0.0030855935 -0.033688083 -0.012609906 -0.027110143 0.0075660916 -0.01025637 0.0022461647
-0.11962622 -0.13893762 -0.023641435 -0.12298561 0.010650219 0.0041654683 0.006274595 0.0076179835
0.061791036 0.038660236 0.0074969814 0.020078659 0.06347255 -0.003904951 0.0004968663 0.00015014052
0.011096525 -0.03686399 0.005970835 0.0080578225 -0.004609424 0.0022354135 -0.00017670076 0.0018413849
-0.004108177 0.012290505 -0.009275769 0.00790267 0.011006435 -0.017301086 0.0058096508 0.006467186
-0.12098601 0.0028411038 -0.14241777 0.007921373 -0.12335531 0.0077606128 -0.12432606 0.0032103998
-0.0015211462 -0.04426266 -0.024908394 0.013456179 0.008900918 0.0033932007 -0.013030045 0.004018743
-0.007153211 0.0055344724 0.006142425 -0.022544077 0.0099472115 0.007562056 0.0056322217 -0.011615736
0.0075774714 -0.12689207 -0.09836987 -0.109420486 -0.00090998545 0.0023816226 -0.0077281944 0.0048690764
0.04211612 -0.0056275455 0.008571685 -0.0055023464 0.082415864 0.010154892 -0.0023997403 -0.0023172277
-0.0030527716 -0.032895844 0.009551046 0.0022568358 0.009925098 0.019119464 0.00060875923 -0.0055775247
0.11689831 0.016864408 -6.0850747e-05 -0.03560255 0.0106660575 -0.0407119 0.022070006 0.009911695
0.0003507299 0.007589615 0.07621701 0.014194448 0.008477369 -0.12067928 -0.11086184 0.004296739
-0.017868504 -0.013611391 0.015237515 0.008727624 -0.12302993 0.016624026 0.014373469 -0.07987638
-0.12128454 -0.00080320524 -0.02777013 -0.020907547 0.0116330655 -0.009105159 -0.12102646 0.02942805
0.020034539 -0.0059820698 0.013499099 -0.11891694 0.019206004 0.013746202 -0.005354693 -0.08792196

fc3.bias f4 [2]
00000000: 0973 31bd 80ea f3bd
-0.043322597 -0.11909962
