checkpoint_critic2.pth (torch_old, 292850 bytes, 5 tensors)

fcs1.weight f4 [256, 24]
0.034682415 0.104074724 0.0045279907 -0.2279035 -0.020700533 -0.09963448 -0.076968074 -0.19152233
0.10826378 0.14844017 -0.028801478 0.11712671 -0.041567054 -0.14427243 -0.073806465 0.12570684
0.14216338 0.16096951 -0.042646065 0.06912114 -0.055933576 -0.14244379 -0.023672288 0.118880175
0.019486854 0.14549279 0.00879643 -0.015218862 -0.04860976 0.019644424 -0.043934975 -0.10197781
0.08050367 0.10730954 0.02032163 0.0017951175 -0.017155409 0.010539611 0.009034498 -0.0009156022
0.08542508 0.061259735 0.016146945 -0.014920587 0.026378319 -0.0026239953 -0.0514616 0.012174386
0.083045386 -0.015623173 -0.023083687 -0.025656428 0.042678032 0.03327866 -0.0241324 0.017598333
0.13595876 0.03554657 -0.047633123 -0.06077484 -0.015909744 0.046078928 0.011356569 -0.096681446
0.14200263 -0.00814681 -0.046543237 -0.08473939 -0.076582186 0.014852198 0.018552113 -0.032473758
0.15088782 0.3111518 0.15205969 0.058929916 -0.089632966 -0.10610065 0.19789283 0.06029294
0.260004 0.3294202 0.06988122 -0.18790999 -0.09447161 -0.20539843 0.09629132 -0.25270432
0.51430124 0.30990323 0.25075266 0.24844669 0.012105239 -0.13972168 0.26114053 0.20274791
0.055568896 0.005991577 -0.055090096 0.017671963 -0.015954545 0.01703779 0.030416649 0.056828327
-0.003024881 0.0643689 -0.059412517 0.035741147 0.03469569 -0.06954854 0.016729318 -0.020178402
0.04974578 0.0470202 0.00028813563 0.058361184 -0.025617348 -0.037033346 -0.013260842 0.042848777
0.092770144 0.24390051 -0.115125366 0.103920914 -0.12229774 -0.20943904 -0.03542717 0.16650133
0.23398682 0.2666232 0.06447654 -0.09194453 -0.043387007 -0.043049295 0.04525405 -0.087631576
0.6516749 0.30679813 0.2598054 0.16640759 -0.07197872 -0.055086114 0.23138788 0.095355526
0.24336359 0.1750158 -0.22165447 0.24201694 -0.1058131 -0.29738098 -0.15153463 0.3031192
0.024377147 0.013619822 -0.08713373 0.06864812 -0.018425902 -0.04849585 -0.072099574 0.05969086
0.031033542 0.13424355 -0.09268631 0.10255066 -0.0608458 -0.1338068 -0.17677341 0.018742222
-0.29656535 -0.16872235 -0.08304024 -0.14264414 0.16369158 0.15645228 -0.16184434 -0.1294099
-0.27491838 -0.115320474 -0.38214734 -0.27069965 -0.004775731 0.13468006 -0.35232508 -0.318044
-0.04161388 0.033085663 -0.30633834 -0.026658554 -0.041267432 -0.049269978 -0.32911646 0.0783393
0.17320445 0.018902002 0.032204777 0.23045887 0.00011063179 -0.12306101 -0.008108218 0.32906923
0.19802083 0.041976742 0.034028977 0.29558685 0.037835423 -0.054188006 -0.017733518 0.36120212
0.14586182 -0.014536694 -0.015185511 0.036983054 0.0029662817 0.058194872 -0.014705127 0.026228348
0.010357135 -0.11061061 -0.19895966 -0.06542299 -0.0055847126 0.13126351 -0.18762724 -0.11571214
0.08809293 0.12094694 -0.32179293 -0.19249879 0.028024305 -0.047644645 -0.31532902 -0.23510651
0.00053229835 0.12463863 0.0842087 -0.08183674 -0.018756079 -0.11362197 -0.011490172 -0.12178258
0.053363632 0.057720926 0.2399353 0.13011968 -0.17079404 -0.077475466 0.18945217 0.12353314
0.1723451 0.07953885 -0.14220688 0.10109716 -0.12884103 -0.2577738 -0.2051564 0.18275625
00000000: 260f 0e3d 2125 d53d 8a5f 943b 895f 69be
00000010: 2a94 a9bc 2a0d ccbd 70a1 9dbd 6e1e 44be
00000020: 67b9 dd3d b300 183e 14f1 ebbc 21e0 ef3d
00000030: 3742 2abd 27bc 13be d827 97bd 4bb9 003e
00000040: 4793 113e 31d5 243e a4ad 2ebd 628f 8d3d
00000050: 9b1a 65bd c9dc 11be 63ec c1bc 7377 f33d
00000060: e5a2 9f3c 10fc 143e e71e 103c 8958 79bc
00000070: 071b 47bd 58ed a03c 29f5 33bd bed9 d0bd
00000080: 1cdf a43d 1bc5 db3d 8c79 a63c 264a eb3a
00000090: 8089 8cbc 55ae 2c3c 6e05 143c 0605 70ba
000000a0: 58f3 ae3d 7deb 7a3d 9946 843c 7a75 74bc
000000b0: 5817 d83c 56f7 2bbb 66c9 52bd 1377 473c
000000c0: b313 aa3d 56f8 7fbc 001a bdbc 6e2d d2bc
000000d0: 29cf 2e3d 344f 083d 50b1 c5bc 612a 903c
000000e0: c638 0b3e 4899 113d f31a 43bd 0aef 78bd
000000f0: 2755 82bc 42bd 3c3d e710 3a3c ec00 c6bd
00000100: 2369 113e 337a 05bc 1fa4 3ebd d88b adbd
00000110: 1fd7 9cbd a256 733c 9afa 973c 3403 05bd
00000120: 5682 1a3e 4a4f 9f3e 89b5 1b3e 7f60 713d
00000130: 7d91 b7bd 4c4b d9bd 6ba4 4a3e bbf5 763d
00000140: 3f1f 853e c4a9 a83e e31d 8f3d 7a6b 40be
00000150: 557a c1bd f753 52be 6234 c53d 7662 81be
00000160: 3fa9 033f a3ab 9e3e a762 803e cf68 7e3e
00000170: 0d55 463c 3313 0fbe 36b4 853e 269d 4f3e
00000180: 369c 633d fe54 c43b 27a6 61bd cbc4 903c
00000190: 1bb3 82bc d692 8b3c 562c f93c d2c4 683d
000001a0: 153d 46bb d8d3 833d 8a5a 73bd 4f65 123d
000001b0: 111d 0e3d 776f 8ebd ec0b 893c 2d4d a5bc
000001c0: 3bc2 4b3d 4198 403d e910 9739 230c 6f3d
000001d0: 79db d1bc 47b0 17bd 0144 59bc 3382 2f3d
000001e0: 46fe bd3d 0ec1 793e d9c6 ebbd 7dd4 d43d
000001f0: 3d77 fabd 3077 56be 151c 11bd 537f 2a3e
00000200: 3e9a 6f3e d682 883e 470c 843d 6a4d bcbd
00000210: 93b6 31bd 7554 30bd 505c 393d 2f78 b3bd
00000220: 2bd4 263f a514 9d3e 3705 853e c066 2a3e
00000230: 9469 93bd faa1 61bd f2f0 6c3e c249 c33d
00000240: 4e34 793e 5837 333e 64f9 62be 4ad3 773e
00000250: 8ab4 d8bd 5242 98be e52b 1bbe 7132 9b3e
00000260: 95b2 c73c ad25 5f3c 2b73 b2bd 6397 8c3d
00000270: ebf1 96bc 96a3 46bd f1a8 93bd 677e 743d
00000280: 0e3a fe3c 2477 093e 52d2 bdbd 1506 d23d
00000290: 7239 79bd a604 09be 1704 35be 4a89 993c
000002a0: 6ad7 97be 8dc5 2cbe 0011 aabd 4e11 12be
000002b0: c49e 273e 0735 203e 86ba 25be 0784 04be
000002c0: 1ac2 8cbe 242d ecbd d1a8 c3be 2599 8abe
000002d0: bc7d 9cbb 92e9 093e f463 b4be aad6 a2be
000002e0: 5173 2abd d584 073d 61d8 9cbe 0a63 dabc
000002f0: 0a08 29bd 51cf 49bd f481 a8be 5b70 a03d
00000300: 825c 313e 5fd8 9a3c 28e9 033d 69fd 6b3e
00000310: fd02 e838 6907 fcbd 55d8 04bc c37b a83e
00000320: f9c5 4a3e ceef 2b3d f861 0b3d 2957 973e
00000330: 51f9 1a3d 3ef4 5dbd e245 91bc 7cef b83e
00000340: cd5c 153e 502b 6ebc a6cc 78bc 8b7b 173d
00000350: f365 423b bf5d 6e3d c6ed 70bc d5dc d63c
00000360: f9b0 293c d187 e2bd 15bc 4bbe 7dfc 85bd
00000370: f7ff b6bb f169 063e 5b21 40be 7dfa ecbd
00000380: 116a b43d 07b3 f73d 0bc2 a4be 671e 45be
00000390: 3a93 e53c 0827 43bd ce72 a1be c3bf 70be
000003a0: f089 0b3a 8a42 ff3d 9c75 ac3d 059a a7bd
000003b0: 59a6 99bc a3b2 e8bd 4641 3cbc 2569 f9bd
000003c0: d393 5a3d c76c 6c3d 99b1 753e 183e 053e
000003d0: a2e4 2ebe 75ab 9ebd c0ff 413e f1fe fc3d
000003e0: 3c7b 303e 44e5 a23d ae9e 11be 070c cf3d
000003f0: e7ee 03be edfa 83be 8514 52be 7424 3b3e

fcs1.bias f4 [256]
-0.23883428 0.030701496 0.047247637 -0.005672125 -0.061298225 -0.42000124 -0.2941008 -0.08737002
-0.18293175 -0.22003858 -0.038363434 -0.059878256 -5.7698035e-05 -0.18320812 -0.4241648 0.21382037
-0.0887372 -0.09159166 -0.24351773 -0.25768515 0.045170434 -0.26924834 -0.0657335 -0.27947745
-0.041264094 -0.21784018 -0.070352316 -0.014216052 -0.30672264 -0.15086578 -0.02826882 -0.37690014
-0.14506489 -0.031918824 -0.2043621 -0.050142057 -0.2571959 0.15796258 -0.2580568 -0.049653877
-0.18797666 -0.16319595 -0.07172934 -0.11628308 -0.16371548 -0.13754672 -0.15034227 -0.27712676
0.2352148 -0.0155366585 -0.2341931 0.08658644 -0.18204828 -0.17425907 -0.020330062 -0.22250251
-0.010365026 -0.16364995 -0.20815735 0.39862475 -0.11001635 -0.0989943 -0.11230763 -0.24882992
-0.12140748 -0.01081945 -0.2904793 0.107867815 -0.32899666 -0.21292634 -0.07967348 -0.23872794
-0.25746632 -0.17706054 -0.28671873 0.105248265 0.118145816 0.09271234 -0.06666267 -0.09746661
-0.14242992 -0.13658197 -0.29630908 -0.25423792 -0.12058611 -0.27702233 -0.2305225 0.035422955
-0.17037863 0.1336345 -0.1276616 -0.05847516 -0.27366474 0.10531549 0.029920842 -0.33238357
0.042729575 -0.4633119 -0.001582312 0.024957933 -0.11805051 -0.10077661 0.12136685 -0.09065147
-0.15005931 0.051908445 -0.061571438 -0.020756228 0.1942362 -0.086341985 -0.10534674 -0.10176879
-0.1643546 -0.2191348 -0.085965306 -0.0716115 0.16886684 -0.34645855 -0.25291657 0.1271271
-0.13349704 -0.05189455 0.07739763 0.3365475 0.120024376 0.14792058 -0.092103764 -0.03142982
-0.0006048274 -0.26684022 -0.21865934 0.08503831 -0.24870059 -0.043750554 0.3335599 0.0736804
-0.079846255 -0.077320844 0.08469157 -0.067992836 -0.07909072 -0.2569417 0.283705 -0.09882883
0.053846 -0.24096212 -0.1285688 -0.17604157 -0.1439397 0.06123865 -0.14350736 0.27017453
0.13600233 -0.24312578 0.030647798 -0.06012538 0.170089 0.0218464 -0.13439108 -0.084175766
-0.30359456 -0.073616974 -0.076224305 -0.00284686 0.12263765 0.1442858 -0.04332542 -0.045126796
-0.08632215 0.1446757 -0.10745511 -0.28556475 -0.3168148 -0.35819286 -0.34140754 -0.24080014
-0.16794741 0.2944041 -0.22858983 0.14611375 -0.16288735 0.19416037 0.05513655 -0.01747481
0.23830591 -0.22651324 -0.23445725 -0.16331497 -0.10211588 0.17199172 -0.018302117 -0.1612137
-0.04768886 0.02626781 0.16095711 -0.30080017 -0.17712569 0.012437116 0.2158408 0.07420015
-0.11953233 -0.113328345 -0.1130119 -0.16110039 0.419046 0.3083261 -0.2259506 0.4520589
-0.08087554 -0.30854332 -0.006840783 -0.34209695 0.040643644 -0.10383801 -0.09944773 -0.32745385
0.05072142 0.11185889 -0.06333863 0.115322016 -0.10905414 0.00071487745 0.2485864 -0.17175685
-0.09232967 -0.1449415 -0.009360373 -0.1486223 -0.16377692 0.10951684 0.19411358 0.08457518
-0.23908363 -0.12751283 -0.049209192 0.068353266 -0.2465403 -0.012171089 -0.052817125 0.0060774554
-0.1640936 -0.24137053 0.27792057 -0.08380047 -0.05890609 0.20889986 -0.28702304 -0.2832091
-0.084729366 -0.10291073 -0.20197757 -0.17651623 0.13189204 0.071406126 -0.31669593 0.11047796
00000000: f990 74be b481 fb3c bd86 413d 3cdd b9bb
00000010: d913 7bbd 670a d7be 6194 96be 0eef b2bd
00000020: 7652 3bbe cb51 61be fa22 1dbd e742 75bd
00000030: cb00 72b8 e99a 3bbe 212c d9be baf3 5a3e
00000040: d9bb b5bd 6994 bbbd b65c 79be 4fef 83be
00000050: a204 393d ebda 89be 499f 86bd ab17 8fbe
00000060: 8a04 29bd 7f11 5fbe e014 90bd 72ea 68bc
00000070: c00a 9dbe 8f7c 1abe 0394 e7bc 0ef9 c0be
00000080: e48b 14be 50bd 02bd 4c44 51be c261 4dbd
00000090: 2eaf 83be f1c0 213e 0520 84be dd61 4bbd
000000a0: f47c 40be d71c 27be d5e6 92bd d325 eebd
000000b0: 08a5 27be 0cd9 0cbe 53f3 19be 8fe3 8dbe
000000c0: 26dc 703e 788d 7ebc 51d0 6fbe 3b54 b13d
000000d0: dd6a 3abe f870 32be 3b8b a6bc b3d7 63be
000000e0: 12d2 29bc da93 27be 3327 55be 8b18 cc3e
000000f0: 4150 e1bd 86bd cabd 8b01 e6bd 45cd 7ebe
00000100: 7ca4 f8bd 1044 31bc b4b9 94be cde9 dc3d
00000110: 4072 a8be 5d09 5abe d92b a3bd 1975 74be
00000120: a0d2 83be 5c4f 35be cccc 92be 678c d73d
00000130: 6ff6 f13d f8df bd3d 7086 88bd 939c c7bd
00000140: 26d9 11be 25dc 0bbe d3b5 97be 792b 82be
00000150: daf5 f6bd dfd5 8dbe 170e 6cbe a917 113d
00000160: bc77 2ebe 7bd7 083e b9b9 02be a683 6fbd
00000170: c91d 8cbe a6af d73d 8e1c f53c 2e2e aabe
00000180: 3505 2f3d 3837 edbe 9565 cfba 9474 cc3c
00000190: 77c4 f1bd f863 cebd 2f8f f83d 7aa7 b9bd
000001a0: 26a9 19be f39d 543d 5532 7cbd f708 aabc
000001b0: dbe5 463e 11d4 b0bd 08c0 d7bd 286c d0bd
000001c0: 924c 28be df64 60be 940e b0bd 0da9 92bd
000001d0: 6eeb 2c3e 0463 b1be 487e 81be 9b2d 023e
000001e0: 73b3 08be 618f 54bd a682 9e3d f44f ac3e
000001f0: 57cf f53d 7e78 173e e6a0 bcbd 8ebc 00bd
00000200: 488d 1eba 489f 88be 3ce8 5fbe 9128 ae3d
00000210: 5eab 7ebe c833 33bd 5dc8 aa3e c0e5 963d
00000220: 6f86 a3bd 645a 9ebd c672 ad3d d43f 8bbd
00000230: 51fa a1bd dd8d 83be c841 913e c566 cabd
00000240: a08d 5c3d c6be 76be 8aa7 03be 3e44 34be
00000250: ee64 13be 61d5 7a3d 98f3 12be 5154 8a3e
00000260: 3244 0b3e f7f5 78be 1711 fb3c 0846 76bd
00000270: d02b 2e3e 39f7 b23c d19d 09be 5864 acbd
00000280: bf70 9bbe 7fc4 96bd 7d1b 9cbd 6392 3abb
00000290: 7329 fb3d a8bf 133e ff75 31bd e0d6 38bd
000002a0: abc9 b0bd de25 143e 6d11 dcbd 8b35 92be
000002b0: 8d35 a2be 0e65 b7be f8cc aebe 5094 76be
000002c0: 68fa 2bbe 22bc 963e 7413 6abe d89e 153e
000002d0: f1cb 26be fad1 463e ddd6 613d 5527 8fbc
000002e0: 7706 743e 16f3 67be 9015 70be 0a3c 27be
000002f0: 2122 d1bd 991e 303e 52ee 95bc 3415 25be
00000300: 6555 43bd 972f d73c f1d1 243e 7b02 9abe
00000310: 7060 35be 0cc5 4b3c 5f05 5d3e 40f6 973d
00000320: 5ecd f4bd b118 e8bd c872 e7bd 80f7 24be
00000330: 338d d63e ebdc 9d3e 985f 67be 4474 e73e
00000340: 13a2 a5bd 64f9 9dbe a628 e0bb 5527 afbe
00000350: f379 263d 06a9 d4bd 40ab cbbd 08a8 a7be
00000360: 44c1 4f3d 4616 e53d afb7 81bd f32d ec3d
00000370: c757 dfbd 9d66 3b3a 6f8d 7e3e 07e1 2fbe
00000380: 5717 bdbd 8b6b 14be 405c 19bc 7230 18be
00000390: 23b5 27be 5d4a e03d b6c5 463e c135 ad3d
000003a0: 57d2 74be b992 02be 948f 49bd ccfc 8b3d
000003b0: 0f75 7cbe 3f69 47bc c556 58bd 6425 c73b
000003c0: 2708 28be d629 77be 9b4b 8e3e 959f abbd
000003d0: 8347 71bd d8e9 553e aff4 92be c800 91be
000003e0: 9786 adbd dcc2 d2bd 35d3 4ebe acc0 34be
000003f0: b50e 073e 603d 923d f825 a2be 4542 e23d

fc2.weight f4 [256, 258]
-0.040497378 -0.0011642497 0.062281404 -0.0073002577 0.0370397 0.011963793 -0.036918953 0.10646659
0.04281947 -0.070376985 0.026931964 0.039991062 0.017632876 0.0065980195 -0.13159928 0.06322892
-0.064110845 -0.05358265 0.050872646 -0.040517457 0.047355194 -0.036633275 0.051865738 -0.054910995
-0.018485526 -0.1517759 -1.614043e-05 -0.0803866 -0.050383974 -0.06091423 -0.0397517 -0.14004591
-0.008755772 -0.030410007 -0.008246088 -0.054624323 -0.07264319 0.047772042 -0.055865765 -0.021067005
0.042029217 -0.11047855 -0.02783999 0.00405889 0.051255085 -0.03779509 0.033305492 -0.08447426
-0.012715198 0.0026647616 -0.033240844 -0.03861921 -0.025475333 0.037511952 -0.057647932 0.05098736
0.0035811511 -0.086503856 -0.019572735 -0.17336811 -0.10591041 -0.03471373 -0.07140486 -0.08576896
-0.004961658 0.03305382 0.016739652 -0.2877438 -0.0956908 -0.028307814 0.043672107 -0.03135139
0.059727192 -0.042476643 -0.050986964 -0.1028045 0.033638597 -0.08440316 -0.024460327 0.08275774
-0.036274955 -0.054486282 0.030599 0.022874072 -0.037466034 0.076128736 0.01976853 0.022005975
0.010379552 0.027542803 -0.0488034 -0.043453053 0.06648016 0.0072007673 -0.081068136 -0.033037145
-0.0151377125 -0.09578577 -0.072644375 0.020465704 0.009914641 0.056891788 0.20642936 -0.067677476
-0.0046768556 -0.30313107 -0.08803021 -0.013569397 -0.049858995 -0.03436128 -0.011458129 -0.0076723774
-0.030999577 0.040668838 -0.042209104 -0.020564493 -0.023135543 0.03102158 -0.04300593 -0.029214535
-0.016858224 -0.020880034 0.015486256 0.18896854 -0.022173021 0.06440819 -0.016889995 0.037095778
0.04009588 -0.12709093 0.05785356 0.018818649 0.021497728 -0.021330358 -0.14742172 -0.08503773
-0.1056888 0.022215003 0.039912876 0.087688096 0.029227244 -0.010933608 -0.08869758 -0.10055896
0.008442292 -0.05790687 0.039736897 -0.16417888 -0.025966704 0.020097634 -0.12436142 -0.13488077
-0.018253693 0.039796736 -0.004738855 0.015950693 0.08432801 -0.0019395323 0.012843851 -0.012025111
-0.039839827 0.0198265 -0.03176627 -0.10768466 0.041300848 0.032035273 0.037428163 -0.0055220686
-0.00034485027 -0.052961085 0.0013224332 -0.012518578 -0.035448518 -0.022328649 -0.032171834 -0.021338245
-0.09267118 -0.17313525 0.05458728 0.03488113 0.0391396 -0.008210438 0.06608757 -0.15618177
0.034300007 0.021807706 -0.16583921 0.03801721 0.07306685 0.029975101 -0.050627656 -0.0059919236
-0.042675648 -0.036214665 0.014590438 -0.0155290915 -0.08457754 0.011118263 -0.079032935 0.04115485
-0.03437874 0.0075276583 -0.12891161 -0.06895234 -0.017505372 -0.11065195 0.025266968 -0.011710414
0.023081755 0.036376026 -0.026005687 0.042009868 -0.07909483 -0.07242359 -0.04467326 -0.019058123
-0.055997238 -0.013572931 0.0015709832 -0.17336491 -0.059230246 0.0033601203 -0.075329386 0.008433705
-0.050178926 -0.059654694 -0.04897808 -0.2328262 -0.012978849 -0.2145254 -0.4690565 0.05065259
-0.12689629 -0.06806932 0.032740675 -0.014858416 -0.051615454 -0.023606794 0.019299109 -0.02515961
0.0091551365 -0.016317932 -0.14738901 -0.051470153 0.000113188624 -0.035537355 -0.08531029 -0.10827602
-0.028656535 -0.05682376 0.061345268 -0.13789946 0.013552653 0.009174791 -0.0036494713 -0.036621165
00000000: 94e0 25bd bd99 98ba c91a 7f3d 0037 efbb
00000010: f1b6 173d c903 443c 5438 17bd 280b da3d
00000020: 7863 2f3d cf21 90bd 6ca0 dc3c abcd 233d
00000030: d272 903c 3334 d83b f6c1 06be 2a7e 813d
00000040: 8c4c 83bd 7b79 5bbd d65f 503d a2f5 25bd
00000050: 85f7 413d c60c 16bd 2b71 543d 5aea 60bd
00000060: f56e 97bc 246b 1bbe 4f65 87b7 bba1 a4bd
00000070: 6d5f 4ebd 3381 79bd aed2 22bd 3268 0fbe
00000080: 5f74 0fbc 681e f9bc 9a1a 07bc c1bd 5fbd
00000090: f4c5 94bd 9eac 433d 80d3 64bd b694 acbc
000000a0: d426 2c3d 9442 e2bd b110 e4bc 7000 853b
000000b0: daf0 513d 06cf 1abd 576b 083d d700 adbd
000000c0: 6853 50bc 48a3 2e3b 8d27 08bd 2d2f 1ebd
000000d0: a5b1 d0bc 22a6 193d 3d20 6cbd 1fd8 503d
000000e0: bfb1 6a3b ef28 b1bd 0057 a0bc 6987 31be
000000f0: 8fe7 d8bd fc2f 0ebd b63c 92bd a3a7 afbd
00000100: 6795 a2bb 7163 073d 9821 893c 2853 93be
00000110: 8af9 c3bd cae5 e7bc 86e1 323d 516a 00bd
00000120: 80a4 743d fdfb 2dbd b5d7 50bd 2a8b d2bd
00000130: a0c8 093d 90db acbd 0661 c8bc e47c a93d
00000140: 0c95 14bd 022d 5fbd c1aa fa3c 6862 bb3c
00000150: fc75 19bd 62e9 9b3d 9df1 a13c e045 b43c
00000160: ff0e 2a3c 72a1 e13c 13e6 47bd d4fb 31bd
00000170: c026 883d 6af4 eb3b 0d07 a6bd f551 07bd
00000180: 2b04 78bc 542b c4bd 93c6 94bd b1a7 a73c
00000190: 0571 223c 5d07 693d 3862 533e 7d9a 8abd
000001a0: 4f40 99bb ff33 9bbe 2f49 b4bd 2d52 5ebc
000001b0: f238 4cbd 6abe 0cbd e0ba 3bbc 9168 fbbb
000001c0: d3f2 fdbc 5e94 263d 74e3 2cbd de76 a8bc
000001d0: c086 bdbc f820 fe3c fc26 30bd 5253 efbc
000001e0: 421a 8abc 9b0c abbc 11ba 7d3c f880 413e
000001f0: 32a4 b5bc 71e8 833d e35c 8abc bef1 173d
00000200: 943b 243d 2024 02be dbf7 6c3d 9129 9a3c
00000210: 011c b03c 01bd aebc b8f5 16be 4328 aebd
00000220: 5f73 d8bd 3dfc b53c af7b 233d d195 b33d
00000230: f96d ef3c e022 33bc 14a7 b5bd dbf1 cdbd
00000240: 8a51 0a3c c12f 6dbd 28c3 223d 821e 28be
00000250: 20b8 d4bc cba3 a43c 33b1 febd 2f1e 0abe
00000260: c588 95bc e701 233d 6648 9bbb 07ab 823c
00000270: 2ab4 ac3d e837 feba 046f 523c f904 45bc
00000280: 162f 23bd 2f6b a23c 591d 02bd c689 dcbd
00000290: 142b 293d 6b37 033d 464e 193d 78f2 b4bb
000002a0: 05cd b4b9 b9ed 58bd 7f55 ad3a b91a 4dbc
000002b0: 7732 11bd 92ea b6bc 9dc6 03bd 8bcd aebc
000002c0: 63ca bdbd 5e4a 31be e996 5f3d 84df 0e3d
000002d0: d850 203d 1385 06bc eb58 873d 1dee 1fbe
000002e0: 2a7e 0c3d 13a6 b23c c1d1 29be efb7 1b3d
000002f0: 13a4 953d 588e f53c f25e 4fbd e657 c4bb
00000300: a9cc 2ebd d455 14bd bc0c 6f3c bb6d 7ebc
00000310: fd36 adbd 6029 363c 05dc a1bd fd91 283d
00000320: b9d0 0cbd 93aa f63b 6801 04be e236 8dbd
00000330: 6d67 8fbc 7d9d e2bd acfc ce3c 09dd 3fbc
00000340: f315 bd3c 07ff 143d e109 d5bc 8a12 2c3d
00000350: 78fc a1bd d252 94bd 4ffb 36bd c81f 9cbc
00000360: 5c5d 65bd 0061 5ebc 73e9 cd3a 9286 31be
00000370: 6a9b 72bd 7735 5c3b 4b46 9abd 862d 0a3c
00000380: 6b88 4dbd 7b58 74bd 3d9d 48bd fe69 6ebe
00000390: 3da5 54bc 8cac 5bbe 2c28 f0be 1779 4f3d
000003a0: 1af1 01be ed67 8bbd 161b 063d b770 73bc
000003b0: ba6a 53bd 0963 c1bc 2a19 9e3c 871b cebc
000003c0: 6dff 153c 2fad 85bc 25ed 16be 5ed2 52bd
000003d0: ae5f ed38 9e8f 11bd 29b7 aebd d1bf ddbd
000003e0: 1cc1 eabc 08c0 68bd 2d45 7b3d 8435 0dbe
000003f0: f20b 5e3c dd51 163c f82b 6fbb 1300 16bd

fc2.bias f4 [256]
-0.23637168 -0.06187271 -0.048713997 -0.122082874 0.09183417 -0.07336812 -0.086041205 0.020470627
0.12108996 0.026605917 -0.051696688 -0.040386967 -0.04066545 0.03589206 0.0018693915 -0.007928954
-0.07108231 0.43217164 -0.045614343 -0.05184459 -0.007711365 -0.009930783 -0.047942404 -0.07933487
-0.006839809 -0.0573294 -0.057689004 0.104772635 -0.005205591 0.048773814 -0.041898772 -0.03817805
-0.021008201 -0.100932956 0.13850738 -0.009151869 0.013066901 0.015099504 -0.08678833 0.022388777
-0.068574816 0.25571653 -0.061018907 -0.20534208 -0.0495072 -0.15337215 0.24557886 0.023040127
-0.028241113 -0.027700841 -0.010749967 0.04362404 -0.047535356 0.0078049484 -0.028943118 -0.13609941
-0.04731928 -0.065791994 -0.0745748 -0.052403368 -0.014026306 -0.059437376 0.010885158 -0.022178417
-0.13689478 -0.069178134 -0.00023720028 -0.05201592 0.040551253 -0.10730509 -0.08914376 -0.044483885
-0.13118175 -0.06153041 -0.037958708 -0.025141032 -0.047518913 -0.009442471 -0.06904695 0.02419822
0.00018440884 -0.00015016767 -0.050642427 0.021905955 -0.022992218 -0.11821539 -0.025009241 -0.025663443
-0.05579791 -0.048523687 0.014647066 0.2454041 -0.07088543 -0.06882271 0.0038969778 -0.052953944
-0.0632691 -0.08984985 -0.024496153 -0.052781217 0.27319923 -0.0003093029 -0.018800968 0.0008155436
-0.025659632 -0.11639994 0.005302361 -0.06819534 0.01894834 0.11999958 -0.05579697 0.42991135
0.023751818 -0.0049366294 0.018122926 -0.18806681 0.03624724 -0.0137149915 0.3467767 0.019181805
-0.066432096 -0.120155774 0.0009930746 -0.00444594 -0.33018792 0.009810188 0.12949926 -0.07007837
0.032355458 0.0040782015 0.026485616 -0.114160314 0.08372586 -0.07008314 -0.086161904 -0.05296574
0.00026836514 -0.024677366 -0.003986856 0.39572045 -0.05419466 -0.07351491 -0.067907445 -0.057369735
-0.034497384 -0.015441502 -0.06418288 -0.09343967 -0.0319886 -0.07160106 -0.068582475 -0.026496256
-0.039262936 -0.027522292 -0.09046666 0.008356774 0.11979561 -0.06607558 0.04538743 0.08946802
-0.045454025 -0.00021473231 0.11861228 0.02085107 -0.08091125 -0.01386599 -0.054637205 0.013982696
-0.039582584 -0.095382296 0.00021194259 -0.11716767 -0.10171153 -0.05635998 0.0022015604 -0.05977549
0.23249814 -0.023660075 0.009094712 0.02424705 -0.059643876 -0.027492722 0.12471158 0.29514927
-0.034910887 -0.0859666 0.017358756 -0.07345738 -0.096904725 -0.009016306 -0.05932998 -0.026809217
-0.0079257665 -0.0061993077 -0.089609765 0.027152425 -0.08326722 -0.0733469 0.013916337 0.007947401
-0.052988257 -0.20303047 -0.08796443 -0.06060403 0.038458224 -0.017357673 -0.037340414 -0.032885205
0.22625703 -0.09544448 0.025070116 -0.086429335 0.010211221 -0.06143648 -0.073346235 0.05263279
-0.07770934 -0.13825795 -0.043111548 -0.032089774 -0.18302353 -0.11055305 0.02235055 0.07158111
0.013270474 0.06733592 -0.051191073 -0.106348656 -0.09324291 0.3286973 -0.058334865 0.008014677
-0.068007804 -0.018582365 -0.06455723 0.06985184 0.085502595 -0.0026704958 -0.011944399 -0.036449846
0.011694672 0.020334145 -0.050253514 -0.00096517755 -0.041809164 -0.0127169965 0.0179907 0.17650653
0.00025975204 -0.1285944 -0.072102115 -0.021363016 -0.023742322 -0.027552184 -0.10101565 -0.111229755
00000000: 6b0b 72be 3d6e 7dbd 5488 47bd 9606 fabd
00000010: 8e13 bc3d 0642 96bd 5f36 b0bd 04b2 a73c
00000020: 03fe f73d a7f4 d93c e8bf 53bd ce6c 25bd
00000030: d190 26bd 8d03 133d 5f06 f53a 72e8 01bc
00000040: 9a93 91bd 9a45 dd3e 1bd6 3abd fe5a 54bd
00000050: 9eaf fcbb b9b4 22bc 415f 44bd 527a a2bd
00000060: 7a20 e0bb 3cd2 6abd 4e4b 6cbd 0993 d63d
00000070: aa93 aabb 0dc7 473d 0c9e 2bbd 9660 1cbd
00000080: 6419 acbc f0b5 cebd e1d4 0d3e b9f1 15bc
00000090: 8e16 563c e963 773c 14be b1bd ab68 b73c
000000a0: f470 8cbd 47ed 823e f6ee 79bd 3245 52be
000000b0: 10c8 4abd 970d 1dbe 0679 7b3e a6be bc3c
000000c0: e859 e7bc e0ec e2bc a120 30bc 1faf 323d
000000d0: 6fb4 42bd a7c0 ff3b 1e1a edbc a55d 0bbe
000000e0: ddd1 41bd f4bd 86bd acba 98bd eaa4 56bd
000000f0: 97ce 65bc 9b74 73bd a957 323c 83af b5bc
00000100: 252e 0cbe 44ad 8dbd f7b8 78b9 a50e 55bd
00000110: 1219 263d c5c2 dbbd 0191 b6bd bc34 36bd
00000120: 8254 06be 5007 7cbd 977a 1bbd 91f4 cdbc
00000130: 31a3 42bd 98b4 1abc 7d68 8dbd 583b c63c
00000140: df5d 4139 5476 1db9 6f6e 4fbd 1e74 b33c
00000150: 2d5a bcbc e91a f2bd 2ee0 ccbc 243c d2bc
00000160: 598c 64bd c6c0 46bd 3ffa 6f3c 364b 7b3e
00000170: 612c 91bd ecf2 8cbd 7064 7f3b 3ce6 58bd
00000180: 3b93 81bd 3303 b8bd 28ac c8bc 1e31 58bd
00000190: c5e0 8b3e ef29 a2b9 7d04 9abc 34ca 553a
000001a0: 2634 d2bc 1763 eebd 6ebf ad3b 00aa 8bbd
000001b0: 8d39 9b3c 57c2 f53d 5d8b 64bd 571d dc3e
000001c0: 2c93 c23c 73c3 a1bb 8876 943c 9694 40be
000001d0: fc77 143d d8b4 60bc b78c b13e 2923 9d3c
000001e0: 8d0d 88bd 3b14 f6bd 0e2a 823a 3faf 91bb
000001f0: 640e a9be e9ba 203c 749b 043e 4085 8fbd
00000200: 2887 043d 6fa2 853b 5df8 d83c e2cc e9bd
00000210: 7778 ab3d c087 8fbd a775 b0bd 9bf2 58bd
00000220: 5cb3 8c39 3028 cabc 2ca4 82bb df9b ca3e
00000230: 38fb 5dbd fc8e 96bd 0f13 8bbd 87fc 6abd
00000240: 214d 0dbd 5bfe 7cbc 5072 83bd 4c5d bfbd
00000250: 7a06 03bd 94a3 92bd f874 8cbd ad0e d9bc
00000260: 2cd2 20bd 6e76 e1bc 9646 b9bd daea 083c
00000270: 6757 f53d a252 87bd 2be8 393d 023b b73d
00000280: 002e 3abd c429 61b9 ffea f23d ddcf aa3c
00000290: ccb4 a5bd 2d2e 63bc 43cb 5fbd ae17 653c
000002a0: 5921 22bd cb57 c3bd e83c 5e39 9af5 efbd
000002b0: 224e d0bd b9d9 66bd 0e48 103b 25d7 74bd
000002c0: fe13 6e3e c6d2 c1bc fd01 153c c0a1 c63c
000002d0: 234d 74bd 6b38 e1bc c968 ff3d ce1d 973e
000002e0: b8fe 0ebd 420f b0bd f333 8e3c d370 96bd
000002f0: fc75 c6bd 21b9 13bc fe03 73bd 019f dbbc
00000300: 13db 01bc 9023 cbbb 5385 b7bd c36e de3c
00000310: 0188 aabd e636 96bd 5901 643c d135 023c
00000320: 370a 59bd 38e7 4fbe b226 b4bd ee3b 78bd
00000330: 5f86 1d3d ae31 8ebc 43f2 18bd a3b2 06bd
00000340: ecaf 673e 6578 c3bd d85f cd3c dd01 b1bd
00000350: f74c 273c d2a4 7bbd 8d36 96bd 7b95 573d
00000360: 1326 9fbd 7e93 0dbe bc95 30bd 9170 03bd
00000370: 856a 3bbe a369 e2bd 8018 b73c 1e99 923d
00000380: 676c 593c 6ae7 893d bbad 51bd 53cd d9bd
00000390: 24f6 bebd 034b a83e 8af0 6ebd fe4f 033c
000003a0: ad47 8bbd 0b3a 98bc 9536 84bd 7b0e 8f3d
000003b0: fc1b af3d 7c03 2fbb 71b2 43bc 6f4c 15bd
000003c0: 029b 3f3c cb93 a63c a1d6 4dbd f803 7dba
000003d0: 1640 2bbd f35a 50bc 3c61 933c 21be 343e
000003e0: 542f 8839 40ae 03be 46aa 93bd 7e01 afbc
000003f0: 427f c2bc 1eb5 e1bc 4be1 cebd 6dcc e3bd

fc3.weight f4 [1, 256]
0.889861 0.030771442 0.6195635 -0.012509377 -1.0845304 0.0009919426 -0.017697494 1.2359945
-0.7869712 0.00401004 -0.020101007 0.02992309 -0.009123403 0.0034200223 0.717433 0.0014207112
0.000916192 -0.20308338 -0.0051048277 -0.0062257554 0.6938763 1.1376575 0.024022257 0.008383855
-0.022782134 0.0056088394 0.006044853 0.6374446 -0.013075287 -0.001160675 0.03843059 0.006885569
0.030266175 -0.033037387 0.72305614 0.00041861247 0.0006084216 0.001669482 0.010060788 0.0042553092
-0.0019029012 -0.28143606 0.0045639016 1.0803429 -0.017181756 1.0883445 -0.37018028 -0.0053923447
-0.026986415 1.3989216 -0.018258356 -0.024978658 0.035508618 -0.03687331 -0.0018132963 0.00638668
-4.6117493e-05 0.020328572 -0.02125766 0.0071908203 -0.014747769 0.006170409 0.023366991 0.002623714
0.010050267 0.018358003 0.006372214 -0.018198747 0.12987253 0.0074551343 0.011165077 0.0018962768
-0.025035353 0.02602912 -0.0024291573 -0.0054485584 -0.009835167 -0.0026160707 0.0021496227 0.004305642
1.1742581 -0.0036710575 0.0071098986 0.0008095909 0.0006875742 0.0044750795 0.02525598 -0.0012215418
-0.0017321453 -1.1686678 0.00012091154 -0.3274227 0.005270464 -0.0019073621 0.02175638 0.008456895
-0.0014139214 -0.002003526 -0.0037485259 -0.014855382 -0.40375662 -0.003132419 0.0010395586 -0.01489847
0.00388555 0.26454732 -0.0011924116 0.02321162 -0.06537979 -0.62550384 -0.0019241584 -0.2768156
0.0027469955 -0.0020843286 -0.00031525007 0.13463098 0.0023238102 -0.017414516 0.014764664 0.0046338607
0.01076059 -0.028031342 -0.0062279217 0.020339258 1.0800625 0.016249973 -0.521864 -0.0029082363
-0.0022415167 0.0052744523 -0.008653789 -0.0006918493 0.69164175 -0.0013725759 0.026319314 0.000837351
-0.0041984827 -0.01454014 0.025996292 -0.28833905 0.03010671 -1.4544889 0.7396873 -0.0014115985
-0.00019997111 0.021227187 0.014867714 -0.015403768 1.341757 0.0049624373 0.0025633788 -0.0032969536
-0.0003743964 -0.01348975 0.37945655 0.007334278 -0.5515762 -0.00053418794 0.00963002 1.3536221
-0.018943835 0.0045765103 0.79292613 0.00057739497 0.009969477 0.025969245 -0.005940898 -0.0009394293
0.0020505802 -0.029636797 -0.0025052824 -0.030878885 0.1930987 -0.02669692 -0.014000583 1.0226874
-0.502708 0.004183071 -0.030005153 0.0028824287 -0.04998243 -0.0010394139 0.777467 -0.24952136
-0.0013238739 -0.0013123032 -0.004313437 -0.0005109025 0.020180445 0.0020183434 -0.0012374744 0.0011060683
-0.012260542 0.0055512316 -0.023769427 -0.0077125486 -0.0006197602 0.0058182543 -0.00046965192 0.005131444
0.004279403 0.012066934 0.04371281 0.03268836 0.00861027 0.015164382 -0.033226594 0.013558686
-0.3492284 -0.025102867 0.0034247718 -0.00016349433 0.0020125217 0.03414365 0.011670247 -0.004171319
-0.0065389737 0.0027833914 7.496983e-05 -0.0023937258 0.010075892 0.55376774 0.0193213 0.124958485
-0.018811217 0.15385869 0.0113212075 -0.0013685336 -0.024238782 -0.48818845 0.014678741 0.028537588
0.0040076016 -0.73178446 0.35603294 0.16770644 -1.1475717 0.032696478 -0.0024448035 -3.4310477e-05
0.0016507375 -0.0054507772 0.020119535 -0.027814189 0.283192 0.0018112718 -0.008420202 0.73356694
-0.00223018 -0.009597854 0.011692051 0.0031545728 -0.016780687 -0.018171411 -0.02153482 0.030450229
00000000: eecd 633f 6414 fc3c b79b 1e3f 21f4 4cbc
00000010: e4d1 8abf 1204 823a 56fa 90bc 1135 9e3f
00000020: f276 49bf a766 833b deaa a4bc 4521 f53c
00000030: 537a 15bc 7422 603b b0a9 373f 2837 ba3a
00000040: 9b2c 703a 17f5 4fbe 6646 a7bb 6c01 ccbb
00000050: e1a1 313f c39e 913f 53ca c43c 705c 093c
00000060: 99a1 babc 5bca b73b e713 c63b 922f 233f
00000070: bb39 56bc ca21 98ba 6569 1d3d 57a0 e13b
00000080: c5f0 f73c 3652 07bd 351a 393f 3779 db39
00000090: 7b7e 1f3a 85d2 da3a 01d6 243c 1f70 8b3b
000000a0: c56a f9ba 6318 90be c88c 953b ad48 8a3f
000000b0: c1c0 8cbc df4e 8b3f 4588 bdbe 44b2 b0bb
000000c0: 9d12 ddbc dd0f b33f 8c92 95bc 0ba0 ccbc
000000d0: 7c71 113d 7808 17bd 21ac edba 5b47 d13b
000000e0: 486e 41b8 1b88 a63c 8b24 aebc f9a0 eb3b
000000f0: a0a0 71bc 2431 ca3b 226c bf3c 9ef2 2b3b
00000100: e0a9 243c 8663 963c 01ce d03b 8a15 95bc
00000110: 4efd 043e 334a f43b baed 363c 7e8c f83a
00000120: f116 cdbc 053b d53c 7f32 1fbb d289 b2bb
00000130: ae23 21bc 6272 2bbb afe0 0c3b 5816 8d3b
00000140: 174e 963f 2096 70bb 27fa e83b ba3a 543a
00000150: 533e 343a b0a3 923b a1e5 ce3c 241c a0ba
00000160: 2709 e3ba e896 95bf e491 fd38 f3a3 a7be
00000170: dbb3 ac3b 7400 faba 703a b23c ca8e 0a3c
00000180: 5453 b9ba 974d 03bb d4a9 75bb fd63 73bc
00000190: 30b9 cebe 4549 4dbb cc41 883a b618 74bc
000001a0: b6a4 7e3b bf72 873e b24a 9cba 4c26 be3c
000001b0: d7e5 85bd 0521 20bf 0b34 fcba c6ba 8dbe
000001c0: f006 343b 3b99 08bb 2648 a5b9 b4dc 093e
000001d0: 114b 183b e3a8 8ebc 7de7 713c a4d7 973b
000001e0: 304d 303c fca1 e5bc 9813 ccbb 849e a63c
000001f0: 7d3f 8a3f aa1e 853c e198 05bf 1c98 3ebb
00000200: 69e6 12bb 50d5 ac3b 9fc8 0dbc 385d 35ba
00000210: 6f0f 313f 01e8 b3ba 9a9b d73c ad81 5b3a
00000220: 6d93 89bb c439 6ebc 2df6 d43c 2da1 93be
00000230: 59a2 f63c b12c babf 265c 3d3f 6305 b9ba
00000240: 56af 51b9 a3e4 ad3c b697 733c 1660 7cbc
00000250: b2be ab3f f19b a23b 5cfe 273b b411 58bb
00000260: a24a c4b9 1d04 5dbc 2148 c23e 6254 f03b
00000270: 1934 0dbf bf08 0cba 3bc7 1d3c 7d43 ad3f
00000280: 1a30 9bbc 8df6 953b 35fd 4a3f 525c 173a
00000290: 0457 233c 74bd d43c ddab c2bb 0844 76ba
000002a0: 0763 063b dec8 f2bc aa2f 24bb b7f5 fcbc
000002b0: aabb 453e 80b3 dabc b462 65bc 6ce7 823f
000002c0: 79b1 00bf 2512 893b 5ecd f5bc 21e7 3c3b
000002d0: 60ba 4cbd f13c 88ba 1408 473f 8782 7fbe
000002e0: d685 adba 9701 acba bb57 8dbb 16ee 05ba
000002f0: 7651 a53c 2f46 043b c032 a2ba 7ef9 903a
00000300: 71e0 48bc 1be7 b53b 1ab8 c2bc 8cb9 fcbb
00000310: 6777 22ba 0ea7 be3b 9d3b f6b9 ac25 a83b
00000320: 3c3a 8c3b 64b4 453c 340c 333d 3be4 053d
00000330: 1712 0d3c 0774 783c 9c18 08bd 4025 5e3c
00000340: 11ce b2be 87a4 cdbc 2372 603b ad6f 2bb9
00000350: 83e4 033b 36da 0b3d 9034 3f3c 8faf 88bb
00000360: e344 d6bb 8f69 363b 1f39 9d38 0ee0 1cbb
00000370: 5b15 253c b9c3 0d3f b447 9e3c 3cea ff3d
00000380: fb19 9abc 228d 1d3e 967c 393c 5e60 b3ba
00000390: 6990 c6bc d6f3 f9be 1a7f 703c a9c7 e93c
000003a0: 3352 833b 3a56 3bbf f349 b63e 3dbb 2b3e
000003b0: a1e3 92bf beec 053d ff38 20bb 98e8 0fb8
000003c0: 8f5d d83a 6f9c b2bb b9d1 a43c 95da e3bc
000003d0: 8bfe 903e 3268 ed3a e3f4 09bc 0bcb 3b3f
000003e0: 3628 12bb 5140 1dbc 0490 3f3c f3bc 4e3b
000003f0: a777 89bc 36dc 94bc ca69 b0bc c272 f93c
