checkpoint_actor2.pth (torch_old, 159236 bytes, 6 tensors)

fc1.weight f4 [256, 24]
000000 df b4 3f bd 58 a3 30 be ce 96 bf 3c c8 64 63 be
       -0.04680335 -0.1724981 0.023387339 -0.22206414
000010 97 c2 24 bf 12 0c 4d 3e 62 d1 e4 3c f6 88 14 be
       -0.6435942 0.20024136 0.027931873 -0.14505371
000020 11 88 9e 3d 11 00 61 ba db ea df bc 82 2d 43 3e
       0.07740796 -0.0008583079 -0.027333668 0.19060329
000030 4d 54 b8 bc dc fa bd 3d 65 38 0e 3d b6 a6 79 3e
       -0.022501135 0.09276363 0.03472175 0.24380001
000040 28 5b fa 3a c2 51 c8 3c 39 25 a8 bd a4 c0 f5 3e
       0.0019100653 0.024453048 -0.08210225 0.47998536
000050 1c 6e 0a 3f 5b d4 7f 3d 65 c9 88 bc 4b a0 de 3e
       0.54074264 0.062458377 -0.016697595 0.4348167
000060 96 e4 46 3d 28 dc 81 3e e9 7a 88 3c 4d a1 2e 3e
       0.04855784 0.25363278 0.01666017 0.17053719
000070 40 55 9c 3e ab 46 17 bf bf 40 ce 3c 91 4c 9f 3d
       0.3053379 -0.59092206 0.025177358 0.07778276
000080 b4 fd 30 3d 13 35 ff 3d f2 c3 e7 bd 53 7f 34 3d
       0.0432107 0.12461295 -0.113166705 0.04406674
000090 04 dd d8 3e 2e 99 ad be bc 70 24 be 07 b5 5d 3d
       0.42356122 -0.3390593 -0.1605863 0.05412772
0000a0 d5 c8 7f 3e e9 d4 8f 3e 84 ad b5 bd 0c 64 75 3e
       0.24978955 0.28092125 -0.08870986 0.23963946
0000b0 48 0a a0 3e 48 c7 21 be 90 28 32 bd 90 27 4e 3e
       0.31257844 -0.15798676 -0.043495715 0.2013228
0000c0 5e 3e 85 be 7f e8 1b 3e 72 7e f8 3c cf da 0f 3e
       -0.26024145 0.15225409 0.030333731 0.14048313
0000d0 9f 5a 05 3f 94 9f fa be 5d c1 56 bd f8 33 b1 3d
       0.520914 -0.48949873 -0.0524305 0.086524904
0000e0 d0 90 60 be cc ed 28 3e 6c 31 1e bd 59 8f f4 bc
       -0.21930242 0.16496962 -0.03862135 -0.02985351
0000f0 fe 76 18 3e 2f 4a 22 bf 6e 3b 9f bc 6c 1e 24 bc
       0.14889142 -0.63394445 -0.019437518 -0.010017019
000100 f3 e7 28 be cd 1c a7 3e 92 6b 1f bd ce e9 0b 3f
       -0.16494732 0.3263916 -0.038920946 0.5465363
000110 ee ca 25 be 12 8e 74 bf 9e 6b f4 3b e6 24 1f 3f
       -0.16190693 -0.9552928 0.007459118 0.6216568
000120 b9 cb bf 3e b6 7f 70 bd de a2 0d 3b d4 7a d5 be
       0.37460116 -0.058715545 0.002161197 -0.41695273
000130 2f d2 df be bc 4d 89 be bf d6 d4 3c 2c 0b d9 be
       -0.43715045 -0.2681712 0.025981305 -0.42391336
000140 69 32 81 3d 73 39 74 be 9a ba 0a be 5b c8 3e be
       0.06308443 -0.2385004 -0.13547745 -0.18631117
000150 26 4c 29 3e fd 9b 64 3d 24 b7 c6 bd d1 6c ea bd
       0.16532955 0.055812825 -0.097029 -0.11446536
000160 d8 d9 e5 3c 65 90 89 be cf c7 11 3c b6 66 da 3e
       0.028057978 -0.26867977 0.008897736 0.42656487
000170 7a 7e 49 3f d4 26 bc 3e b1 d1 d7 3d 16 89 e9 3e
       0.7870861 0.36748374 0.10538042 0.456124
000180 37 6e e3 3d 98 9a 27 3f a9 77 c9 bc 0c 96 62 3d
       0.11105006 0.65470266 -0.024593191 0.055318877
000190 3d 07 37 bc 50 69 f1 3d 04 77 05 be e5 92 8a bc
       -0.011171159 0.11787665 -0.13033682 -0.016915748
0001a0 e1 10 4c 3e d2 75 40 3f 1b 02 64 bc 51 10 a1 ba
       0.19928314 0.7517978 -0.013916518 -0.0012288188
0001b0 ac 81 38 be 77 29 ed 3d 76 2a 04 3c df 55 87 3d
       -0.18018216 0.115801744 0.008066764 0.066081755
0001c0 33 fb d0 3e e5 65 82 3f 2d 28 5d bd 9b 60 90 3e
       0.4081665 1.0187346 -0.053993393 0.28198704
0001d0 c1 b2 0c bf fb c2 f9 ba cd 7e 7b bc ec 52 b3 3e
       -0.54960257 -0.0019055301 -0.015350056 0.35024202
0001e0 59 dc b2 bd 2e 6e 0b be 4b f5 35 bd 3f d0 26 bf
       -0.08733434 -0.13616249 -0.044423383 -0.6516151
0001f0 5c 23 30 3f 7e 05 be be 15 68 0a 3d 9b 25 22 bf
       0.68803954 -0.37113565 0.033790667 -0.6333863
000200 d9 c0 22 be 45 00 5a be 1f 21 0a bc 66 1a 80 be
       -0.15893878 -0.21289165 -0.008430748 -0.2502014
000210 8a 2e 9a 3d 8c f5 64 bb 13 56 72 3d e2 9b 65 be
       0.07528408 -0.0034936396 0.059164118 -0.22422746
000220 7d 86 93 bd 5f ad 2e be 7d 12 17 bc d7 3d 2b 3c
       -0.07203386 -0.17058323 -0.009220717 0.0104517555
000230 68 a8 5e be 7f 32 80 3e 54 54 80 ba 80 f9 80 bc
       -0.2174393 0.25038525 -0.0009790757 -0.01574397
000240 de fa 08 3f e2 81 33 3e d0 7a 35 3d d0 17 c4 bd
       0.5350779 0.17530015 0.044306576 -0.095748544
000250 05 8a bb 3d fa 7e 70 bf 71 f3 92 3d 84 7d cb bb
       0.091571845 -0.9394375 0.07175339 -0.006210031
000260 0d 40 04 3f 12 3c b9 bc 2f 7c 6b 3e 1e 59 27 be
       0.51660234 -0.022611652 0.22996591 -0.1634259
000270 3b 45 66 be 0d 9c 9a be 3d bb 55 3e 10 ea 1e be
       -0.22487347 -0.30197182 0.20872207 -0.15518975
000280 cb 86 b0 3e 53 aa 81 3d d0 e3 41 be 2b 52 68 bb
       0.3447784 0.06331315 -0.1893456 -0.0035449367
000290 91 91 42 be aa d1 42 bd 20 fe 43 be 3e fd de 3c
       -0.19000842 -0.047563232 -0.1913991 0.027220365
0002a0 53 40 86 bd 9d 21 b8 bd 4b 26 59 be e2 40 95 be
       -0.065552376 -0.08990786 -0.21206014 -0.29151064
0002b0 f8 69 2f 3e 1c 40 e5 be 8b 91 3c be 94 b5 ac be
       0.17130268 -0.44775474 -0.18414895 -0.33732283
0002c0 ae 74 ab 3c c7 c1 47 bd 89 13 00 bd dc cd 03 bf
       0.02092966 -0.048768785 -0.03126863 -0.5148599
0002d0 ef 73 8d bd e4 a8 0a bf e5 48 92 bc ce e1 01 bf
       -0.06906878 -0.54163957 -0.017857024 -0.50735176
0002e0 dd b9 d4 3d 56 87 3a 3d 32 5d c8 bc 43 4d c2 3e
       0.10387013 0.045539223 -0.024458501 0.3794957
0002f0 69 b5 94 be 2f 04 0f bf 92 5a 55 3d ff 52 b8 3e
       -0.29044655 -0.5586576 0.052088328 0.3600082
000300 be 2d 3b 3d e2 e5 14 3f 34 16 da 3d ab be 04 be
       0.04569792 0.58163273 0.10648766 -0.12963359
000310 fa b3 b6 bd 9a 50 6d be b8 1c df 3d c7 b7 1e be
       -0.089210466 -0.23175278 0.108941495 -0.15499793
000320 40 e9 e7 3d 5d ca 24 3f 96 c5 b1 3b fd 2b 23 be
       0.11323786 0.6437128 0.0054251654 -0.15934749
000330 b7 ff 3d be b0 6e 9c be 52 08 d2 3c 26 d6 09 be
       -0.18554579 -0.30553198 0.025638733 -0.13460597
000340 8a 9b 0a 3e 8a 48 20 3f 60 3a 30 be e3 a7 89 be
       0.13535896 0.62610686 -0.17209768 -0.268859
000350 d6 1d b3 be ec b6 c1 be 2d c6 7f be 83 96 ab be
       -0.349837 -0.3783487 -0.24977942 -0.3351327
000360 b5 5a ff 3e a3 e9 44 be 64 a5 85 bd f6 92 ba 3e
       0.4987389 -0.1922975 -0.065256864 0.36440247
000370 ad 7f c6 3d bc 9a 3f be 56 63 96 bd 80 94 c3 3e
       0.09692321 -0.1871137 -0.073431656 0.38199234
000380 b9 c7 74 3e 70 bf ca be c5 8d 72 bd 48 dc 87 bd
       0.23904313 -0.3959918 -0.059217233 -0.06633812
000390 41 05 2f bd f9 e5 bd bd ed fc d5 bd 52 ea 0b be
       -0.04272962 -0.092723794 -0.104486324 -0.13663605
0003a0 dd 5e 65 3e 86 f8 d6 be 8d 90 10 be 14 de 48 3e
       0.22399469 -0.41986483 -0.14117642 0.19615966
0003b0 98 ca 07 be e8 12 68 be c1 23 35 bd 76 1e 2e 3e
       -0.13260877 -0.22663462 -0.04422355 0.17003807
0003c0 4f ae 1f 3e ef c2 01 3d e3 94 6a bc 35 c3 6f be
       0.15593837 0.031680044 -0.014317724 -0.2341431
0003d0 ae e5 8e bd b6 2d ad 3e 69 39 68 bd e5 a7 36 be
       -0.06977402 0.33823937 -0.056695376 -0.17837484
0003e0 1e 3e 94 3e 10 03 ed 3d 53 f9 39 bd f7 53 6e 3e
       0.28953642 0.1157285 -0.04540379 0.23274218
0003f0 23 4f f5 3e fd 51 50 3e d5 b3 b1 bd e5 29 82 3e
       0.4791194 0.20343776 -0.08676878 0.25422588

fc1.bias f4 [256]
000000 c1 c2 8d be 7a 6b 99 be b3 33 86 3e 32 47 11 be
       -0.27687648 -0.2996481 0.26211318 -0.14187315
000010 a7 ea bb be 64 5f 9d be 91 ca 31 be 27 6e 27 3c
       -0.36702463 -0.3073684 -0.17362429 0.010219133
000020 a0 24 b8 be 34 2d 19 be 02 dd cb be 72 75 9d be
       -0.35965443 -0.1495865 -0.39817053 -0.30753666
000030 e3 92 da 3d 90 ff 01 bf f5 d4 2b be 3a 4b c6 3e
       0.10672548 -0.5078058 -0.16780455 0.38729268
000040 84 67 9a be e2 79 d6 bd 53 45 7c be d6 a9 09 bc
       -0.301571 -0.10472466 -0.2463582 -0.008402308
000050 75 ee 79 be ca bc c8 be 0c ff dc 3d 58 4f 05 bf
       -0.2440737 -0.39206535 0.10790834 -0.52074194
000060 7d af 11 3e 04 08 1c be 69 46 14 3e a6 ff bb be
       0.142271 -0.15237433 0.14479984 -0.36718482
000070 db 3e d4 be 1e 03 9e be fd f1 d0 bc f4 28 73 be
       -0.41454205 -0.30861753 -0.025506014 -0.23746091
000080 76 a1 51 be 1d 20 aa be 28 7c e0 be 67 b2 0f 3e
       -0.20471749 -0.33227625 -0.43844724 0.14032899
000090 03 90 12 be 1f 57 67 3e 87 fa 43 3e 02 bc ba be
       -0.14312749 0.22591828 0.19138537 -0.36471564
0000a0 c3 06 02 bf 55 0b 9f be 23 8d de 3b 62 2a a5 be
       -0.5079157 -0.31063333 0.006791727 -0.32258898
0000b0 08 33 a3 be 1c 1e 0d 3e 2a b0 9a be 64 98 a2 be
       -0.3187487 0.13781017 -0.30212528 -0.3175689
0000c0 90 74 45 bd 5d d6 71 3e b7 51 f1 bd 3e 29 a9 3d
       -0.048206866 0.2361693 -0.11783164 0.082598194
0000d0 bf 5d 83 be eb 77 e5 be 98 b8 ac bd b4 e0 4a 3e
       -0.2565746 -0.44818053 -0.08433646 0.1981228
0000e0 c1 46 9e 3c a5 8a ae be 29 88 a6 be 88 6b 92 3e
       0.019320847 -0.34090152 -0.32525757 0.28597665
0000f0 4b e6 20 be b6 43 8c be a6 57 d0 be cf 1c 38 bf
       -0.1571285 -0.2739541 -0.4069187 -0.7191896
000100 8e c9 97 be 79 d7 98 3d b2 7f 37 be 92 66 a3 3d
       -0.29645962 0.07462973 -0.17919806 0.07978548
000110 ed d0 50 be 82 a9 0f be 72 e7 a2 be ed 79 cd bd
       -0.20392199 -0.14029506 -0.31817204 -0.10033021
000120 69 2e 84 be e0 93 2f be d5 09 17 be 5c 73 b8 3d
       -0.25816658 -0.17146254 -0.14749844 0.09006378
000130 c5 60 24 be 28 11 3e be 3f bf 1a bd 96 eb e0 be
       -0.1605254 -0.18561232 -0.037780043 -0.43929738
000140 18 98 66 be 6a 1f ae 3c 55 cf 13 bf fd d9 29 bf
       -0.22518957 0.021255214 -0.5773824 -0.6634825
000150 fb ce 4b 3e 4e 87 4f bd 25 f7 17 be e7 2d 56 3e
       0.19903176 -0.050666146 -0.14840372 0.20915948
000160 5c 15 e9 be 1c 1a 81 3d 7f 4a 3e be 4f 7f 96 be
       -0.45524108 0.06303808 -0.18583106 -0.29394004
000170 18 33 dc bd 4b a8 e8 bb 02 44 a7 be 4f f2 a8 be
       -0.10751933 -0.00710014 -0.32669073 -0.32997367
000180 d3 dc f5 3d 8c 6f ad bc 23 9c d8 3c 0e ea f1 3d
       0.120050095 -0.021171354 0.02644164 0.118122205
000190 9b 26 96 be 02 6e 39 be 9f 3f 9b be c6 ee 42 be
       -0.2932633 -0.18108371 -0.30321977 -0.19036397
0001a0 e5 fb ce be 44 15 5c be 8a e8 83 3e d5 f8 7a 3d
       -0.40426555 -0.21492487 0.2576335 0.06127246
0001b0 d5 ff cc bb 27 a9 0a 3c 0e 80 4e be fa b5 af be
       -0.0062560835 0.008463181 -0.20166036 -0.34318525
0001c0 bd c1 a2 be cf f9 c6 be 03 e2 68 be 67 fa 6e 3e
       -0.31788436 -0.38862464 -0.22742467 0.23337708
0001d0 ae 08 4c 3e e1 24 ec be 60 4a b0 be 55 cc a0 3d
       0.19925186 -0.46121886 -0.34431744 0.07851473
0001e0 c2 b7 a8 be 2e b2 26 be 87 4b e0 3d f6 4c fa 3d
       -0.32952696 -0.16278908 0.10951906 0.122217104
0001f0 4c bc a2 be e3 27 e7 be 7d ec 8e be ba 69 6e be
       -0.31784284 -0.4514762 -0.279148 -0.23282519
000200 c5 eb dd 3d c5 53 95 be 22 5e a9 be 43 d7 8c 3d
       0.10835985 -0.29165474 -0.3307963 0.068769954
000210 4b 64 09 3d 36 7f c4 be 89 c3 1e 3e 32 cc 81 3e
       0.033542912 -0.38378304 0.15504278 0.253511
000220 a3 85 c5 3e c4 60 1e be 39 d4 d7 3e b5 8d e9 bd
       0.3857852 -0.154666 0.421541 -0.114039816
000230 00 e1 07 bf ac 55 dc bd f7 27 77 be ab 2b 8d 3e
       -0.530777 -0.10758528 -0.24136339 0.2757238
000240 02 92 99 be 15 c9 6c be 44 8e 32 bf b9 ac 4d 3e
       -0.29994208 -0.23123582 -0.6974833 0.2008542
000250 45 98 28 3d cb fd cc 3e d8 24 71 be 2b df d4 bb
       0.04116084 0.4003738 -0.23549211 -0.0064963303
000260 1e a6 05 be df 9e bb be f6 a1 05 3f ab e7 4a bd
       -0.1305165 -0.36644647 0.5220026 -0.049537342
000270 a4 18 ce 3e 5a 71 51 3e 2c 84 7f bd 97 8d 4f be
       0.40253174 0.20453396 -0.06238191 -0.20268856
000280 5c 29 d4 bb 57 ad 2b be 24 0c a1 be 2c 65 85 be
       -0.006474657 -0.16765343 -0.31454575 -0.2605375
000290 13 db ce be 48 17 bc 3c 2c 3c 19 be 73 1a 8f 3d
       -0.40401515 0.02296032 -0.1496436 0.06987467
0002a0 a6 c5 8e bc 89 64 68 bb cb 4d 55 be 82 d3 10 bf
       -0.01742823 -0.0035460314 -0.20830457 -0.56572735
0002b0 1c 6e af be 9a b4 0e bf 7c 2d e1 bd 7e 0c 1c be
       -0.34263694 -0.55744326 -0.109950036 -0.1523914
0002c0 0f 53 6f bc 5c ef 17 3e c0 6d 1b bf f3 86 c3 3d
       -0.014607205 0.14837402 -0.6071434 0.09547224
0002d0 7f ae fd bd 57 43 dd 3d 25 0f 04 3d 44 82 c0 3c
       -0.12386798 0.1080386 0.032241005 0.023499615
0002e0 74 47 46 be 71 9a f9 be dc 03 80 be 83 48 b8 3e
       -0.19363195 -0.48750642 -0.25002944 0.35992822
0002f0 c5 23 af 3d 27 f8 83 3c 0d 0a 84 bc 10 0a 47 be
       0.08551744 0.01610954 -0.016118074 -0.19437432
000300 6f cb 31 be 3d 23 3c be c4 f1 8c bc 16 ce 15 bf
       -0.1736276 -0.18372817 -0.017205127 -0.5851759
000310 d6 1c 98 3d 8a 5f 43 be 07 38 0e be 55 0d 5d 3e
       0.07427375 -0.19079414 -0.1388856 0.21587117
000320 f3 ca e4 bd ff 80 4f be d7 8b 49 bc d1 d0 be bd
       -0.11171522 -0.20264052 -0.012301407 -0.09317172
000330 d3 54 27 3b fd 21 43 be b7 91 aa be 09 10 3e 3e
       0.0025532737 -0.19055934 -0.33314297 0.18560804
000340 a1 bb fd 3d a6 5c 8d be c5 86 b8 be 54 b3 99 be
       0.12389303 -0.27609748 -0.3604032 -0.3001963
000350 f7 d2 5a 3d 4d 82 6e be a7 aa d5 be 0e 48 35 bf
       0.053423848 -0.23291893 -0.4173176 -0.7081307
000360 58 fa 57 be 3d 67 12 3d 73 db 9d 3d 7f 6d 4a be
       -0.21091592 0.035742987 0.07707872 -0.19768332
000370 57 66 93 be 4e 94 f0 bc b2 ca 6e 3d 3f d5 3f be
       -0.28789017 -0.029367592 0.058298774 -0.1873369
000380 4c d6 a0 be a0 57 8d bd 11 28 4b 3c a2 c8 8d be
       -0.31413496 -0.06901479 0.012399689 -0.27692133
000390 bf ca 3e 3d 81 1d 08 be 02 16 4e 3e 99 ec 89 bd
       0.046580072 -0.13292505 0.20125583 -0.067345805
0003a0 d5 16 aa be 4c 87 00 be a0 be c2 be ac aa ac 3d
       -0.33220544 -0.12551612 -0.3803606 0.084309906
0003b0 d4 b6 39 3e b1 2c bc bd d7 86 72 bd 5d ef 30 3e
       0.1813615 -0.09188212 -0.059210625 0.1727881
0003c0 05 39 a9 be f1 d6 0a bf 5c ae 03 be 2b 77 56 be
       -0.33051315 -0.54234225 -0.12859482 -0.20943896
0003d0 af 3e 04 3e 0c 73 22 3e 36 db 8d be a1 5b 00 bf
       0.12914537 0.158642 -0.27706307 -0.50139815
0003e0 87 ad 0a bf 1e 34 e6 be 3e 44 5f be b8 f9 84 be
       -0.5417103 -0.44961637 -0.21803376 -0.2597177
0003f0 50 99 54 3e 8b aa b5 3c 33 de f4 bd 12 84 e3 3e
       0.20761609 0.022176048 -0.11956444 0.444367

fc2.weight f4 [128, 256]
000000 56 5f 2b be 1b 5d 61 be 70 c2 2c bd 8e a7 50 bd
       -0.16735587 -0.22008173 -0.042177618 -0.050941043
000010 6f 3c 74 bd 51 2f 03 bd a2 d1 ed 3b a7 f7 75 3c
       -0.059627946 -0.032027546 0.007257656 0.015012658
000020 86 1c 57 bb e5 e7 ce bd 4b 4f c5 bb 9a 05 4e be
       -0.0032823398 -0.10102824 -0.0060214153 -0.20119324
000030 f5 70 aa bd 73 75 94 bd 6c b0 1a bc ab 8e 1c 3d
       -0.08322326 -0.07248964 -0.009441476 0.038221996
000040 53 2b 29 be ac 8b c7 bd 60 f1 5d bd c4 08 16 bc
       -0.16520433 -0.09743437 -0.05418527 -0.009157363
000050 77 c3 41 be 12 48 8c 3c ca df 22 bd ca 4d 95 3a
       -0.1892222 0.01712421 -0.039764203 0.0011390981
000060 be 50 4b bd a3 8c d7 bd 74 50 91 bc b2 a7 c9 bc
       -0.04963755 -0.10524871 -0.017738558 -0.024616096
000070 bd 4e 67 be 94 a4 64 bd c7 cf f2 3d 8a 7c 43 bd
       -0.2258863 -0.055821016 0.11856037 -0.04772619
000080 55 7e 86 3d 21 de 8a 3d 5e ae a4 bd ca 1c a4 3c
       0.06567065 0.06780649 -0.080410704 0.020033259
000090 88 c1 54 3d 5b cc cd bd 91 46 06 3d fa fd fb 3d
       0.05194238 -0.10048743 0.03278214 0.123043016
0000a0 66 de dc 3d bd 13 06 bd 09 95 01 be a4 fd b2 bc
       0.10784607 -0.032733668 -0.12654509 -0.02184946
0000b0 53 eb b2 3d 62 d4 94 3d 8b ac c6 bc 15 60 22 be
       0.08736291 0.07267071 -0.024252197 -0.15856965
0000c0 73 b1 6a bd c9 ef 27 bd ba 75 d7 bd 66 e0 de bd
       -0.057298135 -0.04100016 -0.105205014 -0.10882644
0000d0 6e f7 d3 bd ac 50 a0 bd e9 5e 7b bd 86 39 b8 bd
       -0.10349928 -0.07827887 -0.06136981 -0.08995347
0000e0 3d 26 07 be 10 11 ea bd 70 39 68 be c3 44 9b bd
       -0.1319818 -0.11429036 -0.2267816 -0.07581475
0000f0 8f 82 5c 3c 51 85 fb 3d 56 f4 e6 3d 2e c7 11 be
       0.013458862 0.122812875 0.11277072 -0.14236137
000100 bb 32 01 bf 85 a1 60 3d e4 52 87 be 44 2d 13 bd
       -0.50468034 0.054841537 -0.26430428 -0.03593184
000110 75 22 bd bd ae 1c c1 bd 3e 5b ed bd ec 17 25 bd
       -0.09235088 -0.09429298 -0.11589669 -0.040306017
000120 97 76 1d be 45 97 94 3d 8b 75 0d be 69 9a 13 be
       -0.1537727 0.07255415 -0.1381437 -0.14414372
000130 66 63 2c bd 9f d4 4f be e9 c3 ce bd 6b 97 c8 bd
       -0.04208698 -0.20295952 -0.10095961 -0.09794506
000140 7b 2c 94 bd 96 04 b2 be a4 d3 eb bd 74 77 20 be
       -0.072350465 -0.34769124 -0.115149766 -0.15670568
000150 31 03 ce 3d 26 26 64 be 45 f2 69 be eb 48 35 bd
       0.100592025 -0.22280177 -0.22846325 -0.044258993
000160 42 63 65 bd eb ab b5 bc 26 2e 0b 3e e3 5b 4e 3c
       -0.056002863 -0.022176703 0.13591823 0.01259515
000170 d9 31 16 bd 8a 72 26 be 21 82 a1 bc 1a fc b3 bd
       -0.036668632 -0.1625463 -0.01971537 -0.08788319
000180 22 09 27 3d 23 b4 97 be b1 0f ad 3d 1e f7 e8 3c
       0.040780194 -0.2962962 0.084502585 0.028438147
000190 e5 50 7c be 92 70 f2 bd aa 90 c6 bd e7 3e 12 bd
       -0.24640234 -0.11837877 -0.09695561 -0.03570452
0001a0 15 42 01 3e b0 85 1e 3d 5e 76 40 be d0 92 94 3c
       0.12622865 0.038701713 -0.18795153 0.018136412
0001b0 eb bf f7 bd 49 3c 9b 3c 9e 24 15 bc 90 93 78 3d
       -0.12097152 0.018949645 -0.0091029685 0.0606876
0001c0 72 f7 36 3d 6d 9f 96 bd 5d 68 9a be be 2e 0d be
       0.044669576 -0.07354627 -0.30157748 -0.13787362
0001d0 29 b0 8c 3d 64 61 f7 3d 60 d8 d6 bd a6 2b 79 3c
       0.068695374 0.12079123 -0.10490489 0.0152081605
0001e0 5d 16 1b bd c4 b8 b7 bd 7a 0c 07 be 22 fd 07 bf
       -0.037863124 -0.08970788 -0.13188353 -0.53120625
0001f0 dc f1 c7 bc f2 a9 0d 3d 22 b7 86 3b 10 fa c5 bd
       -0.02440732 0.0345859 0.0041111866 -0.09666836
000200 99 0a 18 3e c9 a3 46 bd 87 4d 03 3d 2e a0 29 3d
       0.14847793 -0.04849604 0.032056358 0.041412525
000210 33 ad 07 be e4 02 f4 3d 42 e3 db 3d 75 53 67 be
       -0.13249664 0.11914614 0.10736705 -0.2259043
000220 e5 39 b3 3c 16 9e 8e 3d cb c4 27 bd 26 24 74 be
       0.021878192 0.06963746 -0.04095916 -0.23841915
000230 40 69 99 bc 36 96 83 bd b3 f4 b1 3d 26 7f e6 bd
       -0.018726945 -0.06425135 0.08689251 -0.112547204
000240 1c 5d 9d 3d 2c 81 88 bc ed 0d 04 be b2 4c 4e bd
       0.07683775 -0.016663156 -0.12895937 -0.05036611
000250 5d 62 62 be 06 ff cf 3d 08 a1 83 3d e8 7f 3f bd
       -0.22107835 0.10156064 0.06427199 -0.04675284
000260 61 87 9c 3d d6 32 2a be b3 d3 ee bc 75 76 54 be
       0.07643009 -0.16620955 -0.02915368 -0.20748313
000270 cc f5 a5 bd a7 c0 f1 3c c3 d5 52 be 76 8a af 3d
       -0.08103523 0.02951081 -0.20589356 0.08571331
000280 0f df bc bc e2 75 19 bc 46 17 18 bd a9 51 26 3d
       -0.023055581 -0.009366484 -0.03713157 0.04060522
000290 f0 80 bd bd 2e c9 80 be b8 49 e3 bc 65 95 1c 3c
       -0.092531085 -0.25153488 -0.027745113 0.009557103
0002a0 b7 29 0d be 23 fc 1e 3d 04 32 36 be fb 04 f7 3c
       -0.13785444 0.038814675 -0.17792517 0.030153742
0002b0 d4 f2 fa bd 6f 99 a7 bd 89 94 80 bd 12 72 07 bf
       -0.12253347 -0.08183562 -0.06278331 -0.5290843
0002c0 b1 97 8d be 8b 84 81 bd 22 a6 03 be 90 8d 0a be
       -0.27654794 -0.06324109 -0.12856343 -0.13530564
0002d0 db d5 08 3d 18 37 6b 3d 79 dc 27 bd 55 e9 b4 bd
       0.033407073 0.05742559 -0.040981743 -0.08833567
0002e0 a4 a0 21 3e ec 46 d5 3c 8a b4 04 be 0f 87 dd 3c
       0.15783936 0.026034795 -0.12959495 0.02704194
0002f0 17 66 d1 bd a9 50 f9 3c 41 fb c6 bd 84 10 88 be
       -0.1022455 0.03043397 -0.09715892 -0.265751
000300 39 33 07 be 6b 71 84 be a6 e0 6a be 7c e9 b9 ba
       -0.13203134 -0.2586778 -0.22937259 -0.0014183964
000310 85 1d d5 bd 11 aa 98 bd c5 70 23 3c 0e 7a 22 be
       -0.10406021 -0.074543126 0.009975617 -0.15866873
000320 d1 25 ec bc a1 51 06 be 0e 11 85 bd a4 f7 1b 3d
       -0.028826626 -0.13117076 -0.064973935 0.038077965
000330 78 8e 65 3e 94 da b1 3d 8a cb cd be 7f d3 8c 3d
       0.22417629 0.086842686 -0.4019435 0.06876277
000340 65 32 1a bd 39 42 00 3e 14 dc 0f 3e ac 28 95 bd
       -0.037645716 0.12525262 0.14048797 -0.07283148
000350 91 c0 e0 bd 4a e0 94 bd de 8a 00 3e c9 b0 ac be
       -0.10974229 -0.07269342 0.12552974 -0.33728626
000360 d0 f4 fd bc 7b 29 c8 3d d6 cc 90 be 61 7f 21 be
       -0.031000525 0.09773537 -0.28281277 -0.15771247
000370 42 e8 b4 3c d7 b8 66 bd 70 f7 4c be 82 5e 48 3e
       0.022083405 -0.05632862 -0.20016265 0.19567302
000380 6b 59 b1 3c 9b 11 ac bd e5 3d 84 3c 5c 70 59 3e
       0.021649083 -0.084017955 0.016142795 0.21234268
000390 d0 33 f4 bd c1 89 95 bd 6f 35 00 bd a6 30 42 be
       -0.11923945 -0.07301665 -0.03130096 -0.1896387
0003a0 00 70 8e bd 5e fa 44 be a9 94 74 bd b0 4d 27 3c
       -0.06954956 -0.19236133 -0.059712086 0.010211393
0003b0 83 b3 46 be e4 09 41 bd 03 95 54 bd ff 22 b8 bd
       -0.19404416 -0.047128573 -0.05189992 -0.0899105
0003c0 ae 9a a5 bb 78 13 94 3d 8b 2b 3a 3d cd f9 fc bd
       -0.0050538396 0.07230276 0.045451682 -0.12352333
0003d0 86 f1 16 be 3e 88 4d 3d c6 4d 9d 3c 29 2e 34 be
       -0.14740571 0.05017876 0.019202124 -0.17595734
0003e0 a0 0d 62 3d 43 ad f9 bc 49 3c 24 bd ab 30 81 be
       0.055188775 -0.030478125 -0.040096555 -0.25232443
0003f0 7a 38 95 3d a9 0d 5e 3d 21 3e 77 3d be 96 10 be
       0.07286163 0.054212246 0.060361985 -0.14120004

fc2.bias f4 [128]
000000 a8 39 d6 bc 73 e3 b8 3d 5d a9 84 be 9e e2 a5 be
       -0.02615054 0.090277575 -0.25910464 -0.32399458
000010 72 00 bf bd be 92 b6 be 89 da c6 be 02 ff 32 be
       -0.09326257 -0.3565883 -0.38838604 -0.1748009
000020 15 48 10 bd 32 1b 77 bd 6c dd 0d 3e fe 92 17 bd
       -0.035224993 -0.06032867 0.13853997 -0.037005417
000030 da de 7f be bf 33 99 be 54 c8 7b be c4 65 05 be
       -0.24987355 -0.29922292 -0.24588138 -0.13027102
000040 a0 0e 80 be 4e 48 c5 bd 9b a2 02 be e6 a4 50 be
       -0.25011158 -0.09632932 -0.12757342 -0.20375404
000050 04 46 54 3e 5e 8b f2 ba 77 7f e6 be b0 a0 cf 3c
       0.20729834 -0.001850467 -0.45019123 0.025345176
000060 16 d3 9b be 10 8b 4d be ca 8f bb be fb 1c 85 be
       -0.30434483 -0.2007258 -0.3663314 -0.25998673
000070 fb 9d ab bd 70 dc b7 be 49 9b eb 3d b4 94 a8 bc
       -0.08379742 -0.35910368 0.11504228 -0.02057872
000080 d6 09 26 be 1d bb 11 be 71 79 5c be 16 5a 94 be
       -0.1621469 -0.14231534 -0.21530701 -0.2897498
000090 13 cf 75 be 1e c1 b5 3d db 4e 7b be e4 b7 33 be
       -0.24004774 0.08874725 -0.245418 -0.17550617
0000a0 36 9a 46 3d 7f 70 f1 3d 10 73 c7 bd 4d a7 c9 bd
       0.04848691 0.11789035 -0.09738743 -0.09846363
0000b0 34 47 92 be ed ef 8e be 76 ad 99 bc ea bb 1e bd
       -0.2856995 -0.27917424 -0.01875947 -0.038753428
0000c0 a7 d6 1d be dd f9 3f be 8d c5 10 be 3d 17 3a bd
       -0.15413915 -0.18747659 -0.1413786 -0.045432318
0000d0 6a c4 27 bf 20 6b 89 bd ae de 3b be cc 8b 55 3d
       -0.6553408 -0.067098856 -0.18346664 0.052135274
0000e0 15 73 bb ba 9f f0 0f bf f0 4b 26 be d5 46 96 be
       -0.0014301265 -0.56226534 -0.16239905 -0.29350916
0000f0 eb 7d 01 be 56 88 11 bf 90 07 7e be 53 6b 7b bd
       -0.1264569 -0.5684866 -0.24807572 -0.06138165
000100 fa 07 23 3e 9b 70 a8 be 7f f3 40 be af 56 60 be
       0.15921012 -0.3289841 -0.18842886 -0.21908067
000110 a9 4e 9e 3d 74 5c e8 3c 94 3e a8 bd 6e 06 18 be
       0.07729847 0.028364398 -0.08215061 -0.14846203
000120 05 b9 b6 3d a9 fb 8a be 8f 2b ce bd 6f 66 f0 bd
       0.089220084 -0.27145126 -0.10066902 -0.11738288
000130 26 37 82 bd 51 6b 18 bd 09 4e 07 bd 9f 19 4b bd
       -0.06358175 -0.03721172 -0.033033404 -0.04958498
000140 d1 c4 44 be a4 3f b4 bd c8 06 3a be 9c d3 41 be
       -0.19215705 -0.08801201 -0.1816665 -0.18928379
000150 79 97 66 be c1 1e a6 bd d7 3d cd bd 6d ca bc bd
       -0.2251872 -0.081113346 -0.10021561 -0.09218297
000160 81 64 9c be 63 e5 49 be 83 bf c5 ba a2 97 67 3d
       -0.30545428 -0.1971641 -0.0015086982 0.056541093
000170 f5 e7 89 bd 27 3c 85 3e 1b 3a 87 bd 3a 04 00 bf
       -0.067336954 0.26022455 -0.066028796 -0.5000645
000180 c4 6e 91 3c eb 93 59 be a7 91 22 bd 26 60 55 bd
       0.017753012 -0.21247832 -0.039689686 -0.052093647
000190 94 1d 52 3c e6 d3 10 3d fc cf cd 3c 30 a0 8d 3c
       0.012824435 0.035358332 0.025123589 0.017288297
0001a0 0b 32 bf be 06 1c a2 be d2 23 ac bd e8 d9 aa bd
       -0.37342867 -0.31662005 -0.0840527 -0.083423436
0001b0 e0 c2 23 be e8 03 62 bd 7c 06 85 be 69 de 9a be
       -0.15992308 -0.055179507 -0.2598151 -0.3024781
0001c0 f7 65 e6 bc 12 d0 33 bb 24 92 b2 bd a1 cb 4c be
       -0.028124793 -0.0027437252 -0.0871928 -0.19999553
0001d0 42 0c b6 bd b1 9c 0f bc 61 6f f7 be f4 a2 30 be
       -0.08889057 -0.0087653855 -0.48327163 -0.17249662
0001e0 c0 ca ea be 37 27 e3 bd 3b 92 09 bd fd 6e 02 be
       -0.4585781 -0.11091464 -0.033586722 -0.12737651
0001f0 8d 41 be ba 12 4e f0 bd 5b 39 e5 bc de 29 87 bd
       -0.0014515385 -0.11733641 -0.02798145 -0.065997824

fc3.weight f4 [2, 128]
000000 79 36 fa 3d 38 21 b1 bd be e3 07 be 53 ef 59 be
       0.12217421 -0.08648914 -0.1327047 -0.21282701
000010 ef d1 0c 3d ca 28 94 3d e6 7d e1 be 3f dc b9 3e
       0.034379896 0.072343424 -0.44041365 0.36300847
000020 ef 6c 18 3c 75 99 1a bd 7d 9d d8 3d e4 81 1e 3e
       0.009303316 -0.037744004 0.105769135 0.15479237
000030 b1 1d ba be 5a 8e 8d bd 18 a3 cf 3c cf ed 02 bd
       -0.36350778 -0.06911917 0.025346324 -0.031965073
000040 cd ae 8d be bc 8a 1c 3e 5f ed 37 3e 9f cc 42 3e
       -0.27672425 0.15287298 0.17961644 0.19023369
000050 f3 fc 8b 3d 29 ea 36 3f c0 8f 09 be b3 7b 90 bd
       0.068353556 0.7145105 -0.13433743 -0.07054844
000060 52 d5 bb 3c ea e7 a2 bb 0c 56 20 be 96 52 3d 3f
       0.022928867 -0.004971494 -0.15657824 0.7395414
000070 2c 7d 96 3e 7f f1 4d be 9a 51 98 3e 97 d1 18 bc
       0.29392374 -0.20111655 0.29749757 -0.009327314
000080 01 57 2c bf fa 91 33 bc b7 b6 76 3e b6 09 a7 bc
       -0.6732026 -0.0109600965 0.24093138 -0.020390373
000090 9e a2 b1 3e a7 95 2a bd 60 4b 9a be 11 8d 82 bb
       0.3469438 -0.041646626 -0.30135632 -0.0039841016
0000a0 96 e3 0b bd d3 e6 0a 3e a5 4a 27 3d ee 94 6d 3e
       -0.03415259 0.13564615 0.04084267 0.23201343
0000b0 62 12 52 bf 00 ca df bc ab a0 95 3d 6d a6 ad bd
       -0.820593 -0.027318 0.073060356 -0.08479009
0000c0 fd 0c 9e be d4 35 c9 be ca 62 c1 bd b7 e8 2b 3b
       -0.30869284 -0.3929888 -0.09442671 0.0026231238
0000d0 b0 7e cc be ed 93 16 bc 94 72 56 3d 28 b7 5d bf
       -0.39940405 -0.009190542 0.052355364 -0.866076
0000e0 8a 0b 63 3e bc 7a 6d be c2 9b 70 be ed e5 fd bd
       0.2217237 -0.2319135 -0.23496917 -0.123973705
0000f0 2f 96 f0 bc ae ea 0a bf 36 bf 32 be 11 52 c4 bb
       -0.029368488 -0.5426434 -0.17455754 -0.0059912284
000100 68 13 91 3e 45 24 7f be 2e 12 97 bb f8 0c 94 be
       0.28335118 -0.2491618 -0.0046103215 -0.28916144
000110 6e a7 ed 3d 42 2e 6d bc 80 8d 62 bc 15 03 ea bd
       0.116042 -0.014476361 -0.013827682 -0.11426369
000120 e5 0e dc 3d 40 86 d4 bc 88 5d 97 be 56 92 90 bd
       0.107450284 -0.025942922 -0.29563546 -0.07059161
000130 b2 a1 15 bb 82 81 01 3c 3c 86 9e 3d 91 5a 4f bc
       -0.0022831974 0.007904412 0.07740447 -0.01265587
000140 96 3c 44 3e 16 10 00 3d 25 e6 19 3d d6 aa b6 be
       0.19163737 0.03126534 0.037573 -0.35677212
000150 05 65 15 3e 18 1a 1d bd 28 64 92 bd e3 9e b7 3d
       0.14589317 -0.038354963 -0.071480095 0.08965852
000160 9d df e7 3d a6 a2 87 3e 21 bf c3 bb b2 3e 48 3e
       0.11321948 0.26491278 -0.005973712 0.19555166
000170 a7 d7 9b bd 93 56 b5 3d 5f f3 d6 bc 95 70 fa bc
       -0.07609492 0.08854403 -0.026239095 -0.030571261
000180 46 ac a4 3c 07 27 83 bd e5 a6 4f bb 58 24 34 bc
       0.020101678 -0.06403928 -0.003168517 -0.010994993
000190 2d bf 4c 3f 8c 06 62 3c 8e 4b ae bc f7 74 1b be
       0.7997921 0.013795506 -0.021276262 -0.15181337
0001a0 f7 6b c0 3c 99 0c 6c bd 13 c0 2b bc d2 26 ce 3d
       0.023488982 -0.0576292 -0.010482806 0.10065998
0001b0 35 b3 20 be e7 64 99 3c 56 9d a7 be bb 4b 40 3d
       -0.15693362 0.018724872 -0.32737225 0.046947222
0001c0 3b e6 4d be 66 c8 07 3d b6 69 56 3e 0d 8d a3 be
       -0.20107357 0.0331501 0.20938763 -0.3194355
0001d0 0a a1 14 3c d5 0c 7e 3e 0a 1d a1 be dc 80 a2 3e
       0.009071598 0.24809583 -0.31467468 0.31738937
0001e0 24 ef 70 bd d2 24 a4 bd c9 2e 02 bc 06 49 c0 3d
       -0.058821812 -0.080148354 -0.007945725 0.09388928
0001f0 cc 98 28 3e f0 95 0d be 41 a9 19 3f dd 28 0c 3e
       0.16464537 -0.13826728 0.60023886 0.13687463
000200 1a f9 6b bd 29 6d 84 bc 19 42 e8 3d ee f9 08 bd
       -0.05761061 -0.016165333 0.11340732 -0.033441477
000210 bc 33 55 3e a8 90 ea be f7 ca a7 be 16 f4 9e 3c
       0.20820516 -0.4581349 -0.32772037 0.019403499
000220 0d b3 01 3d 0e 85 4a bc 39 44 f2 be bd 6a c1 3d
       0.031664897 -0.012360824 -0.47317675 0.09444187
000230 89 dc a9 3e 39 6b 2b be b4 24 9b bc 0c 32 af bc
       0.33176067 -0.16740121 -0.0189384 -0.021386169
000240 f5 89 e1 bd ab 61 ad 3e bb ea 50 bc 68 05 05 3f
       -0.11012641 0.33863577 -0.012751277 0.51961374
000250 57 91 73 3f 31 4f 2f 3e 8a f1 23 3e 41 40 99 3e
       0.95143646 0.17120053 0.16010109 0.29931834
000260 74 94 1f bf 50 79 ff be bc 91 18 be 10 b1 79 3e
       -0.62335896 -0.49897242 -0.14899343 0.2438395
000270 0e b5 2b 3e f7 10 ee bd 7b 8d 17 bf fc 29 83 bb
       0.16768286 -0.116243295 -0.5920026 -0.0040028077
000280 62 ae eb 3e ea ec d9 3c 00 74 2a 3f 9f 21 72 3e
       0.4603148 0.026602227 0.6658325 0.23645638
000290 ff 10 90 bb 87 29 a9 be 00 13 2a bd 0a 07 e3 3d
       -0.0043965573 -0.33039495 -0.041522026 0.11085327
0002a0 fc 3f 14 bf 90 3f ca 3c 8f e9 e0 3b 16 0a 11 be
       -0.5791013 0.024688512 0.00686378 -0.14164004
0002b0 71 0a ae be b8 e6 50 3f f4 b6 e4 3e 7e d3 6b 3c
       -0.3399234 0.8160205 0.44670832 0.014393685
0002c0 45 7d b8 be 83 3f dc bd b1 73 28 bd 20 78 4f 3b
       -0.36033073 -0.107543014 -0.041125957 0.0031657293
0002d0 4d 3c 36 be 45 87 af 3d 1c ce 8a 3e 4c a8 33 be
       -0.1779644 0.085707225 0.27110374 -0.17544669
0002e0 2a f8 77 bc e6 e6 a8 3d 60 fe f3 3c f2 28 86 bc
       -0.0151348505 0.082471654 0.029784381 -0.016376946
0002f0 f1 b7 9b 3d 0e 0d 61 bc c4 63 2b 3e ee c2 9b 3d
       0.076034434 -0.013736023 0.16737276 0.07605539
000300 03 18 19 3d c4 9a 35 3e 7f f3 da be c0 6a d1 3d
       0.037376415 0.1773482 -0.42763898 0.10225439
000310 4a a0 fc bd 79 e6 0d bf d7 54 49 bc f6 53 69 3e
       -0.1233526 -0.554298 -0.012288294 0.22785935
000320 bb 2b c5 3b 35 9d 01 3f f3 95 cd be ab 6e 60 3e
       0.006017176 0.50630504 -0.40153465 0.21917216
000330 df 26 0e be de 36 99 bb 54 99 9f 3e cb 5a 53 bf
       -0.13882016 -0.00467573 0.31171668 -0.82560414
000340 24 fa 7a bd 28 63 bf 3d 23 c7 f4 3e 08 6e 32 be
       -0.06127371 0.093450844 0.4780818 -0.17424786
000350 00 8d f4 3e 39 83 25 3c e2 3d 97 bc 70 70 9a bd
       0.47763824 0.010102087 -0.018462125 -0.07540977
000360 a4 b2 f5 3e f2 38 16 3e d1 66 93 bc e0 df aa bd
       0.47987854 0.1467016 -0.017993363 -0.08343482
000370 19 b2 df be 85 d9 4e bd 7d 1b 08 3e cc 86 8a be
       -0.43690565 -0.05050041 0.13291736 -0.27055967
000380 64 09 8c 3d 90 09 ab be 2c af 27 3c 8a 7e 07 3d
       0.068377286 -0.33405733 0.010234635 0.03307966
000390 b6 9a 9a 3e 81 c1 0a 3f f1 f5 98 be 9a d7 d9 3e
       0.3019616 0.54201514 -0.29875138 0.42547303
0003a0 e6 25 c6 3e 27 39 9d 3e 1c 2b b7 be 80 c4 90 bd
       0.3870079 0.30707666 -0.35775077 -0.070687294
0003b0 a7 ec 98 bd b7 dc a0 3d 2a ca 28 be a7 56 a2 be
       -0.07467013 0.07854598 -0.1648337 -0.31706735
0003c0 50 da 86 bf ff 80 30 bc 05 b6 53 be 40 cb 00 3e
       -1.0535374 -0.010772943 -0.20674904 0.12577534
0003d0 2e e4 fa 3d dd fd 15 3e a7 73 36 3b c6 67 df bd
       0.12250553 0.14647622 0.002783993 -0.10908465
0003e0 6b 6c 96 3e ac d5 d8 3c ce 4a 1c 3c 4a 15 65 3e
       0.2937959 0.026469074 0.009539319 0.22371402
0003f0 e3 a9 d2 bd a9 50 05 3f 4e 47 58 3e de 6a 4e 3e
       -0.102863096 0.520762 0.2112095 0.20157954

fc3.bias f4 [2]
000000 6d 0b 34 bb fc 29 47 3e
       -0.002747263 0.1944961
