checkpoint_critic1.pth (torch_old, 292848 bytes, 5 tensors)

fcs1.weight f4 [256, 24]
-0.012287937 0.054644678 0.02581114 0.0038712032 0.006226456 -0.042183843 -0.055684675 0.040252514
0.016222373 0.03591101 0.010681866 0.04219437 0.010876111 -0.009067477 -0.034323238 0.05077442
0.070508674 0.023250237 -0.012362674 0.0046919845 0.0077010454 0.021686364 0.006610986 0.05445144
0.038513985 0.10717052 0.00054961443 0.026269343 0.081824824 -0.0070442404 -0.052181475 -0.060489494
0.12718166 0.08826859 -0.016414529 -0.0074286573 0.09828946 -0.032009263 -0.027701436 -0.010139345
0.17095143 0.055388898 0.005682181 0.024456428 0.058376472 -0.06732689 -0.061926663 0.051551696
0.065281 0.020034548 0.003972096 -0.0027008294 0.04164144 -0.011449388 0.002923382 0.04055404
0.079629585 0.065565 -0.026762424 0.027809585 0.02077269 -0.0027590287 0.03222707 -0.008097445
0.09060793 0.056766666 -0.063662454 0.043498658 -0.03891681 -0.053542607 0.0014326778 0.09576402
-0.022666005 0.19656254 -0.027197309 0.17500871 -0.13063309 -0.072092555 0.018635951 0.17637183
0.15201643 0.21535754 -0.08725661 0.017902829 -0.14417826 -0.23663387 -0.060847025 -0.046892226
0.22448952 0.32059672 0.02904019 0.12715322 -0.019885419 -0.21508017 0.039428074 0.08145488
-0.009248985 -0.022310453 -0.048671253 -0.03139912 0.15346695 -0.035400447 0.03683536 0.007756647
-0.055242393 0.06206295 -0.10423082 0.05975162 0.18055566 -0.18789779 -0.028088886 0.0038317682
0.040359534 0.035065055 -0.038255986 0.06285625 0.119864486 -0.20743872 -0.051804967 0.04734399
0.022151532 0.0948872 -0.1222887 -0.055501632 0.03267075 -0.14053369 -0.042590395 0.007078844
0.14500089 0.13025773 -0.026276808 0.056564447 0.055311706 -0.03486153 -0.045499537 0.060877316
0.18918823 0.1511472 0.0010965571 0.07370211 0.023015393 -0.067507416 -0.027320122 0.0026497766
-0.09628855 -0.05239395 -0.08838128 0.43783042 0.011876494 -0.13084368 -0.018261833 0.4989348
-0.12192339 -0.06847678 -0.005525962 0.2629503 0.042463765 -0.1658368 0.009507939 0.25399292
-0.16917133 0.013281106 0.080391765 0.11227805 0.038547166 -0.3149275 -0.0036954547 0.02846983
-0.108505584 -0.035427377 0.017693892 -0.09184367 -0.00073387835 0.019765733 -0.061109114 -0.078609385
-0.06263503 0.027970804 -0.07782807 0.22237068 0.018389057 -0.052419644 -0.048005797 0.17502631
0.06501165 0.017426813 -0.1645435 0.17012464 -0.04696826 -0.040710475 -0.1873218 0.27512404
0.06133937 -0.0028366388 0.009808178 -0.033614494 0.07354869 -0.05653479 -0.030505171 0.06499507
0.10335558 0.037877254 -0.0038598522 -0.0011662551 0.023094872 -0.060891993 -0.055621948 0.06444988
0.008387418 0.046520263 0.007599221 -0.024168218 0.029792687 -0.020011347 0.008079576 -0.034923047
0.059893217 0.0002839755 -0.019063137 0.008437302 -0.0007305491 -0.0045315083 -0.00773047 -0.041851345
0.079101056 0.08515474 -0.052286826 0.06690763 0.06716353 -0.046331123 -0.04582258 0.02429979
0.024911925 0.10627822 0.0112352315 0.03648298 0.013350537 -0.117087126 -0.08446422 -0.0034626077
0.040930007 0.059693586 0.016329542 -0.048632134 0.03486767 -0.01819062 -0.034153316 -0.0552184
0.106275044 -0.023326125 0.031925566 -0.023774497 -0.01904785 -0.0569517 -0.031024208 0.057885177
00000000: 5853 49bc 19d3 5f3d e271 d33c 03b4 7d3b
00000010: 4c07 cc3b f7c8 2cbd 9d15 64bd d2df 243d
00000020: c8e4 843c 6c17 133d fe02 2f3c 01d4 2c3d
00000030: b731 323c c18f 14bc 8696 0cbd d7f8 4f3d
00000040: da66 903d 4877 be3c d08c 4abc 38bf 993b
00000050: 0d59 fc3b 9aa7 b13c f8a0 d83b 7908 5f3d
00000060: d7c0 1d3d 387c db3d 0014 103a ce32 d73c
00000070: c693 a73d 5fd3 e6bb 3ebc 55bd d5c3 77bd
00000080: e93b 023e 2ac6 b43d c377 86bc 186c f3bb
00000090: fc4b c93d 251c 03bd 1fee e2bc 7f1f 26bc
000000a0: e40d 2f3e 78df 623d 9731 ba3b d958 c83c
000000b0: 2b1c 6f3d aee2 89bd d0a6 7dbd df27 533d
000000c0: 0cb2 853d 7e1f a43c 5b28 823b 6600 31bb
000000d0: 3790 2a3d 3796 3bbc 3696 3f3b fe1b 263d
000000e0: d614 a33d f146 863d df3c dbbc edd0 e33c
000000f0: 7d2b aa3c d2d0 34bb 8800 043d 25ab 04bc
00000100: a790 b93d 2a84 683d 7661 82bd a62b 323d
00000110: 3c67 1fbd 7e4f 5bbd b1c8 bb3a ed1f c43d
00000120: 0fae b9bc b147 493e e4cc debc 7c35 333e
00000130: aec4 05be 43a5 93bd 6caa 983c d19a 343e
00000140: 32aa 1b3e b086 5c3e 98b3 b2bd f4a8 923c
00000150: 77a3 13be 2650 72be bb3a 79bd 1012 40bd
00000160: 95e0 653e 4125 a43e b1e5 ed3c 7434 023e
00000170: bfe6 a2bc fa3d 5cbe 557f 213d d1d1 a63d
00000180: 0e89 17bc 69c4 b6bc 825b 47bd 5d9c 00bd
00000190: 7126 1d3e 0f00 11bd ade0 163d 792b fe3b
000001a0: d945 62bd b835 7e3d f876 d5bd 1dbe 743d
000001b0: 95e3 383e 4768 40be aa1a e6bc 671e 7b3b
000001c0: 0a50 253d 60a0 0f3d 4fb2 1cbd c7ba 803d
000001d0: 837b f53d d16a 54be 7231 54bd c6eb 413d
000001e0: 2177 b53c 3854 c23d 7f72 fabd ae55 63bd
000001f0: c4d1 053d 10e8 0fbe 4473 2ebd a6f5 e73b
00000200: 1d7b 143e 4862 053e 7642 d7bc 1fb0 673d
00000210: 878e 623d f7ca 0ebd b95d 3abd 7e5a 793d
00000220: 8fba 413e 55c6 1a3e 5aba 8f3a 22f1 963d
00000230: c78a bc3c 5441 8abd 73ce dfbc e0a7 2d3b
00000240: ee32 c5bd 0a9b 56bd 3f01 b5bd 4f2b e03e
00000250: a095 423c e3fb 05be d799 95bc 6274 ff3e
00000260: f8b2 f9bd 8e3d 8cbd 2113 b5bb 6ca1 863e
00000270: 7cee 2d3d 1fd1 29be 30c7 1b3c 5c0b 823e
00000280: 403b 2dbe ff98 593c 70a4 a43d 09f2 e53d
00000290: a2e3 1d3d 2d3e a1be 712f 72bb 9039 e93c
000002a0: 2d38 debd 4c1c 11bd c8f2 903c 8918 bcbd
000002b0: be61 40ba bfeb a13c 8d4d 7abd f5fd a0bd
000002c0: cb46 80bd 0723 e53c 5364 9fbd 24b5 633e
000002d0: a6a4 963c fbb5 56bd baa1 44bd 193a 333e
000002e0: d424 853d adc2 8e3c 177e 28be 2735 2e3e
000002f0: ca61 40bd 07c0 26bd 49d1 3fbe 0fdd 8c3e
00000300: fe3e 7b3d e7e6 39bb 7bb2 203c 5aaf 09bd
00000310: b2a0 963d 0691 67bd fbe5 f9bc 231c 853d
00000320: 17ac d33d 2e25 1b3d 93f5 7cbb 07dd 98ba
00000330: 7531 bd3c e269 79bd d7d3 63bd 4cfe 833d
00000340: 626b 093c 088c 3e3d e302 f93b 6dfc c5bc
00000350: cb0f f43c d6ee a3bc 3360 043c 780b 0fbd
00000360: 9752 753d 8ce2 9439 4c2a 9cbc 9c3c 0a3c
00000370: 5282 3fba 0c7d 94bb e24f fdbb 516c 2bbd
00000380: bcff a13d 9c65 ae3d b62a 56bd de06 893d
00000390: 088d 893d b4c5 3dbd 75b0 3bbd 5a10 c73c
000003a0: 1814 cc3c 65a8 d93d fa13 383c 2d6f 153d
000003b0: 36bc 5a3c 60cb efbd 94fb acbd ebec 62bb
000003c0: 39a6 273d 4381 743d 88c5 853c 7d32 47bd
000003d0: 67d1 0e3d 7f04 95bc 59e4 0bbd b02c 62bd
000003e0: bba6 d93d 6e16 bfbc 62c4 023d bcc2 c2bc
000003f0: 3d0a 9cbc 3046 69bd 7b26 febc 0219 6d3d

fcs1.bias f4 [256]
-0.11900868 0.00936695 0.012078771 0.13793747 -0.057933535 -0.30830666 -0.19311102 -0.047981113
-0.24593267 -0.19309573 0.062276617 -0.09797528 0.014314745 -0.19327974 -0.057039294 0.16080904
0.008222726 -0.025303977 -0.18456322 -0.27868593 0.039148975 -0.21325572 -0.050256237 -0.22113387
-0.009625342 -0.24855216 0.0014285019 -0.08908365 -0.21745747 -0.15344979 -0.13501953 -0.3916978
-0.08203947 -0.018492207 0.013006567 -0.023695381 -0.22148784 0.2335665 -0.173025 0.12532084
-0.25270155 -0.16203958 -0.06619523 -0.11628308 -0.09322929 -0.1742962 -0.14965843 -0.26820242
0.20885456 0.073243335 -0.12155745 0.05739011 -0.1881509 -0.19215803 0.026207833 -0.108161
0.09542225 -0.06783889 -0.22752701 0.18838173 -0.017268008 -0.031180369 -0.08667908 -0.26943848
-0.09412538 -0.020152643 -0.20305088 0.040508676 -0.36575413 -0.13395675 -0.0972081 -0.24411659
-0.17125341 -0.15460418 -0.060944814 0.10830673 0.17624356 0.12562464 0.010247717 0.017883342
-0.12762286 -0.16388819 -0.25181538 -0.22018339 -0.0016524482 -0.2999196 -0.106448755 0.041412458
-0.10978072 -0.061203517 -0.060818627 -0.045819066 -0.18692647 0.13390592 -0.25640962 -0.3502832
0.10885317 -0.1781968 0.14071973 -0.00095827726 -0.043095008 -0.06569516 -0.035254702 -0.0469969
-0.13755257 0.16362873 0.0417536 -0.055049166 0.06806459 -0.13968945 -0.08296604 -0.17772594
-0.15458933 -0.2341208 -0.121005334 -0.037432607 0.1738231 -0.20397042 -0.24905561 0.09046423
-0.13173072 -0.103402615 0.06975683 0.15718018 0.056731444 0.26915064 -0.015523409 -0.09900345
0.051195446 -0.31972966 -0.23884065 0.09045707 -0.3239993 0.07357435 0.12731692 0.19036455
0.005618907 -0.0147399325 0.06526054 0.09911547 -0.110764466 -0.18138067 0.08312134 0.015473246
0.06689849 -0.25276798 -0.13632452 -0.20718674 -0.11297558 0.12263149 -0.024572007 0.1507801
0.11339958 -0.15246761 0.13341908 0.03996966 0.19905163 -0.0072892085 -0.14174367 0.13139416
-0.25043425 0.021617634 -0.089605615 0.019476023 -0.062888116 0.084396355 -0.13393864 0.03537998
0.0119067 0.07657689 -0.0015146013 -0.22133525 -0.251183 -0.33037063 -0.33915737 -0.2560472
-0.07130579 0.13270856 -0.20118134 0.09998798 -0.14127699 0.16909249 0.074767485 0.013127333
0.07299631 -0.22768815 -0.21430668 -0.17731857 0.022509897 0.08763648 0.070854485 -0.0710291
-0.036953464 -0.21143267 0.151059 -0.2752785 -0.1694944 0.03080534 0.15027228 -0.10219094
-0.099413045 -0.07294458 0.014659692 -0.15702718 0.26553205 0.24106812 -0.11144313 0.0163597
-0.132231 -0.16880912 -0.042829145 -0.19425431 0.09949214 -0.008425921 -0.060697015 -0.23793195
0.07428894 0.12297265 -0.009239549 -0.017428951 -0.08422667 -0.0070543564 0.199131 -0.12758678
-0.001820158 -0.03160411 -0.27237332 -0.12689781 -0.11933788 -0.09895057 0.1699453 0.05932701
-0.1604708 -0.114638425 -0.016338876 0.052878674 -0.20095918 0.05377534 -0.0361235 0.07709951
-0.13073842 -0.27374065 0.10432048 -0.071754545 -0.13348638 0.12585708 -0.16257524 -0.26165754
-0.08676218 -0.14973703 -0.18251507 -0.19459921 0.08701758 0.17523193 -0.4354425 0.073777735
00000000: d3ba f3bd d677 193c 0ae6 453c 7b3f 0d3e
00000010: b74b 6dbd 5fda 9dbe e5be 45be d887 44bd
00000020: c6d5 7bbe e3ba 45be c415 7f3d 43a7 c8bd
00000030: 6488 6a3c 20eb 45be 09a2 69bd 20ab 243e
00000040: 9db8 063c 494a cfbc 24fe 3cbe ecaf 8ebe
00000050: ad5a 203d b55f 5abe 7cd9 4dbd eb70 62be
00000060: 9cb3 1dbc 7584 7ebe 923c bb3a 7d71 b6bd
00000070: 2cad 5ebe f121 1dbe 8f42 0abe 9d8c c8be
00000080: 4f04 a8bd f87c 97bc 7f19 553c d11c c2bc
00000090: b5cd 62be 0e2c 6f3e 772d 31be 1b54 003e
000000a0: 1962 81be b4ed 25be 5d91 87bd d325 eebd
000000b0: ffee bebd b47a 32be 0f40 19be d451 89be
000000c0: f8dd 553e 9a00 963d 1df3 f8bd e411 6b3d
000000d0: a1aa 40be 13c5 44be cfb1 d63c 8483 ddbd
000000e0: be6c c33d 1eef 8abd d7fc 68be 24e7 403e
000000f0: a375 8dbc f96d ffbc cd84 b1bd d7f3 89be
00000100: cfc4 c0bd 2817 a5bc 92ec 4fbe 6dec 253d
00000110: 2044 bbbe f52b 09be 0a15 c7bd b3f9 79be
00000120: 0e5d 2fbe 8f50 1ebe 45a1 79bd ebcf dd3d
00000130: 3179 343e bfa3 003e 0ae6 273c 1680 923c
00000140: 91af 02be 4ed2 27be f2ed 80be c177 61be
00000150: f696 d8ba 108f 99be ce01 dabd 1ca0 293d
00000160: b7d4 e0bd 8ab0 7abd f41c 79bd c6ac 3bbd
00000170: a769 3fbe a21e 093e 1f48 83be 5258 b3be
00000180: 69ee de3d 3979 36be d518 103e e634 7bba
00000190: 6484 30bd 2f8b 86bd 3c67 10bd d27f 40bd
000001a0: 95da 0cbe 4a8e 273e d305 2b3d 3c7b 61bd
000001b0: 7365 8b3d c00a 0fbe 19ea a9bd cafd 35be
000001c0: aa4c 1ebe 5dbd 6fbe a5d1 f7bd ef52 19bd
000001d0: affe 313e 9fdd 50be 6f08 7fbe 4f45 b93d
000001e0: 6be4 06be c0c4 d3bd abdc 8e3d d7f3 203e
000001f0: 3b5f 683d 1dce 893e e555 7ebc 52c2 cabd
00000200: 51b2 513d 9bb3 a3be a592 74be 8e41 b93d
00000210: 3ce3 a5be 26ae 963d 5e5f 023e edee 423e
00000220: cf1e b83b c27f 71bc 51a7 853d 0dfd ca3d
00000230: 7bd8 e2bd dbbb 39be 853b aa3d 7f83 7d3c
00000240: 1302 893d ce6a 81be a898 0bbe c328 54be
00000250: be5f e7bd 3826 fb3d 3c4b c9bc 1966 1a3e
00000260: 0a3e e83d 7820 1cbe 039f 083e 3ab7 233d
00000270: 31d4 4b3e 50da eebb 4125 11be 318c 063e
00000280: eb38 80be 7717 b13c 2683 b7bd 2e8c 9f3c
00000290: 7ccb 80bd ffd7 ac3d 3627 09be 99ea 103d
000002a0: 5214 433c 58d4 9c3d 9685 c6ba b5a5 62be
000002b0: 0f9b 80be 5726 a9be 09a6 adbe 9e18 83be
000002c0: c508 92bd c1e4 073e 7b02 4ebe 80c6 cc3d
000002d0: eaaa 10be 9526 2d3e b21f 993d 0614 573c
000002e0: 177f 953d 1527 69be 3673 5bbe 0093 35be
000002f0: ad66 b83c c17a b33d 281c 913d b477 91bd
00000300: 845c 17bd ce81 58be 36af 1a3e 4ef1 8cbe
00000310: f18f 2dbe 7b5b fc3c fae0 193e 7c49 d1bd
00000320: 1199 cbbd f863 95bd 342f 703c bccb 20be
00000330: d1f3 873e 90da 763e 4c3c e4bd c704 863c
00000340: 9067 07be 4cdc 2cbe 9d6d 2fbd 9aea 46be
00000350: 89c2 cb3d e00c 0abc 6f9d 78bd 6fa4 73be
00000360: cd24 983d 16d9 fb3d 7a61 17bc 29c7 8ebc
00000370: 087f acbd 3b28 e7bb ffe8 4b3e 1ca6 02be
00000380: 5e92 eeba 5073 01bd 8474 8bbe 80f1 01be
00000390: 6b67 f4bd 99a6 cabd 2406 2e3e e100 733d
000003a0: 7552 24be 8dc7 eabd 1bd9 85bc 4f97 583d
000003b0: 3ec8 4dbe 8843 5c3d 3cf6 13bd 59e6 9d3d
000003c0: 4be0 05be bc27 8cbe faa5 d53d 0cf4 92bd
000003d0: a7b0 08be aee0 003e 207a 26be faf7 85be
000003e0: 5fb0 b1bd aa54 19be 3be5 3abe 0445 47be
000003f0: 4636 b23d 0070 333e 52f2 debe c818 973d

fc2.weight f4 [256, 258]
0.0005153307 -0.00046647925 0.048539825 -0.022668539 0.049882155 0.046315867 -0.052058235 -0.070414424
0.029208586 -0.053825885 -0.031281322 -0.03585297 0.021185178 -0.025841052 0.009098475 -0.020455284
-0.020267498 0.005261387 0.072068535 -0.037826955 0.0497539 -0.04094891 0.029052716 -0.055810526
-0.059718765 -0.0569214 0.021360327 -0.056407843 -0.040550295 -0.09484519 -0.003676276 0.029845074
0.021486672 0.013888709 -0.06524156 -0.10440679 0.002003068 0.012047796 -0.0545867 -0.12592393
0.011239542 -0.04169099 -0.0042824144 0.00405889 0.03281925 0.04851111 0.006516669 -0.015605569
-0.08150593 -0.0059518395 0.0054816515 -0.03811545 0.019182647 0.059095286 -0.05052156 0.050379604
0.005635805 -0.023911225 -0.045586966 0.033757243 -0.05443431 -0.0009275659 -0.031889964 -0.049791094
-0.033322334 0.03308278 0.014819205 -0.047381632 -0.08284106 -0.09238373 0.05088524 -0.03817886
0.056838516 0.017238827 -0.025439754 -0.051130913 -0.0130226 0.047324497 -0.049063146 0.049027573
-0.05338735 -0.1672194 0.0243063 0.04534786 -0.016787704 0.025435429 0.02120829 -0.051653568
0.0311345 -0.016331347 -0.06277252 -0.12561691 0.04305314 -0.08392911 -0.13506472 -0.03575194
-0.02108468 -0.023279563 -0.06994703 -0.009667369 0.03534159 0.009555275 0.04341188 -0.043749534
0.0011496517 -0.041045632 0.0029219897 -0.03549719 0.004039495 -0.052603107 -0.027619708 -0.030359626
0.015342406 0.05193169 -0.032305352 -0.0050446885 -0.06929914 0.03286914 -0.0364048 0.015900074
-0.001806931 0.0067341058 0.015725106 0.043462988 -0.07902073 -0.031925958 -0.053762108 0.036650207
0.034791496 -0.041888945 0.068495765 0.030547472 -0.012599901 0.044921827 -0.11347521 -0.06247864
-0.05801702 0.012221281 0.037391514 0.034175653 0.031772457 0.034942105 -0.040691677 -0.008868974
0.025359627 -0.04755444 0.018405274 -0.057679817 -0.03197645 0.03324428 -0.06524786 -0.044008933
0.016920423 0.06267321 -0.052753936 0.047732275 -0.016036846 -0.01222571 0.049507856 -0.012481194
0.043392144 0.03752253 -0.05335916 -0.008315438 0.057551563 -0.028707707 0.047079783 -0.02243779
-0.040273633 -0.07220988 -0.031403486 -0.0041609122 -0.02661937 0.024580237 -0.0812557 -0.06516588
-0.008413302 -0.0731573 -0.013442013 0.040212102 0.03362892 -0.004878064 0.05173911 -0.07575122
0.03695894 0.024284167 -0.01122883 0.04031874 0.043647096 0.052607242 -0.06389368 0.040185083
-0.071485534 -0.013389781 0.0091746515 -0.02239927 -0.011357193 0.01434323 -0.030062301 -0.03396045
0.0054265354 0.016318874 -0.021555038 -0.08937483 0.0028787395 -0.052493073 0.05438505 0.005366897
0.006708548 0.03165926 0.013707145 0.040593218 -0.0429222 -0.03611801 -0.057389494 0.03311071
0.017093802 -0.017896399 -0.009015271 0.09136963 -0.05922873 0.002983834 -0.05417708 0.05101894
-0.014440219 -0.08965264 -0.028422436 0.003489435 0.022642866 -0.0401098 -0.011781407 0.105543524
-0.07362948 -0.048545808 -0.05981128 0.014563137 -0.040306758 -0.0010972685 0.01486323 0.010038448
0.009624755 -0.004159551 -0.05689115 -0.003261697 -0.0001940288 -7.959996e-06 -0.036136966 0.021577463
-0.03730999 -0.05421019 0.042240396 0.0264974 0.053935725 8.9167996e-05 0.01687725 -0.007079478
00000000: 4217 073a c991 f4b9 b2d1 463d 5fb3 b9bc
00000010: 3b51 4c3d b5b5 3d3d 043b 55bd 7035 90bd
00000020: d846 ef3c 8878 5cbd d820 00bd 90da 12bd
00000030: 8a8c ad3c 9db0 d3bc c511 153c d791 a7bc
00000040: 0608 a6bc b767 ac3b ab98 933d 70f0 1abd
00000050: bfca 4b3d 0bba 27bd f6ff ed3c 9499 64bd
00000060: aa9b 74bd 6a26 69bd dafb ae3c e90b 67bd
00000070: 1118 26bd 323e c2bd aded 70bb a87d f43c
00000080: d104 b03c 788d 633c 5e9d 85bd 3ad3 d5bd
00000090: e845 033b 1e64 453c 4e96 5fbd 34f2 00be
000000a0: 0e26 383c 2cc4 2abd 7f53 8cbb 7000 853b
000000b0: 7a6d 063d 96b3 463d c889 d53b 80ae 7fbc
000000c0: 95ec a6bd a607 c3bb 6d9f b33b f21e 1cbd
000000d0: ed24 9d3c e60d 723d b2ef 4ebd d85a 4e3d
000000e0: 8fac b83b 79e1 c3bc 66b9 3abd 0945 0a3d
000000f0: 83f6 5ebd e527 73ba 0d9f 02bd bff1 4bbd
00000100: 007d 08bd cf81 073d 40cc 723c 3e13 42bd
00000110: 93a8 a9bd ae33 bdbd 0b6d 503d 7061 1cbd
00000120: 81cf 683d 7138 8d3c 0867 d0bc a66e 51bd
00000130: be5c 55bc 55d7 413d 70f6 48bd 23d1 483d
00000140: b2ac 5abd 903b 2bbe 011e c73c adbe 393d
00000150: 5e86 89bc f65d d03c 02bd ad3c b192 53bd
00000160: c70d ff3c 51c9 85bc e18e 80bd b8a1 00be
00000170: 7d58 303d 06e3 abbd 684e 0abe a070 12bd
00000180: c7b9 acbc c8b4 bebc 6340 8fbd e263 1ebc
00000190: 58c2 103d ba8d 1c3c a8d0 313d b632 33bd
000001a0: e9af 963a 771f 28bd da7e 3f3b 8065 11bd
000001b0: bd5d 843b 5b76 57bd ba42 e2bc c0b4 f8bc
000001c0: b75e 7b3c 53b6 543d 9e52 04bd ea4d a5bb
000001d0: b5ec 8dbd cba1 063d 331d 15bd df40 823c
000001e0: 8bd6 ecba c6a9 dc3b f0d1 803c 3f06 323d
000001f0: 9fd5 a1bd cbc4 02bd a835 5cbd 871e 163d
00000200: 8781 0e3d be93 2bbd 8247 8c3d b13e fa3c
00000210: d16f 4ebc f3ff 373d b165 e8bd 9ae9 7fbd
00000220: 41a3 6dbd c53b 483c d827 193d c5fb 0b3d
00000230: d623 023d 741f 0f3d 51ac 26bd 2c4f 11bc
00000240: febe cf3c 72c8 42bd a8c6 963c ac41 6cbd
00000250: bdf9 02bd 272b 083d aca0 85bd b642 34bd
00000260: b39c 8a3c d05a 803d 8314 58bd eb82 433d
00000270: b45f 83bc 584e 48bc c0c8 4a3d ec7d 4cbc
00000280: f6bb 313d 39b1 193d 228f 5abd 7a3d 08bc
00000290: 30bb 6b3d 6d2c ebbc bbd6 403d 75cf b7bc
000002a0: f7f5 24bd c6e2 93bd f1a0 00bd 4358 88bb
000002b0: dd10 dabc 7e5c c93c 6369 a6bd b075 85bd
000002c0: f2d7 09bc 7fd3 95bd e43b 5cbc 72b5 243d
000002d0: 7abe 093d 2bd8 9fbb 64ec 533d 7523 9bbd
000002e0: 4262 173d 97ef c63c 20f9 37bc 4325 253d
000002f0: 4cc7 323d b17a 573d b1da 82bd 1d99 243d
00000300: 0267 92bd d060 5bbc 4751 163c ad7e b7bc
00000310: 8513 3abc deff 6a3c 3745 f6bc 1d1a 0bbd
00000320: 14d1 b13b 29af 853c 3194 b0bc 270a b7bd
00000330: 3ca9 3c3b fa02 57bd dcc2 5e3d ccdc af3b
00000340: 61d3 db3b 24ad 013d ef93 603c 1345 263d
00000350: 30cf 2fbd 7af0 13bd 3f11 6bbd 199f 073d
00000360: 4d08 8c3c 789b 92bc cab4 13bc 0020 bb3d
00000370: d399 72bd 6d8c 433b c9e8 5dbd 3cf9 503d
00000380: ab96 6cbc ce9b b7bd 2bd6 e8bc 01af 643b
00000390: 887d b93c 2c4a 24bd cd06 41bc 3427 d83d
000003a0: 0ecb 96bd f8d7 46bd acfc 74bd 399a 6e3c
000003b0: b318 25bd 39d2 8fba e884 733c 4d78 243c
000003c0: 26b1 1d3c d84c 88bb b206 69bd 32c2 55bb
000003d0: 3674 4bb9 ec8b 05b7 5b04 14bd 38c3 b03c
000003e0: 5cd2 18bd 810b 5ebd 4404 2d3d 1311 d93c
000003f0: b5eb 5c3d b4ff ba38 2942 8a3c f7fa e7bb

fc2.bias f4 [256]
0.0039722263 -0.03821075 -0.060490157 -0.09418463 -0.05270511 -0.06972077 -0.06996208 -0.12728775
-0.021715213 -0.070820116 -0.058464658 -0.030722206 0.13517861 0.013403819 -0.006241833 -0.0069123586
-0.049409427 -0.058147814 -0.026487146 -0.10760025 0.015175809 -0.026483135 -0.060378175 -0.052304026
-0.022954466 -0.061158866 -0.05396914 0.02164901 -0.028139308 0.016660322 -0.013757615 -0.007745983
-0.0049049906 -0.1266092 0.044316575 -0.060613446 -0.023326062 0.16443092 -0.0778608 -0.0070566307
-0.08030867 -0.14622176 -0.011989832 -0.020430371 -0.09736851 -0.010362345 0.009219879 0.08926584
-0.01723904 -0.016544275 0.17994009 0.06545499 -0.03523771 0.033656247 -0.08285371 -0.09496312
-0.04872033 -0.06256293 -0.086507045 -0.054189384 -0.015461693 -0.07137925 0.116491035 -0.042467766
-0.07125798 -0.026066687 0.022903899 -0.029302249 -0.019489674 -0.0572904 -0.06918177 -0.06923036
-0.04130759 -0.054706484 -0.03580957 0.09106289 -0.036921993 -0.031864826 -0.07330774 0.029172162
-0.004648382 -0.017537566 0.05716421 0.0051217787 -0.04331832 -0.0687917 -0.034576543 -0.023412947
-0.044149652 -0.07765613 0.048008934 -0.009185467 -0.06429307 -0.12260912 -0.026122248 -0.038632628
-0.10704126 -0.06912408 -0.013853426 -0.042354472 -0.15983514 0.004760119 -0.025393287 -0.0012265543
-0.042448092 0.041567743 -0.0108327605 -0.060741838 -0.022939777 -0.035416126 -0.08979634 0.024912879
-0.01423166 -0.048224483 0.010215917 -0.16596279 0.040677033 0.01088602 -0.090289965 0.0036690768
-0.029433345 -0.097712584 0.019013217 0.01148684 -0.09296506 -0.005025778 -0.05232636 -0.10188283
0.005546675 0.0016241225 -0.022424482 -0.070721306 -0.020914355 -0.056875106 -0.13659525 -0.07113838
-0.07986927 -0.0041012173 -0.11365471 -0.0065935794 -0.03127022 -0.050887838 -0.015771173 -0.054430556
0.0023367554 0.0052681724 -0.06843017 -0.07116169 -0.08600328 -0.05777134 0.061942402 -0.0122644575
-0.030622423 -0.031820238 -0.0037890794 -0.054123078 -0.08592006 -0.07091715 0.027256576 -0.01223523
-0.052926417 -0.018916883 0.11287592 0.021872291 0.023751728 0.011620489 -0.028246561 0.012699569
-0.010713594 -0.09766885 -0.016497936 -0.08693267 -0.031718843 -0.06292555 0.13087603 0.15192127
-0.11433025 -0.026964352 0.012548986 0.014585413 -0.09222871 0.0035491593 -0.056332417 -0.009619942
-0.05523922 -0.10223087 -0.0024612157 -0.08214599 -0.038021825 0.022430465 -0.076609634 -0.06297237
-0.004009057 -0.03673203 -0.06636591 -0.009042148 -0.05033127 -0.0122032 0.011770559 0.014273389
-0.041043766 -0.023409786 -0.048094038 -0.07174618 0.024565512 -0.018693164 -0.039540734 -0.056642093
-0.06854853 -0.07100151 -0.018569913 -0.10288827 -0.017843666 -0.06361035 -0.07104865 0.0039389892
-0.07537405 -0.08473084 -0.07874014 -0.095884345 -0.16208446 -0.067015104 0.014464081 0.033504497
0.009035108 0.19667417 -0.06943465 -0.07721561 -0.054100364 -0.055862967 -0.08388429 -0.0002861968
-0.08687143 -0.054610696 -0.06943713 0.03282409 -0.0069188736 -0.03336743 -0.004432495 -0.08774586
-0.001740354 -0.016857075 -0.071267195 0.002660803 -0.0095154885 -0.038702853 0.0464186 -0.012094254
-0.060442135 -0.06395281 -0.06347885 -0.021061774 0.006084894 0.0031502247 -0.06140785 -0.092408456
00000000: 7329 823b e082 1cbd 87c4 77bd dfe3 c0bd
00000010: 50e1 57bd c3c9 8ebd 4748 8fbd b857 02be
00000020: 1ae4 b1bc 230a 91bd a378 6fbd 23ad fbbc
00000030: 436c 0a3e b19b 5b3c 4a88 ccbb 1181 e2bb
00000040: 8a61 4abd 672c 6ebd 92fb d8bc 855d dcbd
00000050: f5a3 783c 29f3 d8bc 1b4f 77bd bf3c 56bd
00000060: 010b bcbc b881 7abd bf0e 5dbd 4459 b13c
00000070: 6884 e6bc 3a7b 883c 9f67 61bc 04d2 fdbb
00000080: 0bba a0bb d8a5 01be 4c85 353d ce45 78bd
00000090: 4c16 bfbc 9460 283e 7c75 9fbd 4f3b e7bb
000000a0: df78 a4bd 28bb 15be 0071 44bc 985d a7bc
000000b0: 2469 c7bd d3c6 29bc fa0e 173c 02d1 b63d
000000c0: e338 8dbc dc87 87bc 3742 383e 440d 863d
000000d0: 6b55 10bd 22db 093d 35af a9bd 067c c2bd
000000e0: f88e 47bd fe20 80bd 9b2a b1bd b0f5 5dbd
000000f0: 0a53 7dbc 492f 92bd da92 ee3d aef2 2dbd
00000100: b4ef 91bd ce89 d5bc f5a0 bb3c 450b f0bc
00000110: cfa8 9fbc 57a9 6abd 2caf 8dbd a6c8 8dbd
00000120: 2632 29bd e813 60bd 0ead 12bd 2e7f ba3d
00000130: 843b 17bd b184 02bd 5e22 96bd 75fa ee3c
00000140: 7451 98bb f1aa 8fbc 0525 6a3d 98d4 a73b
00000150: 8d6e 31bd aae2 8cbd 22a0 0dbd 82cc bfbc
00000160: 44d6 34bd 2d0a 9fbd 04a5 443d a47e 16bc
00000170: 16ac 83bd 7e1a fbbd 53fe d5bc 3f3d 1ebd
00000180: 7338 dbbd ed90 8dbd 7bf9 62bc e27b 2dbd
00000190: d3ab 23be c6fa 9b3b 9505 d0bc 55c4 a0ba
000001a0: 0dde 2dbd f042 2a3d e47b 31bc 6fcc 78bd
000001b0: 33ec bbbc 8010 11bd 25e7 b7bd 1816 cc3c
000001c0: e92b 69bc 0987 45bd a960 273c 26f2 29be
000001d0: f69c 263d 475b 323c f2e9 b8bd e574 703b
000001e0: 331e f1bc 891d c8bd 9bc1 9b3c 4d33 3c3c
000001f0: 7764 bebd 48af a4bb 2a54 56bd f2a7 d0bd
00000200: e2c0 b53b 82e0 d43a 8cb3 b7bc 55d6 90bd
00000210: 9554 abbc dff5 68bd a0df 0bbe 00b1 91bd
00000220: 8092 a3bd 8163 86bb cdc3 e8bd f40e d8bb
00000230: 3415 00bd c46f 50bd 8c32 81bc 93f2 5ebd
00000240: 4024 193b a2a0 ac3b 1e25 8cbd 38bd 91bd
00000250: 7d22 b0bd a4a1 6cbd 51b7 7d3d ddf0 48bc
00000260: e0db fabc f055 02bd 3452 78bb 29b0 5dbd
00000270: dbf6 afbd 033d 91bd 2f49 df3c 4676 48bc
00000280: 5fc9 58bd 94f7 9abc 7e2b e73d 852d b33c
00000290: fc92 c23c dd63 3e3c 5565 e7bc da11 503c
000002a0: 1288 2fbc 9b06 c8bd ae26 87bc c109 b2bd
000002b0: 9eeb 01bd 1cdf 80bd 5e04 063e 4091 1b3e
000002c0: fa25 eabd 58e4 dcbc 439a 4d3c a8f7 6e3c
000002d0: 68e2 bcbd 0399 683b d2bc 66bd f69c 1dbc
000002e0: 8542 62bd 6b5e d1bd 594c 21bb 283c a8bd
000002f0: c6bc 1bbd 18c0 b73c 83e5 9cbd a8f7 80bd
00000300: 685e 83bb 5374 16bd daea 87bd 8425 14bc
00000310: 2928 4ebd eeef 47bc 4dd9 403c efda 693c
00000320: 821d 28bd e1c5 bfbc 41fe 44bd a9ef 92bd
00000330: 9d3d c93c 6822 99bc 77f5 21bd 8a01 68bd
00000340: 2c63 8cbd 3d69 91bd ee1f 98bc 16b7 d2bd
00000350: e12c 92bc 2546 82bd f481 91bd a312 813b
00000360: b65d 9abd 5d87 adbd 8342 a1bd 035f c4bd
00000370: 78f9 25be 373f 89bd c1fa 6c3c 033c 093d
00000380: fd07 143c f464 493e c133 8ebd 3823 9ebd
00000390: 5898 5dbd 91d0 64bd 87cb abbd af0c 96b9
000003a0: a6e9 b1bd 77af 5fbd 0e35 8ebd 8e72 063d
000003b0: b8b7 e2bb 49ac 08bd 773e 91bb 1ab4 b3bd
000003c0: 971c e4ba d917 8abc 89f4 91bd de60 2e3b
000003d0: dae6 1bbc e286 1ebd 6e21 3e3d fa26 46bc
000003e0: 2c92 77bd b1f9 82bd 3301 82bd be89 acbc
000003f0: ca63 c73b 0074 4e3b cc86 7bbd a540 bdbd

fc3.weight f4 [1, 256]
-0.0005371488 -0.004962985 0.03737663 -0.01105114 0.09254771 -0.002524184 0.0023923146 -0.16101576
-0.0047122436 -0.017736085 0.004157808 0.0017113765 0.0018720848 -0.016574822 -0.020837238 -0.0027761946
-0.0034419524 -0.0075904955 0.0056248866 0.02568885 -0.1445884 -0.02704806 -0.0047423504 0.029166453
-0.032229 0.0032449483 0.0003048114 0.00023159762 -0.11092793 0.0015242785 -0.0015014592 -0.0013712961
0.010468066 -0.022752862 0.047872692 -0.015641563 0.0013293053 -0.082000874 0.022156425 0.0141305365
0.012485049 -0.0043830806 -0.003050733 -0.08563632 0.043855924 -0.0069470666 -0.0200334 -0.026286146
0.018214358 -0.00069605454 -0.03385232 0.005320052 0.0030450365 -0.006611246 -0.000403296 -0.013137765
-0.002213745 0.031228837 -0.016511625 -0.005458419 -0.008974891 -0.0018710552 -0.06980478 0.01577023
0.002750753 -0.002695206 -0.010235545 0.023021074 0.0038917256 -0.008024573 -0.017088266 0.021659749
-0.001151719 -0.0007634896 1.22592755e-05 -0.043751866 0.011981227 0.0083442 0.0188499 -0.010934277
-0.0065766927 0.0024548483 -0.007237727 -0.00015129162 0.01906341 0.00506128 -0.035519082 -0.0017951877
-0.0056245904 0.0011135148 0.019911403 -0.008283714 -0.13019165 -0.031894952 -0.004162947 0.008162977
0.0015110172 0.01881666 -0.019615985 0.004916082 -0.08047027 0.009539768 -0.0066359714 -0.022745557
-0.00032022942 -0.0045796637 0.00039647112 0.001333988 0.016720537 -0.007360407 -0.00035889942 -0.02216263
0.0070470525 -0.005474316 -0.00047963942 0.008769719 0.0035435597 0.031518016 -0.0025381022 -0.010403095
0.0033142054 -0.020688554 -0.0025151088 -0.007044808 -0.009470243 -0.023401713 -0.033205 0.0024722621
-0.016558265 -0.012375753 0.007896019 0.0040607853 0.0035007785 -0.017574094 -0.009900591 -0.00972093
0.17607991 -0.010001359 -0.016498934 -0.089865945 -0.016887909 0.001638405 0.0006029117 0.003752191
-0.0029319345 0.015140245 -0.003347533 -0.025250128 0.0017676218 0.0020500184 -0.075918466 -0.00077920296
9.600275e-05 -0.005635445 -0.001545042 -0.016940618 0.02954997 -0.0042779613 -0.003205595 0.006693973
-0.0003810992 0.0042808545 0.04998355 -0.015832784 -0.012715798 -0.00048080386 -0.012011613 -0.026494011
0.004353421 -0.012252521 -0.025435755 -0.005802352 0.00092818565 -0.01735484 0.11748115 0.18812646
-0.17174894 -0.00054501987 0.016988147 -0.027732512 -0.002743767 0.013112543 0.011603233 -0.011376984
-0.019245608 0.005424326 0.027556734 -0.028675178 -0.024822965 0.0096878875 -0.0009917489 0.009703912
0.0067601386 0.00019003855 0.002906479 -0.0021003117 -0.003968624 -0.0032440282 -0.0030005905 -0.0011740266
0.020174649 -0.019319039 -0.008757878 -0.00075589586 0.0015549358 0.0061010853 -0.0071570515 -0.009102121
-0.0031273302 -0.004686557 -0.0040748403 -0.0059821326 -0.04527419 -0.021316575 -0.020044595 -0.019667083
-0.005951959 -0.014592786 0.024657695 0.0015883375 -0.091067694 -0.0031264492 0.013983758 0.0046346462
0.0004486717 0.10575991 0.020238677 -0.0020064837 -0.017249 -0.019418646 -0.0011547678 -0.009238304
-0.0007253138 -0.047427002 0.0031114062 0.002337948 -0.00094119005 -0.13867539 -0.0017865624 0.008925417
0.005830022 -0.004420006 0.01538239 0.010718004 -0.014871486 0.006477505 -0.003430684 0.013648391
0.003917805 -0.0012988391 0.009049958 0.0045518954 0.0059324526 0.0022746462 -0.03345338 -0.016420487
00000000: 72cf 0cba 89a0 a2bb 3d18 193d d70f 35bc
00000010: a789 bd3d c86c 25bb 61c8 1c3b 51e1 24be
00000020: 2a69 9abb 444b 91bc 393e 883b 4450 e03a
00000030: be60 f53a ecc7 87bc dbb2 aabc d1f0 35bb
00000040: 6192 61bb b1b9 f8bb f850 b83b 6c71 d23c
00000050: fb0e 14be e593 ddbc b865 9bbb 7cee ee3c
00000060: 8e02 04bd 33a9 543b 18cf 9f39 03d9 7239
00000070: 2f2e e3bd 4dca c73a 9ccc c4ba 10bd b3ba
00000080: 4082 2b3c 3664 babc 2816 443d bc22 80bc
00000090: 163c ae3a 13f0 a7bd 6481 b53c c483 673c
000000a0: 178e 4c3c f29f 8fbb ceee 47bb 1862 afbd
000000b0: 45a2 333d 38a4 e3bb 161d a4bc 0b56 d7bc
000000c0: 4736 953c 6e77 36ba bba8 0abd d553 ae3b
000000d0: 3c8f 473b 27a3 d8bb 7971 d3b9 c83f 57bc
000000e0: 7a14 11bb 9ed3 ff3c 6343 87bc 8adc b2bb
000000f0: 6c0b 13bc 323e f5ba cff5 8ebd 9230 813c
00000100: fa45 343b 0ea2 30bb fdb2 27bc b196 bc3c
00000110: 520c 7f3b 8079 03bc b1fc 8bbc c96f b13c
00000120: 47f5 96ba eb24 48ba 30ad 4d37 2835 33bd
00000130: e94c 443c 1db6 083c 1b6b 9a3c af25 33bc
00000140: 4c81 d7bb 85e1 203b 742a edbb 09a4 1eb9
00000150: de2a 9c3c 18d9 a53b 757c 11bd 814c ebba
00000160: 7c4e b8bb 5bf3 913a 3d1d a33c 6ab8 07bc
00000170: f650 05be 48a4 02bd 5569 88bb 02be 053c
00000180: 530d c63a 6525 9a3c b4b1 a0bc 1617 a13b
00000190: 99cd a4bd b04c 1c3c 9072 d9bb e454 babc
000001a0: 77e4 a7b9 0111 96bb 74dd cf39 36d9 ae3a
000001b0: 82f9 883c 922f f1bb aa2a bcb9 678e b5bc
000001c0: f6ea e63b e461 b3bb 1d78 fbb9 deae 0f3c
000001d0: 113b 683b 0919 013d 4a56 26bb be71 2abc
000001e0: 2433 593b 0b7b a9bc 86d4 24bb 22d8 e6bb
000001f0: 1429 1bbc f3b4 bfbc f701 08bd ad05 223b
00000200: 33a5 87bc acc3 4abc 4e5e 013c 5610 853b
00000210: 516d 653b 8cf7 8fbc 1736 22bc 8944 1fbc
00000220: 4b4e 343e bddc 23bc c628 87bc a30b b8bd
00000230: 8358 8abc c0bf d63a b80c 1e3a 52e7 753b
00000240: b325 40bb ca0e 783c 4962 5bbb 5bd9 cebc
00000250: 8caf e73a 9a59 063b 247b 9bbd 6d43 4cba
00000260: 1555 c938 8aa9 b8bb 0283 caba 0dc7 8abc
00000270: c712 f23c 242e 8cbb f614 52bb 1e59 db3b
00000280: 45ce c7b9 6946 8c3b 8dbb 4c3d c1b3 81bc
00000290: ec55 50bc 6714 fcb9 5bcc 44bc f809 d9bc
000002a0: 24a7 8e3b ccbe 48bc a55e d0bc a821 bebb
000002b0: 7c51 733a bd2b 8ebc f599 f03d 39a4 403e
000002c0: f4de 2fbe aadf 0eba ba2a 8b3c 4b2f e3bc
000002d0: c6d0 33bb fed5 563c 7d1b 3e3c 8866 3abc
000002e0: f7a8 9dbc 8bbe b13b a9be e13c 35e8 eabc
000002f0: 8859 cbbc f2b9 1e3c 92fd 81ba 28fd 1e3c
00000300: 2784 dd3b 1645 4739 a07a 3e3b 62a5 09bb
00000310: 3b0b 82bb c399 54bb 8ea5 44bb cce1 99ba
00000320: 4e45 a53c f642 9ebc 347d 0fbc 5027 46ba
00000330: fdce cb3a 9deb c73b b385 eabb 1021 15bc
00000340: e5f3 4cbb b191 99bb 3d86 85bb c405 c4bb
00000350: 6e71 39bd 19a0 aebc 9034 a4bc dd1c a1bc
00000360: a708 c3bb 9516 6fbc effe c93c c32f d03a
00000370: b381 babd 1de5 4cbb 221c 653c 3bde 973b
00000380: b23b eb39 a798 d83d 95cb a53c 367f 03bb
00000390: c64d 8dbc da13 9fbc 945b 97ba 415c 17bc
000003a0: fc22 3eba d142 42bd bce8 4b3b 4238 193b
000003b0: 32ba 76ba ec00 0ebe 162b eaba ea3b 123c
000003c0: c509 bf3b b3d5 90bb 6b06 7c3c 919a 2f3c
000003d0: 89a7 73bc 4041 d43b 54d5 60bb 809d 5f3c
000003e0: ee60 803b cf3d aaba 4646 143c 1128 953b
000003f0: 0565 c23b 3b12 153b 6906 09bd 4284 86bc
