checkpoint_actor1.pth (torch_old, 291819 bytes, 6 tensors)

fc1.weight f4 [256, 24]
00000000: 4f77 19bd 3ae4 c6bd 3e80 1cbd 61b4 9d3c
00000010: 944d 46bd 9745 8c3d 6eaa d13b ffd1 c1bd
00000020: b1e8 f5bd f6cb 4abd 5c27 dbbd aece 74bd
00000030: 4f15 b9bd e997 8e3d 8011 a3bd 7cb5 c5bd
00000040: 425a 28be ae02 03be 35dd efbd 4d78 f3bd
00000050: be0b a8bd 9270 0f3e facb f0bd b077 1ebd
00000060: 07b0 6f3c b5c0 d43c 1beb 0b3e 2386 b7bd
00000070: 1aa7 f93d adb5 0a3e 553a f13d 2d64 30be
00000080: 00bc f23d 84f7 053d 9233 bf3d a7e2 123b
00000090: 837a 3c3e 6464 013e 8113 343d e344 eabd
000000a0: 2464 863d 174e 253d 7f80 1d3d dd99 e9bd
000000b0: e04b 163e e8e8 833d 2b93 dfbc a5a0 dbbd
000000c0: c8f5 933c 9012 5f3d 4948 63bd 5046 083b
000000d0: b2f8 063d c86f 583c cecb feba 169d 87bc
000000e0: 9168 033d 24bc 673d 7489 ba3c df7e 03bd
000000f0: 2b10 cfba 340f 20bd f960 16bd 381c d4bc
00000100: b1ed a23d 6979 913a f52d a7bd dd8e 943c
00000110: ff79 99bb 64ad afbd a833 0a3c 6512 9a3b
00000120: 5f11 49be 9feb 5fbd 395c 40bd 1bc4 6cbe
00000130: 60d0 723d 5eea 9f3e f87c c93c 8591 6ebe
00000140: 5e51 06bd ad52 33bd 91bc 7abc f967 11be
00000150: 3750 db3d 6c6a 4a3e 5435 2a3d e951 26be
00000160: 216e 563d 2c4a 0abd 2727 aebd f91c 4ebe
00000170: 96f7 a23d 539c c03d 752b d1bd 100e 76be
00000180: fb1e ca3d 8fcf 073e bb34 813c 50a8 573d
00000190: 4c36 69be f61b 3bbe 2afa 12bd f3bd 893d
000001a0: 8319 d6bd ee70 38bd 49bf 8abd 8310 7c3d
000001b0: 1164 6ebe f08f 5e3c 086a b1bd 940a 3d3d
000001c0: 6ecf 01be ffc3 1abd b727 af3d 8dcc d13c
000001d0: 3a99 36be 7092 48bd 18ec a03d 86bf ef3d
000001e0: ea5d c9bd 5ae0 ad3a 64e7 093e ae43 4f3d
000001f0: c5f7 773e 8633 903e 886f 073e 8eb7 0d3d
00000200: 09de d23c 56f7 bb3c 668c 1b3d 4191 213d
00000210: 1877 933e c2ec 373e e0e7 c13d a7ae a03d
00000220: 4449 e93d bd40 863d 4b5e 88bd 6b36 ba3d
00000230: aea1 733e 225c 233e b453 5ebd 8e0a 293d
00000240: 46da 20bc 9be3 b63b 531a ab3d 976a 313d
00000250: a427 3f3e db69 383c a10a 8a3d 5264 91bc
00000260: 4406 aebb aca4 5b3b a515 bf3d ff5b ac3c
00000270: 0d7f 2a3e 1f64 6f3c f104 fb3d 4f40 823d
00000280: 4373 8c3d c0ac a03d c960 103d 7427 d03d
00000290: bc5f e63d 5532 883b 26d1 cd3d 8aa1 b33c
000002a0: 2bf5 253e b6a2 063d c718 45bd 8954 3a3e
000002b0: fe04 7dbe 1e2d 58be b658 13bd 1d1e 343e
000002c0: 4187 e3bd f010 ee3b fdde 63bc c5d6 4e3d
000002d0: dabf 8cbe e368 c3bd 7b42 a3bd 9918 eb3c
000002e0: 38f7 07be 3a69 173d 116c 0e3d 4932 a23d
000002f0: 2417 2cbe e548 b2bd 639c 0a3e 1967 8d3d
00000300: 3766 823d 9437 8b3d b891 9f3d 83da 343d
00000310: ee72 093d 7094 84bd 87ed 993d 80a2 4f3d
00000320: 40d5 aa3a 0f2a 9c3d d768 c53b 6bc5 9fbb
00000330: fc87 793d ff43 12bc b430 973d e82c 6bbc
00000340: f734 dd3d 37bb 4c3d 58a1 fa3c ecc5 2ebd
00000350: 7665 3f3d ad72 cdbc de81 6b3d d45e a3bd
00000360: 97e7 b53d 4670 3f3d 9922 813d ebb0 e83b
00000370: 0acc 933d 04f9 71bc 0167 233d 36f8 263d
00000380: a09e cb3d 1095 b03d 35de 8f3d c415 e9bc
00000390: d0e2 cd3d 7a01 86bb 4632 1d3d 9502 f63c
000003a0: 558f 213d 1648 e73d 8704 2f3d 38d0 46bd
000003b0: 2e0e b03d f25f 00be 86b2 ef3c c7f3 36bd
000003c0: aaab af3c 0fda b13c e2b1 2c3d d815 5dbb
000003d0: 9749 953c d377 47bd 70f9 30bd c833 5b3d
000003e0: 22af e83c 49bc 903d 066f 143c 3bf3 28bc
000003f0: 9ae1 9cbc 1926 b3bb a93b 02bd 52e7 2ebd
-0.037467297 -0.097114995 -0.03820824 0.01925105 -0.048413828 0.06849211 0.0063984906 -0.09463882
-0.12007273 -0.04951092 -0.107008666 -0.059767418 -0.090372674 0.06962568 -0.07962322 -0.09653756
-0.1644068 -0.12793991 -0.11712114 -0.1188818 -0.08205365 0.14007786 -0.117576554 -0.03868836
0.0146293705 0.025970796 0.13663904 -0.089611314 0.12190075 0.13545866 0.11778704 -0.17225714
0.118522644 0.032706752 0.09336008 0.0022412927 0.1840611 0.12635952 0.043963913 -0.1143892
0.06562069 0.040357675 0.03845262 -0.114063 0.14677382 0.06440908 -0.027291855 -0.10724
0.018061534 0.054461062 -0.05548886 0.0020793863 0.032952018 0.0132102445 -0.0019439401 -0.016554397
0.032082144 0.05657591 0.02277062 -0.032103416 -0.0015797665 -0.039077 -0.036713574 -0.025892362
0.07955492 0.0011098805 -0.081630625 0.018134529 -0.0046837325 -0.085779935 0.008435167 0.0047019
-0.19635533 -0.054668065 -0.04696295 -0.23121683 0.059280753 0.31233495 0.024595723 -0.23297699
-0.03279244 -0.043780018 -0.015303747 -0.14199819 0.10708659 0.19767159 0.041554764 -0.16242184
0.05235112 -0.033762142 -0.085035615 -0.2012824 0.079573795 0.094048165 -0.10213367 -0.24028802
0.0986919 0.13262771 0.015772214 0.05265075 -0.22774619 -0.18272385 -0.035883106 0.06725683
-0.10454085 -0.045029573 -0.06774766 0.061539184 -0.2328036 0.013584122 -0.08662802 0.046152666
-0.12676784 -0.037784573 0.08552497 0.025610233 -0.17831889 -0.04896778 0.07857531 0.11706452
-0.09832366 0.0013265715 0.13467175 0.050601654 0.2421561 0.2816431 0.1322614 0.03459888
0.02574064 0.022945087 0.03797569 0.039445166 0.288018 0.1796141 0.09468055 0.07845812
0.113909274 0.065553166 -0.0665861 0.09092411 0.23792145 0.15953115 -0.054279044 0.04126983
-0.009817665 0.005581332 0.0835463 0.043314543 0.18667465 0.011255707 0.067403086 -0.017748032
-0.0053108055 0.00335149 0.093303 0.02103996 0.16650029 0.014611273 0.12256802 0.06359922
0.06857922 0.078454494 0.03524855 0.10163775 0.11248729 0.0041563907 0.100496575 0.021927614
0.16206805 0.032870017 -0.048119333 0.1819631 -0.24708936 -0.21110961 -0.035973273 0.17589612
-0.11109782 0.0072652027 -0.013908145 0.05049779 -0.2749012 -0.0954149 -0.079716645 0.028698253
-0.132779 0.036965586 0.03477103 0.079197474 -0.16805702 -0.0870531 0.1353622 0.0690443
0.06367152 0.0679771 0.077914655 0.0441537 0.03355687 -0.06473625 0.07516008 0.05069208
0.0013033524 0.076252095 0.006024461 -0.004875829 0.0609207 -0.008927344 0.07382336 -0.014353968
0.10801118 0.04998323 0.030594513 -0.04266922 0.04672762 -0.025079096 0.057496898 -0.079770714
0.08882063 0.04673793 0.06305427 0.0071011684 0.07216652 -0.014768843 0.039893154 0.040764056
0.09942365 0.086221814 0.070248045 -0.028452761 0.10053027 -0.0040895315 0.038378023 0.030030528
0.039443333 0.11293046 0.042728927 -0.048538417 0.085964546 -0.125366 0.029259931 -0.044666078
0.02144416 0.021710424 0.04216183 -0.0033734944 0.018223567 -0.048698258 -0.043206632 0.05351618
0.028403822 0.070671625 0.009059673 -0.010311897 -0.019150544 -0.005467188 -0.031795178 -0.042701073

fc1.bias f4 [256]
00000000: 7eb4 523d 461b 363d 2918 9c3d 02aa 0f3d
00000010: 0976 b6bb 73e5 25be fb5e 45be e265 983d
00000020: 2819 74be af71 08be 7d67 d73d 830b 0ebd
00000030: 2870 383e 5bcd 63be fda2 c03d 5880 093e
00000040: 4400 2dbb 1401 0c3e cea2 18be 1053 2bbe
00000050: 8840 253e 9bca 6dbe a424 a03d 654a 09be
00000060: eef4 85bd 27ff 4fbe fa6e ff3d 1b17 4a3d
00000070: 450c ecbd ea78 02bc ae16 fbbd 134f 2bbe
00000080: be2a 843b 7593 15bd 2b25 26be cd0a e63d
00000090: 9b5f 21be 969d 123e fda9 71bd 6f19 e23d
000000a0: e70b 3fbe 795b 76be 77b9 08bd b334 07be
000000b0: 337f 1d3c 74b9 b4bc d4fa 4cbc 52bf 8dbd
000000c0: 9a8d 473e 8566 4d3d 7849 9dbc 0d47 953d
000000d0: 2ecf ed3b 99f7 36be 6327 e73d 0caa e3bd
000000e0: c6c8 d73d 1c4a d0bd c958 52be 19cc 0f3e
000000f0: de83 1bbc b5eb 3b3e a9a2 aebc db71 2abe
00000100: 09fd 10bd f959 9ebc fca0 17be b743 2e3e
00000110: cf73 6abe 9b59 c0bd dfea fa3b ef8e 2fbe
00000120: 9314 53be 8f73 45bd faca 5c3d 8184 153e
00000130: c03f 333e 3a27 6d3e 2b49 033e ee92 8d3d
00000140: 7c63 963b 7c4c a7bd 7079 27be 97ac 1ebe
00000150: 8986 693d 17f1 22be 031f c2bd 5fd0 023e
00000160: dadc 80be f94e c93c 6c18 713d f7ab 6f3c
00000170: 0e58 ecbd 5bd4 463e c8e7 02be 0518 d3bd
00000180: 1c18 ee3d 6779 bf3b dae9 933e 1f87 293d
00000190: be6b 073e c54f e5bc b92d c13d bc85 323c
000001a0: 9032 a93a b1e3 443e 0f5f 093e 0cd1 c7bb
000001b0: 6d38 1abd f713 89bd 5e22 aebb f08a 83be
000001c0: 9ed6 55bc 7026 8bbd 71e6 c5bd 7139 a23d
000001d0: b105 033e a3ca 75be 2d66 40be c783 263e
000001e0: 711b 93bd a1b4 6d3d aebd 083e ad3c 4e3e
000001f0: deed 7e3b 01c8 223d 81a5 e73c 818d 71bd
00000200: d853 f93d 8df6 84be d42d 6bbe 7b29 103e
00000210: 060a 5ebe 0851 e93d cbaa db3d 704d 753e
00000220: 8d88 293c 3b3b f33c a9b7 f73d a4cf 4d3e
00000230: dc07 ac3d 7662 4fbe 37c6 f43d 5033 ec3d
00000240: 3727 7c3e d6fa 76bd 9c63 e83b f8a5 24be
00000250: 4947 703b 68a3 7e3e f962 f23c f450 393e
00000260: 0953 643e dede aebd 4ffd 843e 66a9 c93d
00000270: dbd4 f43d 5945 50bc f328 4c3c cbf1 633e
00000280: 5974 cabd 4e96 953d 25fa 2fbd 1481 013d
00000290: 63c1 83bd 3215 4e3e 2808 b63c ff17 123e
000002a0: 3f82 023e a41d 803e 375a 673d a205 7cbe
000002b0: 7e89 54be c746 8abe b4ef 32be c254 5cbe
000002c0: 4fc0 a73c 80ab 173e c7b6 febd 1963 1e3d
000002d0: 1171 31be 433f 223e 6f32 0f3e 786a 6d3d
000002e0: 2ed5 3b3e c323 9ebd 5991 32be ce2c e1bd
000002f0: 76fd 93bc 944c 103e eff8 f13d 68ec e43c
00000300: d4bd 97bd a13a 30be 4586 4b3e 0437 36be
00000310: c939 2bbd 808f f53d 79a3 1e3e 265c db3c
00000320: e67f 87bd 0c20 1b3c 2190 4cbc f3b4 d7bd
00000330: 7628 173e 931d 903e 14ed fcbd eb51 da3d
00000340: a5a3 29bd ee6b 39be 9c12 0c3d e036 73bd
00000350: dcf4 403e 8653 8c3d 9735 fd3c 024d 13be
00000360: 9cf0 1a3e 6a0f 053d 39c3 d23d 34dc fe3c
00000370: a8da e8bd d65a a6bb b74f 903e 3006 4a3d
00000380: e019 033e 169a 5ebe da8c 203c 10f3 e6bc
00000390: 755b 0c3d 559c 4dbc 515c 953e 6c20 5b3e
000003a0: ff0b b9bd f4f0 cbbd a540 a63d 0c0e 083e
000003b0: 450d 973a 6cdf c3bc 62f1 5d3c d665 453e
000003c0: ddce 40bd f07b 25be 83f3 463d b0ca 323d
000003d0: e633 14be 8b9b 6b3e 3f89 923c 91aa 16be
000003e0: 657f dd3d a56e 04be 1871 12be acdf 3fbe
000003f0: 89fa e03d a41b 893e ee6e fcbd 9d3a 4a3e
0.051441662 0.044459604 0.07621796 0.03507424 -0.00556827 -0.16200809 -0.19274513 0.074413076
-0.23837721 -0.13324617 0.10517786 -0.034678947 0.18011534 -0.22246306 0.094060875 0.13427866
-0.0026397863 0.13672286 -0.14905855 -0.16730905 0.16137898 -0.23221819 0.07819489 -0.13407286
-0.06540857 -0.20312177 0.12472339 0.04933844 -0.11525778 -0.0079633985 -0.12260185 -0.16729383
0.0040334156 -0.03651758 -0.16225116 0.11232529 -0.15759127 0.14317927 -0.059000004 0.11040007
-0.18656884 -0.24058332 -0.033379998 -0.13203697 0.009612846 -0.022061087 -0.012510974 -0.06921257
0.1948761 0.0501466 -0.019200072 0.072889425 0.0072573638 -0.17867889 0.11286809 -0.11116418
0.10536341 -0.10170385 -0.20541681 0.14042701 -0.009491889 0.18351634 -0.021317797 -0.16644995
-0.035397563 -0.019330012 -0.14807504 0.17018019 -0.2289574 -0.09392091 0.0076573933 -0.17144369
-0.20613317 -0.04820591 0.05390451 0.14601327 0.17504787 0.23159495 0.1282088 0.0691279
0.004589496 -0.08168885 -0.16354918 -0.15495525 0.05701307 -0.15912281 -0.09478571 0.127748
-0.25168496 0.02457379 0.05886118 0.014628402 -0.115402326 0.19416945 -0.1278373 -0.10307316
0.11625692 0.0058433297 0.28889352 0.041388627 0.13224694 -0.027992139 0.09432549 0.010896143
0.0012908746 0.19227482 0.13415168 -0.0060979184 -0.037651468 -0.06693261 -0.0053141555 -0.25691938
-0.013051657 -0.06794441 -0.09663094 0.07921112 0.1279514 -0.24003081 -0.18788977 0.16261207
-0.071829684 0.05803359 0.13353607 0.20140333 0.0038899104 0.03974152 0.02827716 -0.05897284
0.12174195 -0.25969353 -0.22966701 0.14078324 -0.21683511 0.113924086 0.107259355 0.23955321
0.010347498 0.02969133 0.12095577 0.2009874 0.083999366 -0.20252404 0.11951869 0.115332246
0.24624334 -0.06029781 0.0070919525 -0.16078937 0.0036663583 0.24867022 0.02958821 0.18097287
0.222973 -0.08538602 0.2597451 0.09846763 0.119546615 -0.012711846 0.012460935 0.22260205
-0.09885473 0.07304059 -0.042963166 0.03161724 -0.0643337 0.20125273 0.022220686 0.14266966
0.12744997 0.25022614 0.05648252 -0.24611524 -0.20755574 -0.27007124 -0.17474252 -0.21516708
0.020477442 0.14811516 -0.12437206 0.038668726 -0.17328288 0.15844445 0.13984083 0.057962865
0.1834304 -0.07721665 -0.17438258 -0.10994874 -0.018065196 0.14091712 0.118150584 0.027944759
-0.07409254 -0.17209865 0.19875439 -0.17794424 -0.041803155 0.11990261 0.15492047 0.026777338
-0.066161916 0.00946809 -0.012485535 -0.1053256 0.14761528 0.28147563 -0.123499066 0.10660156
-0.04141583 -0.18107578 0.034197435 -0.059378505 0.18843406 0.06851868 0.030909343 -0.14384845
0.15130848 0.032485403 0.10291142 0.03111086 -0.1136983 -0.0050767465 0.28185818 0.049322307
0.1280284 -0.21738467 0.009799207 -0.028192073 0.034266908 -0.0125494795 0.29171994 0.21399087
-0.09035491 -0.099580675 0.08117799 0.13286608 0.001152434 -0.023910247 0.01354632 0.19277129
-0.04707228 -0.1616056 0.048572075 0.04365033 -0.14472923 0.23008554 0.01788771 -0.14713503
0.10815314 -0.12932833 -0.14300954 -0.18737668 0.10985286 0.267789 -0.12325846 0.19748922

fc2.weight f4 [256, 256]
00000000: c7ff e93b 1940 bdbd 3c7f bd3c 94d3 4abc
00000010: 4569 e23a a13e 1c3b 7bb4 033c 4e48 44bd
00000020: 5ca4 75bd 9257 44bc 7956 4cbd 0d7c d13c
00000030: 78b1 aebc ea30 c5bd 809a 59bd bdb9 f2bb
00000040: b6a7 a6bd 462b a9ba 51f8 d73c 15e6 dfbd
00000050: 715c 08bd 0706 82bd 0a79 5e3d 280e cebc
00000060: 50c6 f83b fb2e b53c 7cee 38bd 7184 a3bd
00000070: e48e 0d3d 02b6 d13c 80f1 f13a 0863 65bd
00000080: ed74 0b3c 32b8 07bc c1ac 3e3c 5003 68bd
00000090: fa48 3abd 5e7f 743c ea5b 0b3c 500d a23b
000000a0: c9d5 08bd 53fe 2abd 480c cdbd 6890 2dbd
000000b0: 0b5d cc38 5bea 483d 9245 07bd 2477 d7bc
000000c0: b9ae 52bd 8d97 913b 2538 35bd 28fb 71bd
000000d0: 1856 ee3a 4459 643c 4050 dcbc 4261 01bd
000000e0: 9665 a1bd 654d 17bd d0d5 35bd 1102 b8bc
000000f0: 5c56 dabb f331 47bd 5610 d4bd cf93 63bd
00000100: 3f2d 98bc 438f 46bd bd56 26bd 5a43 98bd
00000110: 9bf6 22bd cd16 1fbd 7ba0 6ebd b9c8 893b
00000120: 655e b3bd 06a1 6e3d a7d8 7e3d 9c40 bdbd
00000130: bc4b 74bd 282c 213d e12e 403d edad 2dbd
00000140: fd88 243d 463c 98bc 5963 8bbd 0cc6 e63c
00000150: 5096 6b3c 4744 3cbd 4b16 e73c 9a20 193d
00000160: 157a b9bc 5ecf 2abd e678 2e3d 5f28 c4bd
00000170: 8ed9 b63c 4a01 7ebc 428b 093c 216a 00bc
00000180: 7ed2 503c 4322 aabb 9b4d 53bd 944a 14bc
00000190: 006e 89bd 39f8 f13b 10ed 1ebd 6efc 3a3c
000001a0: 24bb 5d3d deeb 98bc 31e5 cbbd 0704 5cbd
000001b0: b353 00bb b5ea b0bc daae 4c3d 7ebc cabd
000001c0: b337 473c 6092 563d 1b75 80bd 1be1 83bd
000001d0: ed77 a73c cf94 a5bd 7152 ba3c 31b2 03bd
000001e0: 38f9 02ba 2478 8d3c f958 7cbd aa9d ebba
000001f0: f0c1 99bd 5bf1 113d 759b 1f3d 9bd8 e93c
00000200: 0423 d8bc e9ba 6cbc 5449 2db9 604f 1c3d
00000210: 877f 2d3c 9478 b23c 5691 6cbd 0f48 30bd
00000220: 232b 8cbb 42f1 5bbc 63ed 493c fd91 e63c
00000230: cc1c 7cbc e166 98bd 4c36 95bd 9fee 8abb
00000240: ab61 46bc b48a 6bbd 2213 49bb bde8 2ebd
00000250: 9453 e2bd b8b0 24bb fc93 aebd 1e2a 10bd
00000260: 4bce b5bd 1381 1a3d b387 6bbd 6e09 98bd
00000270: 285f acbb 1a22 39bd 47e8 c43b e5ee a3bd
00000280: 98b4 39bc 7e81 463d 1481 8a3b df18 453d
00000290: be2e d23b 5f46 94bd 515f 75bd 29c7 f4b7
000002a0: 9315 473c 11c3 2bbc 9e73 7bbc 6b7a 3a3c
000002b0: c506 763d 1f96 2abd a70a acbd 7b9f 0d3d
000002c0: c8cc 65bd fbf7 aa3b 7b54 2abd 3961 30bc
000002d0: 7c3b 50bd a221 f6bb 79cc 93bc d5ce 15bd
000002e0: 90a7 a5bc 4bcf 1e3c 2a20 80bd fd5b 37bd
000002f0: f818 5cbd f31e a0bc 77ec 333d 9b63 32bd
00000300: 4864 283c 6436 aebb 88bb 81bd 1b0d 04bc
00000310: 31df 06bd 607c 283d 9718 7dbd 5c2a 75bd
00000320: cf55 17bd 69c9 d9bc b5e2 5bbd d283 8fbd
00000330: 6a9b 02bb 9811 94bd 87d6 d8bc c6a1 59bd
00000340: 85a5 0b3d cb95 37bd 2c28 0abb 5074 30bc
00000350: d286 d4bd efa6 24bd 3e1c 4b3c 62c0 79bd
00000360: a8d8 ac3a 778a 413c 2604 51bc 0434 f7bc
00000370: 2df0 91bc 557f 21bd cd09 66bc 9040 2ebd
00000380: 5c87 58bd d4c0 58bc 9d2a 9c3c 30fc 0abd
00000390: 4634 963d b29b cbbb 14c7 42bd 20e7 b1bc
000003a0: 1a6a 2ebc 33d5 13bd 2139 b6bc 7b88 a1bd
000003b0: 35b6 acbd 2003 bfbd 6caa b7bd c227 973c
000003c0: cc16 f13c a66e d8bc f2a3 e13b f301 1c3d
000003d0: 3ef7 47bb 11ed 003d 3c88 44bd 830c 5cbd
000003e0: 6aac 403b d802 07bd 98ba 183c d86c b03c
000003f0: 8717 6b3a cb06 ca3c 8c7a 133d 6d9e 24bb
0.0071410867 -0.09240741 0.02313196 -0.012379546 0.0017273804 0.002384104 0.008038635 -0.047920518
-0.0599712 -0.011983769 -0.049887154 0.025571847 -0.021324858 -0.0962847 -0.05312586 -0.0074073956
-0.08137457 -0.0012906573 0.026363524 -0.109325565 -0.033291284 -0.06348806 0.05431465 -0.025153235
0.007592 0.022117129 -0.04514931 -0.079842456 0.0345601 0.025599483 0.0018458813 -0.056002647
0.008511764 -0.008283662 0.011637867 -0.056643784 -0.045479752 0.014922945 0.008505801 0.0049454346
-0.033407006 -0.04174645 -0.10012108 -0.042374045 9.7448086e-05 0.049051624 -0.03302533 -0.026301928
-0.05143616 0.004443115 -0.044242997 -0.059077412 0.0018183617 0.013937298 -0.026893735 -0.031586893
-0.07880704 -0.036939044 -0.04439336 -0.022461923 -0.006663127 -0.04863162 -0.10354678 -0.055560883
-0.018576263 -0.04847647 -0.040610064 -0.07434721 -0.039785963 -0.038840104 -0.058258515 0.004204836
-0.08758239 0.058259033 0.062218335 -0.09240839 -0.05964254 0.03934875 0.046919707 -0.042402197
0.040169705 -0.018583428 -0.068060584 0.028170608 0.014379099 -0.04596355 0.028208872 0.037384607
-0.022641221 -0.041701667 0.042595766 -0.09578013 0.022320535 -0.015503237 0.008395018 -0.007837803
0.012745498 -0.0051920726 -0.051587682 -0.009050984 -0.06710434 0.007384327 -0.0388003 0.011412723
0.05413355 -0.018667158 -0.09955824 -0.05371478 -0.0019581139 -0.021596292 0.04997144 -0.09899233
0.012159276 0.052385688 -0.06272336 -0.0643942 0.020442927 -0.080850236 0.02274439 -0.03215236
-0.0004996243 0.017269202 -0.06160829 -0.0017976065 -0.07507694 0.035630565 0.038966615 0.028545668
-0.026383884 -0.01444886 -0.00016525883 0.038161635 0.010589487 0.021786012 -0.05775579 -0.04303747
-0.0042776032 -0.01342422 0.012324664 0.028145785 -0.015387725 -0.074414976 -0.07285747 -0.0042398716
-0.012108247 -0.057505324 -0.003068157 -0.042702425 -0.110510975 -0.0025129747 -0.085243195 -0.035196416
-0.08877238 0.03772075 -0.05750246 -0.074236736 -0.005260367 -0.045198537 0.006009135 -0.0800455
-0.011334561 0.048463337 0.004226813 0.048119422 0.0064142635 -0.07239985 -0.059905354 -2.9179808e-05
0.01215114 -0.010483519 -0.0153473895 0.011381726 0.06006505 -0.041647073 -0.08400469 0.03457592
-0.056103498 0.00521755 -0.041584473 -0.010765367 -0.05083798 -0.0075113336 -0.018041836 -0.036574204
-0.020221502 0.009692977 -0.06256135 -0.04476546 -0.05373475 -0.019546008 0.043926682 -0.043552022
0.010277815 -0.0053165425 -0.06334597 -0.008059765 -0.032927696 0.04113424 -0.06179103 -0.05985485
-0.036947068 -0.026585298 -0.053683 -0.070075646 -0.001992906 -0.07229918 -0.026469482 -0.053132795
0.0340934 -0.044820588 -0.0021081073 -0.010769919 -0.103772774 -0.040198263 0.01239687 -0.060974486
0.0013187127 0.011812798 -0.012757337 -0.03017617 -0.01781472 -0.039428074 -0.014040423 -0.04254204
-0.052863464 -0.013229568 0.019063288 -0.03393191 0.07334189 -0.0062136287 -0.047553137 -0.021716654
-0.010645414 -0.036091994 -0.022244038 -0.0788736 -0.08433191 -0.09326768 -0.08968052 0.018451575
0.029429816 -0.026419949 0.006885999 0.038087796 -0.0030512358 0.031476084 -0.047981486 -0.05372287
0.0029399642 -0.032961696 0.009321831 0.021536276 0.00089680444 0.024661442 0.03600554 -0.0025118843

fc2.bias f4 [256]
00000000: cb60 853b 7fc6 79ba 0996 36bd d8c9 29bd
00000010: 22b4 d7bd 6e59 883b a3a7 2d3e 31a6 c3bd
00000020: f00e 97bd 6dea f83c 88b6 98bd 5c85 003c
00000030: 39de f33c c329 853c 6fd1 52bd f377 bebd
00000040: fd5f 25bc 9210 31bc 2b67 a8bc 20c5 4d3e
00000050: f805 c3bc 1417 033d b5c3 36bd 7c35 843a
00000060: ef6f f73c 349b b4bb b529 c3bd 01b5 ccbd
00000070: 91a9 f03c 5dbf cbbd 008f 49bd be29 a7bd
00000080: 2020 f5bc 68a0 eabc 3f8f f6bd ce22 023e
00000090: a648 cfbb b9c4 f5bc f132 41bd 391b 17bc
000000a0: e0ae 01bd 766d 75bd 2e9f f5bc a143 90bd
000000b0: 81c4 4cbd 1f86 c6bc 6cd1 8d3d b1c9 41bb
000000c0: f7fc 0fbd c0ce ecbc 4806 8bbb 5730 91bd
000000d0: 1f91 a5bd f9b1 babd ef4c 89bc 7895 c9bc
000000e0: e0ed 23bc 6ad5 acbd 348d 83bd cd2e c6bd
000000f0: f340 14bd 8f80 8d3d 0660 c9bd fd94 a4bd
00000100: 85e3 57bd e2f7 133b 6d1f cabc 05f2 e53b
00000110: 3486 3cbd ef40 fb3c 1328 ab3b e582 923a
00000120: 7b48 103d dc46 8dbd bce5 92bd 7830 2f3c
00000130: e778 7d3c 5151 803d 783f 273d 306b 433d
00000140: 34ae e0bd 6337 10bd 35aa c1bd b36f a7bd
00000150: a69e 11bc 3b82 1c3d 8452 88bd c1c0 d13c
00000160: 26b7 963d 9d20 91bd 31b7 69bd 7ccb c83d
00000170: d5d8 96bd ac05 203c afc8 97bd d1e1 57ba
00000180: d014 65bd bff5 9bbd 86d0 d9bd 469e dcbd
00000190: 7b5f b93c 9ce9 83bc 2031 9f3d 2fbe 82bd
000001a0: 710a 83bd d411 6fbd dc72 8cbd 53aa 61bd
000001b0: ade3 6f3c 4a11 cabd 444b b6bd 9b70 a3bc
000001c0: d696 d8bb f74d c3bd 1613 dcbd 5f38 f63d
000001d0: 2a45 78bd 836b 0d3e 6432 bb3c 0ebe 6b3c
000001e0: 2e55 4e3d cb99 12bd 6752 c5ba 57ae a83d
000001f0: a253 543c 98fb cabd a432 c5bc 0bb1 0cbc
00000200: 615f 59bd d991 d5bd debf c3bd 3d1c ca3c
00000210: d741 ffbc cc88 b7bd b523 edbb 9ba8 51bc
00000220: 3625 c4bc ccb3 d63c bb0d 5c3c bade 0ebd
00000230: 3798 6fba e18a aabd 4e5e 59bd 185a b3bd
00000240: 8ea5 943b 5e2a a73d 353d 373c 485b 613d
00000250: 6710 4dbd c224 c6bb d804 a3bc d4d1 b5bd
00000260: 1fad c5bd 3c6b dcbd 4020 f4bc cf20 053c
00000270: 8645 0cbd 0c10 2dba b2c9 073c f078 873b
00000280: c4a1 593c c3b4 b13c 1109 aebd 2727 1d3b
00000290: a06f 8ebd 65c4 a6bd 213d 09ba 5db1 cdbb
000002a0: 084e 083e 082c 573d 9181 b83c 8429 0a3d
000002b0: 3f74 85bd 477b 37bd 0565 13bd db12 84bd
000002c0: 161a 53bd 4fff 9fbd 9faf babc b087 53bd
000002d0: e0a7 83bd dc4b 603c b249 4f3c b3c7 dc3d
000002e0: baa2 1cbb 6ebb c6bc ac86 a6bd e61b 93bd
000002f0: f504 363c 3584 013e a265 13bd 9fcb c7bb
00000300: 4b51 73bc e14b 61bd 2e67 a93c 4e57 75bd
00000310: 9b67 ff3a 91a2 93bd 647f 8abd 9727 913c
00000320: c74c 34bd f239 b03d 1a7e 8bbd fda7 a5ba
00000330: 7643 723d d14b b0bd 70a5 73bd afeb cebd
00000340: f955 21bd 423a 28bc e865 063e 711d b9bd
00000350: ff2f 4c3a eb1b cb3d b5f4 60bc a99f c8bd
00000360: 3871 493b ff88 5a3d 5d6e ef3b 700f 0ebd
00000370: ed20 8abb 535c cbbd 0b5d 4ebd 0130 f43d
00000380: 9d77 7cbd f020 eb3c 9000 c23d b9dd 5dbd
00000390: e163 a83b be67 543d ccc4 103b 6c2d 413e
000003a0: cac8 70bd f1b3 70bd 3bc4 0cbd 8504 e4bc
000003b0: 1191 8abd cddb 0f3c 987f ca3c e5e2 a9bd
000003c0: 37d2 5abd f9f4 e5bc 3f59 923b bd2b c5b7
000003d0: e2db de3c 6808 8cbd 495a 93bd a248 d33b
000003e0: f498 913b 81ae 32bc de2f 6abd 4690 f7bc
000003f0: 3852 b2bd 30fe 253c c672 e23b 5ec1 203e
0.0040703765 -0.00095281744 -0.04457668 -0.04145226 -0.105324045 0.0041610515 0.1695848 -0.09553183
-0.07375896 0.03038522 -0.0745669 0.007844295 0.02976905 0.016255265 -0.051469263 -0.09300222
-0.010093686 -0.010807173 -0.020557007 0.20094728 -0.023806557 0.03200443 -0.044620235 0.001008674
0.030204741 -0.0055116657 -0.09529439 -0.09995461 0.02937773 -0.09948609 -0.04920864 -0.081622586
-0.029922545 -0.02864094 -0.12039041 0.1270859 -0.006325799 -0.030001031 -0.047167722 -0.009222799
-0.031660914 -0.059918843 -0.02998313 -0.07044149 -0.04999209 -0.024233876 0.0692471 -0.002956968
-0.035153355 -0.02890718 -0.004242692 -0.07089298 -0.0808432 -0.09115977 -0.016760318 -0.024607405
-0.010005444 -0.08439143 -0.06423417 -0.09676895 -0.036194753 0.06909286 -0.09832768 -0.0803623
-0.052707214 0.002257817 -0.024673188 0.0070173764 -0.046026424 0.030670611 0.005223283 0.0011177926
0.035225373 -0.06898281 -0.071727246 0.010692708 0.01547072 0.0626551 0.040832013 0.047709644
-0.109707266 -0.03520907 -0.094562925 -0.08175602 -0.008887922 0.038210135 -0.066563636 0.025604608
0.073591515 -0.070862986 -0.05705947 0.098044366 -0.07365576 0.009766977 -0.07411324 -0.00082352484
-0.05592805 -0.07615232 -0.10635476 -0.10772376 0.022628536 -0.016102605 0.07773042 -0.06383931
-0.06398476 -0.05836661 -0.06857845 -0.055094074 0.0146416845 -0.09866579 -0.089010745 -0.019951155
-0.006609778 -0.09536355 -0.10745828 0.12022471 -0.060612835 0.13810544 0.022851177 0.014388574
0.050374202 -0.0357912 -0.0015054465 0.08236378 0.012959393 -0.09911269 -0.024071999 -0.008587132
-0.053069476 -0.10428209 -0.0955808 0.024671668 -0.031159325 -0.08961639 -0.0072369226 -0.012796546
-0.023943525 0.02620878 0.013431008 -0.034880377 -0.0009139808 -0.0832727 -0.05306845 -0.087574184
0.004536337 0.08162378 0.0111840265 0.055018693 -0.05006447 -0.0060468623 -0.01989977 -0.08877912
-0.09652161 -0.10762641 -0.029800534 0.008125498 -0.03424599 -0.00066018174 0.008287834 0.00413429
0.013283197 0.02169264 -0.08497823 0.0023979635 -0.069548845 -0.08142928 -0.0005235244 -0.006277247
0.13311017 0.052532226 0.02252272 0.033731 -0.06516313 -0.0447953 -0.03598501 -0.06448909
-0.05153855 -0.07812368 -0.02278882 -0.051643074 -0.06428504 0.013689961 0.012651848 0.10780277
-0.0023900704 -0.024259295 -0.08131155 -0.071830556 0.01110958 0.12648089 -0.035985596 -0.0060972716
-0.014850925 -0.055004004 0.020679083 -0.059897713 0.0019485833 -0.072087415 -0.06762579 0.017719073
-0.044018533 0.08604802 -0.06811161 -0.0012638565 0.059146367 -0.08608211 -0.059483945 -0.10103547
-0.03938863 -0.010267796 0.13124812 -0.09038819 0.00077891344 0.09917434 -0.013730218 -0.09796078
0.003073765 0.053353306 0.0073068575 -0.03468269 -0.004215351 -0.09929719 -0.0503817 0.119232185
-0.06163751 0.02870223 0.094727635 -0.05416653 0.0051388596 0.05185675 0.0022089956 0.18864983
-0.058785237 -0.058765355 -0.034366827 -0.027834186 -0.067659505 0.008780432 0.024719045 -0.0829523
-0.053423133 -0.028070914 0.0044662054 -2.3504597e-05 0.027204458 -0.06837541 -0.07194955 0.0064478675
0.0044432823 -0.010905863 -0.057174556 -0.030220162 -0.08707088 0.010131404 0.0069106547 0.15698764

fc3.weight f4 [2, 256]
00000000: 506e a9bc de4f 30bc b799 40bc b03e fcba
00000010: 9326 5ebd 3e0e 553d 5106 5f3e 1c74 75bc
00000020: 7b46 2dbc 6580 483e 92ab 9abb 06a1 3fbd
00000030: 50c3 6a3d 80f9 3e3c a5e4 8bbb 5496 a5bb
00000040: 3ee4 d23b 0517 3a3c 482d e03c 2737 263e
00000050: d07d e1bc 7c91 5b39 baf0 5e3b bdae 163c
00000060: 40f1 fb3c c88f 893d b0e7 4e3c af0e 003c
00000070: 1aed af3d db62 26bd d94a 343c bd3c 14bc
00000080: 1c32 7f3b 7ed5 22bc 6c0a b2bc 0962 363e
00000090: b550 bbbc 71de 123c 3a89 bcbc 48a0 813d
000000a0: 912e e6bb 579a 213c 509c 63bd 47b4 843b
000000b0: a73f 2b3c 12c1 9c3c d419 193e e48d 57bc
000000c0: 38b7 f63b 15b4 1f3c afb7 4cbb 6056 3d3d
000000d0: 3732 003b 3344 11bd c789 d6bb de2a 063c
000000e0: 404e 3f3d 4892 a8bb 4567 c8bc 4a37 8f3c
000000f0: a995 7e3d 7b71 763d 6a12 263c d28d 1ebd
00000100: 8fcf be3b c792 80bc ad9e ad3d 6fc4 74bc
00000110: fe8c 17bd 365f e8bc 15be 1c3c 0826 973b
00000120: 52da 1c3e 57d1 53bc fcb7 10bc 7b22 993c
00000130: 1b58 003d ce72 5f3d 4341 403d 88c2 173d
00000140: f327 cabc 94ab 03bd ebc7 0f3d e5b2 3d3d
00000150: 1a6e d7ba 18d8 d33b f211 4b3c 3946 8b3b
00000160: f860 533e 4cf9 aabc db8c 7a3d 1ad8 603e
00000170: 93d2 513c daaf 8bbb 9cb8 cabc e71a 9e3d
00000180: c4d6 e33b e8c1 4e3d 5061 fd3b 8e06 d33c
00000190: 8c5b 8c3d e4ca 853d 0236 353e 40d4 15bc
000001a0: 350c e63a 59e7 503d 9140 18bc 238e 2f3c
000001b0: e12f 8b3d d444 8bbb 3e81 0dbd 8105 d33b
000001c0: f7f2 283b d64e 853b 4bae 073d ac6f 303e
000001d0: 6c62 febc 6769 023e 5816 07bc 0817 ad3b
000001e0: 9d0d 5d3d f4b4 023b 4355 0a3b 9748 8f3e
000001f0: 9877 243c a2a2 a9ba b464 43bc 5879 603b
00000200: 97cc d03b a2b6 48bc 5a54 b8bc 6dcc 92bc
00000210: 9f37 39bc 1954 453d 143d 04bb 99bd 073c
00000220: 23fb 18bc bcc8 f03c 66b6 adbc db07 cabb
00000230: e6a8 32bc bb03 273c 08dd d13b 7833 013d
00000240: fc44 173c 48b9 fd3d c5ff ef3b 90cb 073e
00000250: 7792 493c 16d5 883b dcb2 b23c 78ed 5a3a
00000260: f825 ccbb a705 c2bb f208 893b cd70 ceba
00000270: b69e dc3b 7a7c 473a 324d 983c a05a f13a
00000280: 82f3 0b3a 7ca2 b1b9 d6ce 4439 1e41 ac3c
00000290: a09c 453c 83cf 2a3a 8871 61bc 5073 253d
000002a0: 02a8 8b3d 853a 003d 6612 613d 1221 053c
000002b0: 5b54 26bd 6f62 073d 5477 783d fd9d b53b
000002c0: 5125 4e3d cce0 19bd 2109 98bc 3d93 b83a
000002d0: b8b7 41bd 7570 6c3d 212e d4bb ae01 353e
000002e0: e528 b13c c392 d2bb a5e3 303c 801a 0cbd
000002f0: 2acc ceba 5409 3c3e 9fba 5b3d a69c 2dbd
00000300: 4e2c 5c3d d184 3e3d 02ed 1f3b 3853 103c
00000310: 2585 933b 1085 d23a e8bd 1a3b 4f25 0d3c
00000320: 29da b1bb 0710 523e 1f05 fe3b 2a91 d4bc
00000330: b90c 583d 8713 8b3d 273d e63c f98a 95bc
00000340: 589d de3b 9948 d4bc 1813 693e 998d 083c
00000350: 51fb 843d daab 713e 4e09 d13b 1452 09bb
00000360: b853 083e 5f12 493e cc6f 483b ae3d 79bc
00000370: 7ebb 183d 6192 e7bc 3a6c 1c3b d286 243e
00000380: 1b67 633b fb9c f93b 4535 dd3d 6876 403b
00000390: ed90 183c bd77 893d 88f1 13bd a980 013e
000003a0: 31c4 0cb6 957e 36bc e58a d4bb e825 203c
000003b0: 871f b7bc 1d48 673d 190a 073d ee1e aabc
000003c0: 2177 0f3d 7b52 99bc 5849 8abb 49ff 273d
000003d0: a339 903d 81bd 9b3b 670f 09bd 796d 063c
000003e0: 152f 883d 1434 42bc 29f6 34bb b9f3 983b
000003f0: 2283 323d 8c07 973d dc40 15ba 2cbf b43d
-0.020682484 -0.010761229 -0.0117553985 -0.0019244757 -0.054236006 0.052015536 0.21779753 -0.014981296
-0.010575886 0.19580229 -0.00472016 -0.046784423 0.05731517 0.011656165 -0.0042692 -0.005053321
0.0064359 0.011358027 0.027365342 0.16231976 -0.027525812 0.00020939665 0.0034017996 0.009196934
0.030754685 0.06716877 0.012628481 0.007816001 0.085901454 -0.04062162 0.011004173 -0.009047684
0.003893978 -0.009938596 -0.021733485 0.17810835 -0.022865633 0.008964167 -0.023014653 0.06329399
-0.007024594 0.009863458 -0.055568993 0.004049811 0.010452188 0.019135032 0.14951259 -0.013156388
0.0075291656 0.009747525 -0.0031237414 0.04622495 0.001956118 -0.03546543 -0.006547186 0.008188931
0.046705484 -0.005144391 -0.024463305 0.017482419 0.062154446 0.060166817 0.010136226 -0.03870947
0.0058230828 -0.015694989 0.08477531 -0.014939412 -0.036999695 -0.028365713 0.009566803 0.004612688
0.15317658 -0.0129283285 -0.008832928 0.0186932 0.031334024 0.054552846 0.04693724 0.037050754
-0.024677252 -0.03214605 0.035102766 0.046313185 -0.0016436011 0.0064649694 0.012394415 0.0042503146
0.2064246 -0.020870827 0.061169486 0.21957436 0.012806552 -0.0042629065 -0.024746232 0.07719975
0.0069530923 0.050477892 0.007732548 0.025759961 0.06853399 0.06532839 0.17696384 -0.009144843
0.0017551245 0.05100188 -0.009292738 0.01071504 0.067962416 -0.0042501483 -0.034547083 0.006439865
0.0025779584 0.004068236 0.033125203 0.172301 -0.03105279 0.1273552 -0.008245073 0.0052822866
0.05396806 0.0019944282 0.002110795 0.2798507 0.010038279 -0.0012942145 -0.011925865 0.0034252014
0.0063720453 -0.012250574 -0.02250116 -0.017919743 -0.011304765 0.048175905 -0.0020178007 0.00828495
-0.009337219 0.029392593 -0.021205138 -0.006165487 -0.010904526 0.0101937605 0.006404523 0.031543225
0.009232756 0.12388855 0.0073241913 0.13261247 0.012302986 0.0041757924 0.021813802 0.00083514256
-0.006230112 -0.005921084 0.0041819746 -0.001575017 0.006732787 0.0007609796 0.018591497 0.0018413849
0.00053387147 -0.0003388113 0.00018769069 0.021027144 0.012061268 0.0006515907 -0.013759978 0.040393174
0.06819154 0.03130581 0.054949187 0.00812556 -0.04060779 0.033052858 0.060660675 0.0055425153
0.050328556 -0.0375679 -0.01855904 0.0014081966 -0.04729435 0.057724435 -0.0064752256 0.17676422
0.021625945 -0.0064261868 0.010796462 -0.03420496 -0.0015777398 0.18362933 0.053644773 -0.04238572
0.05375319 0.046513382 0.0024402742 0.008808903 0.004501956 0.0016061384 0.0023611728 0.008614852
-0.005427618 0.20513926 0.0077520753 -0.025948126 0.05274651 0.06790834 0.028105332 -0.018254744
0.006793659 -0.025913524 0.2276119 0.008334541 0.06493247 0.23600712 0.006379283 -0.0020953463
0.13313186 0.19635914 0.0030584214 -0.0152124595 0.03728818 -0.028268041 0.002386822 0.16067055
0.0034698907 0.0076175905 0.10801176 0.002936745 0.009311897 0.067122914 -0.036119014 0.12646736
-2.0975824e-06 -0.011138578 -0.006486284 0.009774663 -0.0223539 0.056465257 0.032968614 -0.020766702
0.03502572 -0.018716088 -0.004220169 0.041014943 0.07042243 0.0047528152 -0.033461954 0.008204811
0.06649605 -0.011853237 -0.0027612543 0.004667726 0.04358209 0.07374486 -0.0005693564 0.08825526

fc3.bias f4 [2]
00000000: 406c b83d 8b6d c3bd
0.09005022 -0.09542378
