checkpoint_actor1d.pth (torch_old, 159204 bytes, 6 tensors)

fc1.weight f4 [256, 24]
0.12693363 -0.0361099 -0.025596011 -0.11010716 -0.12322205 -0.12638271 -0.021051554 -0.033098623
0.07391731 -0.02766638 -0.0015500087 -0.054673806 0.01005403 -0.048897143 0.060505643 -0.0014757466
0.031508937 -0.09134677 -0.035423547 0.041602954 0.08803672 -0.13439883 0.029980758 -0.003565108
0.077171706 -0.012611583 -0.003900967 0.21095163 -0.109151244 0.022533067 0.0046165297 0.11819593
0.029499043 -0.10138238 0.053852197 -0.0035077438 -0.072358534 0.20961338 0.0064319163 0.0065527903
0.12376842 -0.031537138 -0.025462875 0.023485865 0.085197516 0.17058612 0.019750427 -0.014829997
-0.09134722 -0.026276326 0.040828846 0.20047748 0.024362994 -0.15552771 -0.041935503 0.14651933
0.0165138 -0.019016577 0.0044931388 -0.019047894 0.13048624 -0.12141645 0.023677101 0.0007880442
0.019337207 -0.03884643 -0.041551303 -0.005175743 0.21926437 0.032170366 0.0048283604 0.069947086
-0.003676816 0.18243483 0.027041756 0.34258246 -0.021686396 0.0715281 0.05086212 0.3356215
-0.031094994 0.1853791 -0.011505609 0.1054305 -0.021206176 -0.06312376 0.026942914 0.17727712
0.065401725 0.25005046 -0.05198324 -0.20466202 -0.09958298 -0.08721162 0.044498526 -0.17510405
-0.043786813 -0.2277745 0.064704105 0.16736645 0.135815 0.019288719 -0.04104006 0.095130995
-0.02987006 -0.17475614 0.00014041172 0.07798291 0.08353381 0.027629022 0.022123132 0.14529355
0.05775972 -0.10447605 -0.023873737 0.03514665 -0.089207165 -0.00034840044 0.014769791 0.10340047
0.03249605 0.14776713 -0.06498551 -0.3054849 -0.045584284 -0.044520885 0.013228536 -0.28725645
0.01862683 0.15736099 -0.02970711 -0.26939204 -0.075009376 -0.079402514 0.03788776 -0.24341726
0.019584022 -0.025086755 0.032664705 -0.07181203 0.014965006 0.0799764 0.04090668 -0.09800772
-0.033966966 0.13375697 0.048463564 -0.007708132 0.045010258 -0.09665325 0.07591059 0.08182949
0.03842668 0.123146094 0.01700032 0.06624473 -0.004777159 -0.06411942 -0.004243898 0.074480765
-0.01599825 0.13103816 -0.015975371 0.068345964 0.058441475 -0.2236625 -0.018028736 0.09911178
0.04722456 -0.016478248 -0.054094274 0.03399125 0.022806356 0.063566744 -0.026182655 -0.011822528
0.049550556 0.055212185 -0.054905463 -0.033205494 -0.051600777 0.0053769522 -0.04149378 -0.02569848
0.082634516 0.060216285 -0.023921343 0.046919066 -0.07414741 -0.0146806585 0.052625068 0.027430791
0.012288079 0.14660834 0.06698034 -0.18517898 0.11644518 -0.008582361 0.069434434 -0.21054308
0.06411374 0.12042201 0.020266162 -0.30687553 0.040919703 -0.010015696 0.04048043 -0.28213322
0.101645395 0.046982035 0.03205952 -0.24745502 -0.072162844 -0.0004125272 -0.045621965 -0.3137297
-0.0074762865 -0.053054128 0.020699074 -0.005605071 0.010696723 0.03390936 0.012524099 0.011984931
-0.07771243 -0.08640886 0.05078042 0.004288349 0.069334894 0.06951987 0.0055114217 -0.06600913
0.015442424 -0.12659778 0.0008319115 0.026986092 0.1491644 0.03298845 0.09778499 0.0008641306
-0.06748621 0.105022594 0.042079993 -0.112952955 -0.05909898 0.10417588 -0.00029792142 -0.057182502
-0.050203178 0.079519935 0.013646305 -0.045562875 0.08320572 0.035980783 -0.027717998 -0.0240796
00000000: e4fa 013e f9e7 13bd baae d1bc dd7f e1bd
00000010: d85b fcbd 786a 01be 4f74 acbc 6c92 07bd
00000020: f561 973d 9ba4 e2bc a929 cbba a4f1 5fbd
00000030: a9b9 243c 5f48 48bd c4d4 773d d76d c1ba
00000040: 840f 013d 0414 bbbd 4818 11bd dc67 2a3d
00000050: 994c b43d d99f 09be 359a f53c 96a4 69bb
00000060: 330c 9e3d d0a0 4ebc 5ea7 7fbb b403 583e
00000070: b08a dfbd 4497 b83c 4246 973b b510 f23d
00000080: faa7 f13c 91a1 cfbd 1f94 5c3d 2de2 65bb
00000090: b630 94bd e4a4 563e d3c2 d23b cab8 d63b
000000a0: 4c7a fd3d 162d 01bd 8597 d0bc 6e65 c03c
000000b0: 097c ae3d 21ae 2e3e a6cb a13c 84f9 72bc
000000c0: 4014 bbbd 7341 d7bc 263c 273d f849 4d3e
000000d0: e794 c73c a842 1fbe 90c4 2bbd 2a09 163e
000000e0: f347 873c a7c8 9bbc 2e3b 933b 540a 9cbc
000000f0: 2f9e 053e 30a9 f8bd 7bf6 c13c c094 4e3a
00000100: 1069 9e3c 6f1d 1fbd b331 2abd 4799 a9bb
00000110: d786 603e 13c5 033d 3937 9e3b 6b40 8f3d
00000120: bcf6 70bb 32d0 3a3e ac86 dd3c f866 af3e
00000130: aba7 b1bc 537d 923d cc54 503d 95d6 ab3e
00000140: eeba febc 05d4 3d3e 0682 3cbc f2eb d73d
00000150: 93b8 adbc 0847 81bd 63b7 dc3c 2288 353e
00000160: 57f1 853d 9d06 803e 61ec 54bd ec92 51be
00000170: 29f2 cbbd 019c b2bd 1644 363d 7a4e 33be
00000180: cd59 33bd b83d 69be 9683 843d 1c62 2b3e
00000190: 1613 0b3e 6003 9e3c 9f19 28bd 0ad4 c23d
000001a0: 0eb2 f4bc 46f3 32be 7c3b 1339 81b5 9f3d
000001b0: c613 ab3d 4256 e23c 923b b53c d5c7 143e
000001c0: 7595 6c3d 8af7 d5bd db92 c3bc eff5 0f3d
000001d0: 3fb2 b6bd 84a9 b6b9 fefc 713c a0c3 d33d
000001e0: 941a 053d 4450 173e 2017 85bd 8468 9cbe
000001f0: 96b6 3abd 885b 36bd 80bc 583c 4713 93be
00000200: 4b97 983c 3d23 213e 535c f3bc c1ed 89be
00000210: 849e 99bd c99d a2bd 3230 1b3d 6042 79be
00000220: ac6e a03c bd82 cdbc 6dcb 053d 3012 93bd
00000230: c92f 753c abca a33d c38d 273d 46b8 c8bd
00000240: f220 0bbd 96f7 083e bb81 463d 7f94 fcbb
00000250: ad5c 383d 24f2 c5bd 0377 9b3d 3896 a73d
00000260: 4b65 1d3d 0534 fc3d 4144 8b3c 51ab 873d
00000270: b789 9cbb 0b51 83bd 6610 8bbb 5f89 983d
00000280: c30e 83bc de2e 063e c8de 82bc f8f8 8b3d
00000290: 5460 6f3d c807 65be 00b1 93bc 1efb ca3d
000002a0: 8a6e 413d 64fd 86bc f591 5dbd 693a 0b3d
000002b0: 65d4 ba3c 482f 823d 027d d6bc 47b3 41bc
000002c0: 86f5 4a3d 2c26 623d 8de4 60bd 7c02 08bd
000002d0: 565b 53bd 2531 b03b 62f5 29bd 9e85 d2bc
000002e0: 493c a93d 5aa5 763d b1f6 c3bc 352e 403d
000002f0: 99da 97bd 2587 70bc 628d 573d 8ab6 e03c
00000300: f053 493c 7f20 163e fd2c 893d 8f9f 3dbe
00000310: cf7a ee3d 089d 0cbc a433 8e3d 9b98 57be
00000320: 114e 833d d19f f63d 3905 a63c ca1e 9dbe
00000330: 6b9b 273d e018 24bc cfce 253d c473 90be
00000340: 762b d03d 3c70 403d d850 033d d964 7dbe
00000350: 1dca 93bd 7748 d8b9 19de 3abd 2ea1 a0be
00000360: a3fb f4bb 494f 59bd 1b91 a93c beaa b7bb
00000370: 4f41 2f3c 8be4 0a3d e131 4d3c 725c 443c
00000380: b227 9fbd 21f7 b0bd 21ff 4f3d 4785 8c3b
00000390: 74ff 8d3d 6f60 8e3d 2899 b43b cb2f 87bd
000003a0: 3902 7d3c d9a2 01be a314 5a3a f011 dd3c
000003b0: 8dbe 183e e61e 073d 7f43 c83d d386 623a
000003c0: 3636 8abd 1616 d73d 125c 2c3d e153 e7bd
000003d0: c611 72bd 2a5a d53d 5632 9cb9 3338 6abd
000003e0: d9a1 4dbd 59db a23d c094 5f3c 23a0 3abd
000003f0: c367 aa3d 9660 133d db10 e3bc 9542 c5bc

fc1.bias f4 [256]
-0.06596572 0.013938177 0.07346858 0.10598072 -0.08304947 -0.22900036 -0.20388095 -0.040050242
-0.2069832 -0.18945226 0.087734655 0.0975217 0.020127237 -0.19395015 0.06340067 0.20305698
-0.0082311835 0.11285643 -0.059126932 -0.12910736 0.05859786 -0.18683119 0.014229778 -0.16066019
-0.023156742 -0.19586197 0.06977942 0.032457065 -0.14270619 -0.072850384 -0.0889871 -0.13239862
-0.081413895 -0.016162219 -0.1073731 0.07666394 -0.12031633 0.22592263 -0.110482834 0.10886195
-0.14434737 -0.14035133 -0.06175137 -0.1629374 -0.0024806892 -0.052301385 -0.097647786 -0.15288085
0.19396546 0.16444056 -0.11154152 0.17405525 -0.11513375 -0.22382882 0.048894595 -0.017177206
0.056547888 -0.08017446 -0.20514452 0.08750462 0.1144065 0.07945201 -0.038061883 -0.19385272
0.10416659 -0.015648216 -0.14226016 0.1112151 -0.21815646 -0.13358927 -0.10002125 -0.13326533
-0.17160405 -0.117529124 -0.13549224 0.18337387 0.08074667 0.2540131 -4.2979453e-05 -0.033272184
0.0023981074 -0.045657158 -0.18262678 -0.15581171 0.11967931 -0.13491748 -0.047330774 0.08599535
-0.12809272 0.034696817 -0.023746733 0.093550265 -0.12556104 0.16820301 -0.1271575 -0.23664226
0.1469526 -0.17319867 0.18726867 0.040301103 0.08287984 0.0055371965 0.03985285 0.034404483
-0.005049916 0.21130703 0.17895055 -0.052792262 0.113660835 -0.046434503 -0.095556274 -0.112486824
-0.11123397 -0.25473678 -0.08391659 0.115739286 0.2155347 -0.26007095 -0.1447818 0.14408258
-0.11862803 -0.075414225 0.16894229 0.18564118 0.09799743 0.04323354 -0.072371416 0.08219301
0.080764115 -0.21427968 -0.22739972 0.17512229 -0.20612723 0.06844969 0.14616257 0.21451002
0.055057116 -0.059044905 0.03283358 0.11115218 0.005983419 -0.1447205 0.1775937 0.06811686
0.12116537 -0.16080754 -0.02585623 -0.106836066 -0.03831777 0.20735668 0.031288113 0.138635
0.1953417 -0.18545817 0.1309533 -0.05555395 0.16368134 0.051966 -0.00083199213 0.22867912
-0.20524643 0.008130351 -0.1297683 0.009795916 -0.08050136 0.07294176 0.025606109 0.07516093
0.052501295 0.1768552 0.008068493 -0.23474519 -0.12798822 -0.21137118 -0.1656778 -0.13686667
0.053853236 0.12847216 -0.073097296 0.08846159 -0.0660376 0.21330038 0.13632832 -0.0257993
0.22093606 -0.2191813 -0.15960163 -0.12553303 0.04933329 0.16156305 0.12093496 0.096104
-0.0362461 -0.048789535 0.13933356 -0.1177134 -0.09927348 0.120499805 0.13855778 0.016851518
0.029174685 -0.03518325 0.014869971 -0.08884227 0.2069519 0.2159231 -0.0016240719 0.16529821
-0.05072067 -0.12687753 0.053810913 -0.011315082 0.18497503 -0.002546234 -0.033318058 -0.20293973
0.09469395 0.096194685 0.013158431 -0.078398526 -0.0797364 0.072810374 0.17511722 -0.064502165
-0.05002761 -0.13729094 0.08553226 -0.10219779 0.0011141715 -0.1538609 0.13124484 0.13640599
-0.04310769 -0.053008832 0.04813334 0.06715606 -0.12918246 0.08746626 0.066598214 0.13788326
-0.12661213 -0.2070012 0.03237045 -0.0074402527 -0.09315779 0.13390109 -0.08796383 -0.11841589
-0.06288767 -0.14670207 -0.1146824 -0.119346164 0.23789676 0.25049138 -0.050651263 0.10868139
00000000: 0919 87bd f45c 643c b276 963d 6b0c d93d
00000010: d715 aabd 127f 6abe 2bc6 50be b90b 24bd
00000020: 67f3 53be c6ff 41be 3aae b33d 75b9 c73d
00000030: e0e1 a43c de9a 46be 36d8 813d 2bee 4f3e
00000040: 16dc 06bc 4621 e73d 152f 72bd b834 04be
00000050: 4f04 703d ad50 3fbe 0424 693c 1b84 24be
00000060: 35b3 bdbc 0a90 48be 83e8 8e3d b3f1 043d
00000070: 9221 12be 9532 95bd de3e b6bd 8193 07be
00000080: 54bc a6bd a166 84bc 6ee6 dbbd fc01 9d3d
00000090: 6868 f6bd 4358 673e d344 e2bd 04f3 de3d
000000a0: cccf 13be 42b8 0fbe 01ef 7cbd 10d9 26be
000000b0: 0f93 22bb fa39 56bd 90fb c7bd cc8c 1cbe
000000c0: e29e 463e 1b63 283e e16f e4bd 8a3b 323e
000000d0: 3ecb ebbd 6233 65be b345 483d 36b7 8cbc
000000e0: c29e 673d 8232 a4bd 6811 52be 9f35 b33d
000000f0: f44d ea3d bcb7 a23d c7e6 1bbd 5481 46be
00000100: 4b55 d53d b030 80bc a6ac 11be bec4 e33d
00000110: 6864 5fbe a0cb 08be f1d7 ccbd b576 08be
00000120: f9b8 2fbe 1cb3 f0bd 7abe 0abe 5cc6 3b3e
00000130: 835e a53d 010e 823e d644 34b8 6a48 08bd
00000140: 9129 1d3b 0003 3bbd 8402 3bbe 1b8d 1fbe
00000150: 6d1a f53d cf27 0abe eadd 41bd 541e b03d
00000160: bd2a 03be 401e 0e3d 8288 c2bc 4897 bf3d
00000170: 1393 00be 693d 2c3e 9335 02be 5952 72be
00000180: be7a 163e fe5a 31be 5cc3 3f3e c512 253d
00000190: e8bc a93d 5f71 b53b be3c 233d b7eb 0c3d
000001a0: c479 a5bb df60 583e d03e 373e b33c 58bd
000001b0: 03c7 e83d 1b32 3ebd 02b3 c3bd 7e5f e6bd
000001c0: a3ce e3bd dc6c 82be 76dc abbd b808 ed3d
000001d0: 21b5 5c3e 0528 85be ae41 14be 628a 133e
000001e0: 41f3 f2bd c672 9abd 35ff 2c3e b918 3e3e
000001f0: e0b2 c83d a715 313d 7737 94bd cf54 a83d
00000200: a867 a53d 226c 5bbe 79db 68be 4253 333e
00000210: 0413 53be 5a2f 8c3d a4ab 153e 84a8 5b3e
00000220: 9283 613d 12d9 71bd 817c 063d c1a3 e33d
00000230: 8e10 c43b 9c31 14be 1fdb 353e da80 8b3d
00000240: 8d25 f83d bbaa 24be 72d0 d3bc decc dabd
00000250: 18f3 1cbd 4f55 543e f727 003d 55f6 0d3e
00000260: a807 483e bfe8 3dbe 9f18 063e 8a8c 63bd
00000270: 159c 273e 4dda 543d 0c1a 5aba dc2a 6a3e
00000280: 1f2c 52be 2a35 053c fbe1 04be 0d7f 203c
00000290: e6dd a4bd 7d62 953d e7c3 d13c f9ed 993d
000002a0: 990b 573d 8819 353e b631 043c 0b61 70be
000002b0: 580f 03be b071 58be 71a7 29be c726 0cbe
000002c0: 3695 5c3d 358e 033e 09b4 95bd 5a2b b53d
000002d0: b93e 87bd 6a6b 5a3e a799 0b3e 0e59 d3bc
000002e0: 103d 623e 1071 60be 9c6e 23be bb8b 00be
000002f0: b411 4a3d c970 253e c0ac f73d 2dd2 c43d
00000300: ca76 14bd 89d7 47bd 75ad 0e3e b913 f1bd
00000310: e54f cbbd 9ac8 f63d 17e2 0d3e 320c 8a3c
00000320: c0ff ee3c 501c 10bd 2ea1 733c f0f2 b5bd
00000330: 33eb 533e f21a 5d3e cfde d4ba ef43 293e
00000340: 7ac0 4fbd 2fec 01be d568 5c3d e562 39bc
00000350: 186a 3d3e b8de 26bb 8478 08bd 6fcf 4fbe
00000360: e7ee c13d b801 c53d 7696 573c 688f a0bd
00000370: d64c a3bd 9b1d 953d ee51 333e b619 84bd
00000380: c0e9 4cbd ff95 0cbe 8a2b af3d 134d d1bd
00000390: 6409 923a b68d 1dbe 0c65 063e 03ae 0b3e
000003a0: b091 30bd ca1f 59bd 7727 453d 1e89 893d
000003b0: 6848 04be 8321 b33d a564 883d 4531 0d3e
000003c0: 9ca6 01be 1ff8 53be e196 043d 5dcd f3bb
000003d0: 83c9 bebd 5e1d 093e 6126 b4bd 0884 f2bd
000003e0: 40cb 80bd 1139 16be 9bde eabd c36b f4bd
000003f0: 359b 733e 6840 803e b377 4fbd 5994 de3d

fc2.weight f4 [128, 256]
-0.0073298025 -0.1348348 -0.0369607 -0.069736145 0.03257493 0.034064636 -0.006814252 0.11666797
0.009380709 0.12022174 -0.055723034 -0.09753271 -0.25820464 -0.08532379 0.059996434 0.0901483
0.08473308 0.055287022 -0.022545151 -0.085468695 -0.03184644 0.09634213 0.020077601 0.037770357
-0.013260771 0.043145314 -0.098503426 0.0025390151 -0.16878931 -0.060200166 0.14508185 0.031144382
0.091373704 0.05824169 0.010882271 0.038959254 0.012700435 -0.15182023 0.099416554 0.11745958
-0.04735952 0.069264464 0.028842693 -0.07308625 0.13630131 0.045525447 0.097013384 0.030346317
0.027721617 -0.055365413 -0.095586024 -0.017518174 0.036702413 -0.021618312 -0.20830554 -0.05063741
-0.007162574 0.038134415 -0.08941845 -0.018355202 -0.06527192 -0.05078596 0.030155106 0.047007475
-0.0481399 -0.009271786 0.039718125 -0.063584 -0.06274615 0.07831256 0.03506403 -0.058452185
-0.08004811 0.117439374 0.0313363 -0.06519669 0.032169197 -0.05969526 0.027292395 -0.0770508
0.05269198 -0.21596424 0.006012279 0.24451318 0.06634022 -0.11908827 -0.14801414 0.0016931357
-0.066924594 0.004560408 0.052065797 0.0025299783 -0.095128044 0.0383593 -0.014567067 0.028489888
0.083832435 0.06390538 0.031376593 -0.019138038 -0.07859817 0.007017321 -0.0041614375 0.098013364
0.0556223 -0.0044473917 -0.0008728344 0.06922689 -0.17827614 0.06267681 -0.039026704 -0.11707048
-0.031574786 0.041266188 -0.050509796 -0.08955811 0.019209076 0.031822532 -0.078701824 0.014148877
0.08108211 -0.0010785416 -0.19621414 0.016140206 -0.15506686 0.15084071 0.038846225 -0.0519332
0.063862905 0.024526529 0.016867496 0.052114945 -0.03885347 0.056353524 0.06560669 -0.05065737
0.052526075 0.095132165 -0.049401235 0.07597527 -0.016105821 -0.007078213 0.1068236 -0.17373876
0.013880933 0.09887735 -0.09897148 -0.022371156 -0.008302515 0.004275895 0.016276449 -0.11881889
0.02797337 0.021144915 0.036605656 0.042071126 -0.061145365 -0.0061752843 0.042024612 0.031739965
0.020373626 -0.0056570326 0.0807989 -0.057203487 -0.05318736 -0.14543428 -0.20631586 0.005765442
0.07232697 0.050920613 -0.043636177 -0.11343883 -0.069439314 -0.06544319 0.0075728833 -0.09167537
-0.000400998 -0.0030537809 -0.044083845 0.10247726 0.066824496 -0.030220563 0.043640096 -0.024237799
-0.0012199514 0.046972282 0.009473015 -0.0054598968 -0.10735282 0.1332534 -0.06243151 -0.039137755
-0.18992823 -0.0522384 -0.118871056 0.048180364 -0.16774672 -0.021911532 -0.016460307 -0.06715479
0.022320395 0.028612213 -0.127184 -0.12750421 -0.035693035 0.045013737 -0.078896515 0.14125672
0.0040864954 0.010780998 -0.040646765 -0.11247438 0.073967405 0.034268055 0.033537693 -0.018164767
0.010184739 0.037634235 -0.0021324898 -0.08690171 -0.009154538 0.042179123 0.08679952 0.03867297
-0.0032144801 -0.012475826 -0.2928027 0.10464664 -0.06334775 -0.044337485 0.029770995 0.04108063
-0.13124868 -0.023181148 -0.11044828 0.085095584 -0.014229952 -0.009848622 -0.04051662 0.019175127
0.0535036 -0.029802375 0.0416012 -0.09776636 0.07291207 0.04788046 0.06174269 -0.017535925
0.02567822 0.018568426 0.05477068 -0.05776111 -0.04054175 -0.024951007 -0.010469309 -0.12352384
00000000: d72e f0bb 2212 0abe 1a64 17bd d3d1 8ebd
00000010: 4a6d 053d 5c87 0b3d 174a dfbb 9eef ee3d
00000020: 8cb1 193c d136 f63d d63d 64bd 3bbf c7bd
00000030: 6633 84be 3dbe aebd d2be 753d ac9f b83d
00000040: 8988 ad3d a574 623d 9cb0 b8bc 360a afbd
00000050: 6a71 02bd 064f c53d c879 a43c 17b5 1a3d
00000060: b443 59bc 24b9 303d 2abc c9bd 9b65 263b
00000070: 1bd7 2cbe 7394 76bd 5690 143e 8122 ff3c
00000080: 2322 bb3d d78e 6e3d 8e4b 323c bd93 1f3d
00000090: 7c15 503c c376 1bbe e89a cb3d a68e f03d
000000a0: 0efc 41bd 87da 8d3d 8347 ec3c 3eae 95bd
000000b0: 9292 0b3e e478 3a3d f4ae c63d d798 f83c
000000c0: 7218 e33c d8c6 62bd 9bc2 c3bd 4682 8fbc
000000d0: 4555 163d e318 b1bc 0c4e 55be 2c69 4fbd
000000e0: 07b4 eabb d532 1c3d 0521 b7bd a65d 96bc
000000f0: 49ad 85bd f004 50bd d707 f73c e98a 403d
00000100: 582e 45bd b0e8 17bc 79af 223d 5438 82bd
00000110: 0e81 80bd 5662 a03d 4d9f 0f3d 8f6b 6fbd
00000120: 43f0 a3bd 0e84 f03d 7e5a 003d d885 85bd
00000130: d9c3 033d 0483 74bd 4d94 df3c cfcc 9dbd
00000140: 8cd3 573d bb25 5dbe a702 c53b aa61 7a3e
00000150: 62dd 873d 8de4 f3bd 0591 17be 35ec dd3a
00000160: c30f 89bd 7a6f 953b f242 553d fecd 253b
00000170: 7ed2 c2bd a41e 1d3d b5aa 6ebc a063 e93c
00000180: 57b0 ab3d d3e0 823d be84 003d 60c7 9cbc
00000190: 14f8 a0bd 8ef1 e53b ab5c 88bb 3bbb c83d
000001a0: 35d4 633d 6dbb 91bb edce 64ba d4c6 8d3d
000001b0: 058e 36be b35c 803d 77da 1fbd a6c2 efbd
000001c0: 9054 01bd bc06 293d 5ce3 4ebd 3e6a b7bd
000001d0: 5a5c 9d3c 5858 023d 6c2e a1bd b1d0 673c
000001e0: 610e a63d da5d 8dba 5cec 48be 7738 843c
000001f0: d9c9 1ebe fd75 1a3e 381d 1f3d e8b7 54bd
00000200: 8eca 823d dceb c83c b42d 8a3c 7b76 553d
00000210: d124 1fbd f4d2 663d cd5c 863d 1a7e 4fbd
00000220: 9525 573d a7d4 c23d f358 4abd ec98 9b3d
00000230: 5bf0 83bc 5bf0 e7bb 55c6 da3d 93e8 31be
00000240: da6c 633c 3580 ca3d 8fb1 cabd b743 b7bc
00000250: 4607 08bc cf1c 8c3b 3056 853c 5157 f3bd
00000260: 6928 e53c 1a38 ad3c d0ef 153d c652 2c3d
00000270: 9073 7abd 0a5a cabb 0022 2c3d c401 023d
00000280: 97e6 a63c a15e b9bb e579 a53d 344e 6abd
00000290: fdda 59bd b9ec 14be 7744 53be 08ec bc3b
000002a0: 2a20 943d 2292 503d d9bb 32bd 9e52 e8bd
000002b0: 3336 8ebd 1407 86bd f325 f83b 4cc0 bbbd
000002c0: 0a3d d2b9 f121 48bb 4391 34bd 99df d13d
000002d0: 48db 883d 1d91 f7bc f5bf 323d 598e c6bc
000002e0: c7e6 9fba 0266 403d b434 1b3c efe8 b2bb
000002f0: ccdb dbbd 9473 083e 2fb8 7fbd e94e 20bd
00000300: 8c7c 42be eff7 55bd ab72 f3bd c658 453d
00000310: ccc5 2bbe d07f b3bc c4d7 86bc 7388 89bd
00000320: 43d9 b63c 2964 ea3c 863c 02be 7790 02be
00000330: dc32 12bd 5360 383d 7f94 a1bd 9aa5 103e
00000340: 02e8 853b c8a2 303c 397d 26bd f858 e6bd
00000350: 397c 973d a95c 0c3d d25e 093d 47ce 94bc
00000360: e4dd 263c 5b26 1a3d 3ec1 0bbb 86f9 b1bd
00000370: eafc 15bc 04c4 2c3d f2c3 b13d 8c67 1e3d
00000380: 07aa 52bb 6867 4cbc 3cea 95be fa50 d63d
00000390: 77bc 81bd 399b 35bd 4de2 f33c 2a44 283d
000003a0: 0e66 06be 64e6 bdbc b532 e2bd 9846 ae3d
000003b0: bf24 69bc 1d5c 21bc c1f4 25bd 2815 9d3c
000003c0: 9726 5b3d 1c24 f4bc 0566 2a3d bb39 c8bd
000003d0: ec52 953d 4d1e 443d e7e5 7c3d 80a7 8fbc
000003e0: 215b d23c d01c 983c 3857 603d ea96 6cbd
000003f0: 1b0f 26bd 0e66 ccbc 7787 2bbc 11fa fcbd

fc2.bias f4 [128]
0.052225538 -0.021092465 -0.0119190365 0.07752264 0.036900107 0.018368658 0.041205943 -0.051810272
0.043515924 0.06946228 0.061001323 0.023571575 -0.04341983 0.0037685093 -0.036695417 -0.005159484
-0.07051856 -0.028688414 -0.021181831 -0.0139240185 0.0028281703 -0.007364817 0.02419042 0.029749723
0.089373425 0.01392812 -0.041192487 0.033708975 0.02958026 -0.03242178 0.048621256 0.040191796
-0.07729241 -0.04665768 -0.051916618 0.046913173 0.03454513 0.035753805 -0.043377455 -0.051907565
0.0005685893 0.0904264 0.037029866 -0.032388978 0.064323224 -0.027314687 0.021982886 0.0886021
-0.04602814 0.011210516 -0.09545226 0.017540159 0.0031974346 0.023127327 -0.02914597 0.0838002
0.023323856 0.10167118 -0.009986913 0.124674655 -0.030873615 0.01495718 -0.060417056 -0.010069641
0.04575568 0.08496741 0.006171395 -0.048659172 -0.06744008 0.069042854 0.025830926 -0.036938995
0.062383864 -0.0028136265 0.014949056 0.040832344 -0.08455641 0.05206193 -0.021756677 -0.019982785
0.025302747 0.011227727 0.009133732 -0.038331695 0.046978056 0.01704999 0.03753693 -0.008143228
0.0077900365 -0.0043111383 0.020536212 0.05923894 0.00786308 -0.021132283 0.03847245 0.03468358
0.0706759 -8.943376e-05 0.02134384 0.018534487 0.07881169 0.014498678 -0.066103406 0.08364327
-0.073733486 -0.0413179 0.0124246 0.02483579 0.029903665 0.09325989 -0.018474145 -0.049537614
0.0018974785 0.023006545 0.025980242 0.052983664 -0.04436784 -0.04486981 0.034783322 -0.012038462
0.062216386 0.104737416 0.040536907 -0.045545448 -0.02244373 0.037299585 0.123711616 -0.02167171
00000000: 72ea 553d 1bca acbc 1048 43bc 31c4 9e3d
00000010: 9124 173d de79 963c 90c7 283d 0237 54bd
00000020: c13d 323d 3d42 8e3d 86dc 793d 2d19 c13c
00000030: fed8 31bd 18f9 763b ef4d 16bd e410 a9bb
00000040: 096c 90bd f703 ebbc 8585 adbc 9121 64bc
00000050: d358 393b 9054 f1bb fd2a c63c b1b5 f33c
00000060: 6a09 b73d c532 643c 74b9 28bd 6c12 0a3d
00000070: 4d52 f23c b3cc 04bd 1527 473d 27a0 243d
00000080: 7c4b 9ebd 201c 3fbd 85a6 54bd 0728 403d
00000090: 327f 0d3d 9572 123d 8fac 31bd 079d 54bd
000000a0: 620d 153a 7a31 b93d a1ac 173d 4eaa 04bd
000000b0: e5bb 833d 0dc3 dfbc 7415 b43c 0575 b53d
000000c0: 0188 3cbd 50ac 373c 797c c3bd 61b0 8f3c
000000d0: 0d8c 513b 8575 bd3c 87c3 eebc 709f ab3d
000000e0: ac11 bf3c fb38 d03d 26a0 23bc 6d55 ff3d
000000f0: aaea fcbc f60e 753c e077 77bd 23fb 24bc
00000100: 4f6a 3b3d 6503 ae3d 6a39 ca3b d74e 47bd
00000110: 061e 8abd 5766 8d3d 619b d33c 584d 17bd
00000120: 3986 7f3d d264 38bb e3ec 743c d13f 273d
00000130: e92b adbd e43e 553d 0f3b b2bc f0b2 a3bc
00000140: b547 cf3c 80f4 373c a6a5 153c b201 1dbd
00000150: 106c 403d 6cac 8b3c 53c0 193d 2c6b 05bc
00000160: 9043 ff3b 7344 8dbb 8f3b a83c 88a4 723d
00000170: 26d4 003c 9c1d adbc 4a95 1d3d 5f10 0e3d
00000180: 87be 903d 628e bbb8 47d9 ae3c a3d5 973c
00000190: 0668 a13d dd8b 6d3c 3961 87bd 2a4d ab3d
000001a0: 9501 97bd f53c 29bd 8d90 4b3c 6d74 cb3c
000001b0: 88f8 f43c 0bff be3d 1757 97bc f4e7 4abd
000001c0: d0b4 f83a 3978 bc3c 84d4 d43c 6605 593d
000001d0: 0dbb 35bd 68c9 37bd f578 0e3d f83c 45bc
000001e0: 9cd6 7e3d 9280 d63d 070a 263d dd8d 3abd
000001f0: eadb b7bc 73c7 183d 845c fd3d df88 b1bc

fc3.weight f4 [2, 128]
0.17002468 -0.236155 0.030892923 -0.10162406 0.04902678 -0.13943133 -0.14382392 -0.029884906
-0.033579513 0.06072184 0.031335708 -0.10175479 0.0329242 -0.10344098 -0.029580085 0.18199351
0.04311108 -0.1324659 0.05580431 -0.14129153 -0.0035216992 0.019689139 0.049247004 0.016583264
-0.16053575 -0.083822995 -0.089725465 -0.11795322 -0.10876118 -0.19822778 -0.055337537 -0.03154574
-0.22604217 0.04125276 -0.14853936 -0.08126234 0.020497486 0.0011544741 0.044554465 0.028889373
0.013522131 -0.06416702 0.030448826 -0.17184456 0.030599188 0.06566189 -0.0022668908 -0.035048164
-0.03514435 0.124201275 0.014826905 0.08294132 -0.15275452 0.03583461 0.041139204 0.11391629
-0.12364296 -0.060732953 -0.003949536 0.10854122 0.020549068 0.07031899 0.025037328 -0.021435125
-0.23482539 -0.13872764 -0.02758545 -0.06648502 0.049396075 0.06751464 0.032616198 -0.0047032614
-0.15515448 0.05652673 0.01487007 -0.12537102 -0.21913691 -0.18147214 0.027864216 -0.07590682
-0.070575245 -0.032876812 -0.16405693 -0.03419446 -0.17993696 -0.04231142 0.041177664 0.0063022794
-0.37383318 -0.0118891215 0.050953664 -0.0355575 0.02774235 0.07882988 0.06047835 -0.0863741
0.119825885 0.019495694 0.013322552 -0.12654722 0.044305943 0.019455347 -0.10350481 -0.10388091
0.030283699 -0.019096226 -0.037624504 -0.09740614 0.2125716 0.012974059 -0.057967965 -0.124868646
-0.018144052 -0.19814038 -0.3146364 -0.007120052 -0.20709397 0.108505026 -0.36605772 -0.13372883
-0.0077651604 -0.29323724 0.021959249 -0.05696828 0.019549692 -0.10192912 -0.06754764 0.06290778
0.059316937 0.045526 -0.066480435 -0.06272518 -0.3070444 -0.19019958 0.01562862 -0.010435252
-0.1539259 -0.012829465 -0.08805718 -0.30290222 -0.081780694 0.021161798 -0.007105892 0.05363357
0.002903008 -0.025266575 -0.036840532 0.026705196 -0.027878078 -0.028493593 -0.30111825 -0.04305885
0.070843756 -0.024898343 -0.2983049 -0.27915204 -0.020711334 -0.122710615 0.0054800226 -0.02584047
0.031536434 0.017780716 -0.033074904 -0.16605228 -8.978514e-05 -0.32237372 -0.05057691 -0.12369103
-0.0016158967 0.0691943 -0.25615758 0.023604928 -0.20101215 -0.16719928 -0.16494718 -0.124462105
-0.048075978 -0.011454561 0.01786024 0.042707127 0.004645631 0.008473255 -0.24200012 0.022314753
0.032616068 -0.12661836 -0.064966895 -0.075667456 -0.04931533 0.033069547 -0.36798072 0.0059678224
-0.037021503 -0.017036999 -0.11710137 -0.096517526 0.102127835 0.032106362 0.020472266 -0.09750799
-0.0025466122 -0.11368684 -0.0059813266 -0.004280331 -0.036981624 0.10331961 -0.20972998 -0.036435302
-0.010299918 -0.013080183 0.050378855 0.08720352 0.0657769 0.07938259 -0.025397452 -0.08959694
-0.21455027 -0.15462002 0.074958965 -0.09638289 0.007645532 -0.12954412 0.07017026 0.012228113
-0.020243367 -0.22781801 -0.008935237 0.04916274 0.013997082 0.0016165789 -0.0053610797 -0.06623982
0.015749218 -0.22347403 -0.008342438 -0.06475959 -0.024167331 -0.028881997 -0.1171471 -0.081781365
-0.025750613 0.066294655 0.04269376 -0.0028070402 0.07110289 0.06683098 -0.35143203 -0.24015135
-0.094608724 -0.07044918 -0.06940199 -0.30450407 0.0028064547 -0.08674208 -0.25686523 0.01409294
00000000: f31a 2e3e 9ed2 71be 2813 fd3c 4620 d0bd
00000010: 4ed0 483d 16c7 0ebe 9446 13be 31d1 f4bc
00000020: ac8a 09bd 77b7 783d df59 003d d164 d0bd
00000030: 87db 063d ddd8 d3bd ef51 f2bc 825c 3a3e
00000040: 3e95 303d 24a5 07be 0f93 643d baae 10be
00000050: 4fcc 66bb 1e4b a13c 3ab7 493d a0d9 873c
00000060: 7c63 24be 64ab abbd fcc1 b7bd 7591 f1bd
00000070: 2ebe debd 39fc 4abe 9da9 62bd 1b36 01bd
00000080: 9977 67be a7f8 283d b41a 18be df6c a6bd
00000090: 58ea a73c b951 973a be7e 363d 68a9 ec3c
000000a0: ee8b 5d3c 006a 83bd d16f f93c 05f8 2fbe
000000b0: 26ab fa3c be79 863d 1e90 14bb aa8e 0fbd
000000c0: 86f3 0fbd 3d5d fe3d 8cec 723c 24dd a93d
000000d0: ae6b 1cbe 50c7 123d 9581 283d f24c e93d
000000e0: 8538 fdbd 1ec3 78bd 1c6b 81bb dc4a de3d
000000f0: 8556 a83c 6703 903d 151b cd3c b798 afbc
00000100: 1176 70be 9e0e 0ebe e2fa e1bc 4c29 88bd
00000110: 8a53 4a3d 1e45 8a3d 9098 053d d11d 9abb
00000120: d1e0 1ebe 9388 673d 98a1 733c 4361 00be
00000130: 6d65 60be d5d3 39be 7f43 e43c 0975 9bbd
00000140: c189 90bd d6a9 06bd 8afe 27be 7d0f 0cbd
00000150: 6541 38be bd4e 2dbd e9a9 283d 5a83 ce3b
00000160: 1067 bfbe 97ca 42bc cab4 503d bea4 11bd
00000170: ed43 e33c 8f71 a13d 25b8 773d e7e4 b0bd
00000180: 4667 f53d 6fb5 9f3c d546 5a3c 9895 01be
00000190: 267a 353d d260 9f3c 54fa d3bd 84bf d4bd
000001a0: 8515 f83c b06f 9cbc 271c 1abd df7c c7bd
000001b0: 5fac 593e 2691 543c d16f 6dbd 22bb ffbd
000001c0: d6a2 94bc 50e5 4abe 0618 a1be 534f e9bb
000001d0: 7110 54be e237 de3d eb6b bbbe 36f0 08be
000001e0: e372 febb 3123 96be e2e3 b33c 9257 69bd
000001f0: ad26 a03c 37c0 d0bd 6b56 8abd cbd5 803d
00000200: 51f6 723d 7979 3a3d e526 88bd 0f76 80bd
00000210: ec34 9dbe aec3 42be 9707 803c 9ff8 2abc
00000220: c09e 1dbe ad32 52bc 5357 b4bd 0016 9bbe
00000230: a37c a7bd 825b ad3c 8bd8 e8bb e0ae 5b3d
00000240: 6440 3e3b d9fb cebc 19e6 16bd dbc4 da3c
00000250: 9160 e4bc 656b e9bc 2c2c 9abe 7a5e 30bd
00000260: 8816 913d 9cf7 cbbc 6bbb 98be 04ed 8ebe
00000270: d1aa a9bc b44f fbbd c391 b33b 65af d3bc
00000280: 592c 013d dda8 913c 8d79 07bd 9c09 2abe
00000290: 084b bcb8 2b0e a5be bc29 4fbd b951 fdbd
000002a0: 7fcc d3ba beb5 8d3d 1627 83be 1f5f c13c
000002b0: 21d6 4dbe 4a36 2bbe eae7 28be fde5 febd
000002c0: 51eb 44bd e9ab 3bbc a34f 923c abed 2e3d
000002d0: 613a 983b 68d3 0a3c e1ce 77be 6ecd b63c
000002e0: 6d98 053d 3ea8 01be 5d0d 85bd 8af7 9abd
000002f0: dffe 49bd ef73 073d f867 bcbe b98d c33b
00000300: dca3 17bd 2d91 8bbc d8d2 efbd fbaa c5bd
00000310: 6628 d13d f681 033d 74b5 a73c 45b2 c7bd
00000320: 10e5 26bb a5d4 e8bd 01ff c3bb 0542 8cbb
00000330: 0b7a 17bd 3b99 d33d 75c3 56be 2f3d 15bd
00000340: fdc0 28bc 444e 56bc 0f5a 4e3d c297 b23d
00000350: 0ab6 863d 5793 a23d 510e d0bc 9a7e b7bd
00000360: 11b3 5bbe b654 1ebe 1684 993d 6564 c5bd
00000370: 5f87 fa3b 37a7 04be 6db5 8f3d 6c58 483c
00000380: 6bd5 a5bc 2049 69be 1a65 12bc df5e 493d
00000390: 0454 653c 63e3 d33a ffab afbb bea8 87bd
000003a0: 8104 813c 60d6 64be b9ae 08bc ada0 84bd
000003b0: 91fa c5bc f099 ecbc d2ea efbd fd7c a7bd
000003c0: f3f2 d2bc 7ec5 873d a7df 2e3d 52f6 37bb
000003d0: 649e 913d aede 883d e6ee b3be 3cea 75be
000003e0: 38c2 c1bd a947 90bd a122 8ebd f5e7 9bbe
000003f0: 7fec 373b d5a5 b1bd d783 83be 13e6 663c

fc3.bias f4 [2]
-0.025668899 0.0080407355
00000000: 9547 d2bc 4abd 033c
