checkpoint_actor2d.pth (torch_old, 159228 bytes, 6 tensors)

fc1.weight f4 [256, 24]
0.100297436 0.0076713096 0.015344939 -0.17130354 -0.20372127 -0.06448474 0.01988954 -0.0942943
0.007176664 -0.015230669 -0.012083081 -0.15180527 0.022547042 0.033988845 0.049971983 -0.09860795
-0.17220394 -0.1892338 -0.033956245 -0.06519391 0.19822355 0.19751109 0.031447962 -0.11036212
-0.023217646 -0.04331357 -0.012059307 0.1634049 -0.11869056 -0.044080753 -0.0035420533 0.07064814
-0.06472842 -0.1438767 0.02587936 0.10415603 -0.05752295 0.08489771 -0.021540618 0.114217095
0.021680094 -0.09038223 -0.049351305 0.07191843 0.099523894 0.13239601 -0.0041371947 0.033602647
-0.052881822 0.1325892 0.031694278 0.0035352784 -0.1341192 -0.052105404 -0.05107047 -0.050422225
0.03365397 0.12837522 -0.04810206 0.051406883 -0.07182931 -0.118756756 -0.02891798 0.0712425
0.041493602 0.12229839 -0.028850265 -0.00092573336 -0.039443072 -0.18740095 0.01752964 0.07419844
0.06962085 0.020224134 0.028859211 0.008805406 0.07090284 -0.070615724 0.052678786 0.0018449388
0.029827902 -0.0092948945 -0.009747769 0.011493624 0.09595678 -0.07943522 0.028700422 0.083339214
0.08606184 0.046959132 -0.11749695 0.12982368 0.03428081 -0.05509204 -0.021014828 0.1593807
-0.04937118 -0.025311207 0.07275897 0.02697268 0.010215003 0.08439862 -0.032984156 -0.04526253
-0.058946267 0.00040828233 0.014198399 -0.004695015 0.02914395 0.10993062 0.036182035 0.06261607
0.02189342 0.059645865 -0.018157559 0.07152999 -0.10890404 0.022259772 0.020486014 0.13978355
0.06281636 0.031857785 -0.03781709 -0.14191985 -0.031132156 0.0027325598 0.04039672 -0.12369116
0.013094959 0.047428243 -0.026942052 -0.087210685 -0.073601596 -0.05869307 0.04065275 -0.061236132
0.032929037 -0.046171945 0.045510184 0.13401455 -0.019460877 -0.054542128 0.05375164 0.10781731
0.15199816 0.14015031 -0.008042487 -0.10725135 0.07767707 -0.070658825 0.019404363 -0.017713254
0.24405469 0.113266565 0.044438247 -0.11512175 -0.03819483 -0.041293565 0.02319394 -0.10688565
0.08298185 0.10426505 -0.014285599 -0.0010683965 0.017655136 -0.20794174 -0.016338969 0.02969709
0.012808843 0.069092244 -0.060709972 -0.022963118 0.0011224886 0.011838901 -0.032799095 -0.06877628
0.025213577 0.13199668 -0.07301425 -0.06774461 -0.097385846 -0.0020283416 -0.05960255 -0.060237326
0.05399805 0.09914465 -0.05112478 0.0071202535 -0.108707905 0.049464036 0.025422122 -0.012368329
-0.10691365 0.05965172 0.058139127 0.055350106 0.084593594 0.045217127 0.060593095 0.029985907
-0.01537706 0.07773432 0.029972488 -0.031124372 0.028047882 0.020003645 0.05018624 -0.006382442
0.0278874 0.034226317 -0.010897258 -0.016599253 -0.101331614 0.044604987 -0.08858012 -0.08287118
0.036127016 0.09705543 0.0021127348 0.017816506 -0.08230056 0.03784578 -0.0060622063 0.03540655
-0.062419973 0.037565414 0.08177654 0.06160359 -0.028076336 0.023606587 0.036507733 -0.008694131
0.01991704 0.030521503 -0.03438001 0.025993349 0.012611815 -0.1500918 0.06257334 -0.00012814686
-0.040743552 0.1806305 0.020113014 -0.0006300652 -0.017883632 0.12060765 -0.022265343 0.055139802
0.010626563 0.21708466 -0.03648408 0.0358829 0.07560341 0.04815434 -0.077848606 0.05736574
00000000: be68 cd3d 9c5f fb3b 5769 7b3c 326a 2fbe
00000010: 4f9c 50be 9310 84bd 63ef a23c 5f1d c1bd
00000020: 392a eb3b 0e8a 79bc 1df8 45bc d772 1bbe
00000030: 93b4 b83c e337 0b3d 6caf 4c3d f7f2 c9bd
00000040: 3b56 30be 81c6 41be b415 0bbd 6284 85bd
00000050: 1dfb 4a3e 5940 4a3e 94cf 003d 8905 e2bd
00000060: ef32 bebc 9269 31bd 6694 45bc 9d53 273e
00000070: 0914 f3bd 058e 34bd cb21 68bb f9af 903d
00000080: 5590 84bd 6a54 13be f400 d43c c24f d53d
00000090: 2f9d 6bbd dade ad3d f375 b0bc a7ea e93d
000000a0: 749a b13c 521a b9bd 9824 4abd f849 933d
000000b0: 2fd3 cb3d d292 073e 4e91 87bb eea2 093d
000000c0: 9c9a 58bd 77c5 073e dcd1 013d 21b0 673b
000000d0: 8b56 09be 7a6c 55bd 452f 51bd 8987 4ebd
000000e0: bfd8 093d cb74 033e aa06 45bd 0690 523d
000000f0: 3f1b 93bd be36 f3bd 66e5 ecbc 96e7 913d
00000100: 32f5 293d 9477 fa3d 6457 ecbc eaac 72ba
00000110: 0f8f 21bd 09e6 3fbe 529a 8f3c 5af5 973d
00000120: 6095 8e3d 15ad a53c 276a ec3c 8d44 103c
00000130: 8235 913d fa9e 90bd b6c5 573d e0d1 f13a
00000140: a559 f43c 9d49 18bc 1bb5 1fbc c14f 3c3c
00000150: fd84 c43d efae a2bd 261d eb3c c0ad aa3d
00000160: 3141 b03d 3858 403d 3ea2 f0bd 80f0 043e
00000170: 096a 0c3d 31a8 61bd 4a27 acbc b234 233e
00000180: 6f39 4abd 7359 cfbc a802 953d cff5 dc3c
00000190: d45c 273c 2fd9 ac3d 651a 07bd 3465 39bd
000001a0: a471 71bd ba0e d639 67a0 683c a4d8 99bb
000001b0: 4bbf ee3c 4e23 e13d 9d33 143d db3c 803d
000001c0: d459 b33c 394f 743d 29bf 94bc 517e 923d
000001d0: 1509 dfbd 205a b63c 49d2 a73c 6b23 0f3e
000001e0: dda5 803d 4f7d 023d 18e6 1abd 7053 11be
000001f0: dd08 ffbc bf14 333b 0877 253d ca51 fdbd
00000200: 3d8c 563c 1e44 423d 94b5 dcbc 849b b2bd
00000210: 6fbc 96bd 2568 70bd 7f83 263d bdd2 7abd
00000220: 99e0 063d cb1e 3dbd e368 3a3d 1c3b 093e
00000230: 6b6c 9fbc 9167 5fbd ae2a 5c3d 52cf dc3d
00000240: 68a5 1b3e 9083 0f3e a3c4 03bc 99a6 dbbd
00000250: 2815 9f3d 93b5 90bd e6f5 9e3c 631b 91bc
00000260: 79e9 793e 4df8 e73d e104 363d f4c4 ebbd
00000270: 2f72 1cbd 7123 29bd 3801 be3c dde6 dabd
00000280: 63f2 a93d ea88 d53d 250e 6abc 7009 8cba
00000290: 81a1 903c aeee 54be 4dd9 85bc 5047 f33c
000002a0: 2edc 513c 3c80 8d3d 05ab 78bd 261d bcbc
000002b0: 7820 933a f3f7 413c 5858 06bd 94da 8cbd
000002c0: b48c ce3c 232a 073e 7f88 95bd b0bd 8abd
000002d0: 3b72 c7bd eded 04bb ce21 74bd 6abb 76bd
000002e0: 0f2d 5d3d 5a0c cb3d 3868 51bd 0451 e93b
000002f0: 40a2 debd cd9a 4a3d 0e42 d03c 88a4 4abc
00000300: 8bf5 dabd 5d55 743d 4b23 6e3d cbb6 623d
00000310: 683f ad3d 9835 393d 7730 783d 01a5 f53c
00000320: 10f0 7bbc 2c33 9f3d dd88 f53c 8af8 febc
00000330: acc4 e53c afde a33c 1690 4d3d ce23 d1bb
00000340: 1e74 e43c e530 0c3d 6a8a 32bc 28fb 87bc
00000350: f386 cfbd b8b3 363d 7e69 b5bd 5db8 a9bd
00000360: ecf9 133d ffc4 c63d cf75 0a3b ecf3 913c
00000370: 328d a8bd 2d04 1b3d 79a5 c6bb 7506 113d
00000380: 16ac 7fbd 31de 193d 757a a73d 0c54 7c3d
00000390: 5800 e6bc 9a62 c13c 2289 153d d471 0ebc
000003a0: 0f29 a33c 3b08 fa3c 0ed2 0cbd 01f0 d43c
000003b0: c9a1 4e3c aab1 19be 7426 803d 295f 06b9
000003c0: b6e2 26bd 34f7 383e 0cc4 a43c f62a 25ba
000003d0: b280 92bc 2501 f73d cf65 b6bc 46da 613d
000003e0: 091b 2e3c 714b 5e3e 5570 15bd f3f9 123d
000003f0: f6d5 9a3d 7c3d 453d 176f 9fbd 57f8 6a3d

fc1.bias f4 [256]
0.026920756 0.10626545 0.061986305 0.18355879 -0.047126245 -0.19270808 -0.26061657 -0.037656557
-0.16422777 -0.13316426 0.07199877 0.0013938469 0.07829821 -0.085557066 0.018735858 0.11508692
0.12338394 0.056574523 -0.11557441 -0.15940292 0.113393836 -0.19630416 0.08351689 -0.12574919
0.021901196 -0.11904427 0.08837239 -0.013738518 -0.15025918 -0.06166789 -0.09972187 -0.09569474
-0.07744955 0.07410614 -0.1418892 0.034825433 -0.15377267 0.20215486 -0.1143111 0.091350436
-0.09733258 -0.09416266 -0.040350385 -0.116534024 -0.07249741 -0.061135083 -0.110074535 -0.10357198
0.2126188 0.09282445 -0.1431038 0.17239937 -0.13846576 -0.18478581 0.05786164 0.0041870913
0.10686264 -0.0580781 -0.21992567 0.15746534 0.056438565 0.14973314 -0.022467647 -0.12803599
0.05891595 -0.032144465 -0.15241055 0.08826363 -0.25957346 -0.09094783 -0.032232895 -0.12151137
-0.1715242 -0.046720672 -0.1021663 0.15804969 0.073665515 0.21624237 0.040991046 -0.037869547
0.011559078 -0.07313912 -0.19327103 -0.17567761 0.17329758 -0.12250732 -0.06106442 0.07031431
-0.09712824 0.055321097 -0.02513153 0.033665333 -0.07937057 0.10690842 -0.19682239 -0.2811702
0.1455474 -0.1706488 0.11850474 0.08323478 0.07607866 -0.044542298 0.05260299 -0.0044808425
-0.014139248 0.18373235 0.16771479 -0.042290762 0.07897928 -0.017899312 -0.07581208 -0.12483485
-0.018919235 -0.23327067 -0.041395918 0.10517939 0.19258395 -0.15158944 -0.21657266 0.15300395
-0.109947264 0.067018226 0.18116254 0.19005343 0.04884827 0.040049195 0.026417285 0.05675231
0.06498579 -0.16240603 -0.25349957 0.15705723 -0.22497444 0.039230365 0.18148553 0.03708414
-0.0068599307 -0.008251144 0.14343064 0.13757163 0.021064216 -0.18801105 0.16542055 0.021063577
0.10775293 -0.17208342 0.026614731 -0.1550485 -0.06851937 0.2214326 0.0029212406 0.12423499
0.04891989 -0.23592257 0.12534322 -0.019556483 0.24674523 -0.059443533 -0.0059955698 0.18231125
-0.16577534 -0.013905041 -0.06721373 -0.06717964 -0.15140562 0.21770166 -0.022471303 0.056672037
0.11997974 0.105328225 0.02945692 -0.2061758 -0.21335466 -0.19332258 -0.21478638 -0.24166363
0.013413517 0.19831057 -0.08459059 0.19569051 -0.098749496 0.11497185 0.117948875 0.051952172
0.120509006 -0.15095401 -0.17941989 -0.17300175 0.055337068 0.11887766 0.1496357 0.05299332
-0.0080912765 -0.15514597 0.2725888 -0.10302225 -0.13517244 0.09680389 0.20388213 0.007468236
-0.011521638 -0.0088951755 0.045722242 -0.08103295 0.19338521 0.2655855 -0.09690825 0.14976409
-0.058124628 -0.1410883 -0.019906625 -0.037249867 0.16146982 0.014385655 -0.023505125 -0.15515262
0.107062764 0.1218375 0.013447368 0.038043626 -0.17236726 0.09134509 0.19431672 -0.07449071
-0.035784777 -0.16992947 0.02867449 -0.10809589 -0.04009537 -0.0873133 0.189568 0.09966816
-0.091818504 -0.08926079 0.05286637 0.016953664 -0.06905786 0.15363602 0.027506797 0.22867337
-0.106138654 -0.17592598 0.05836638 -0.016321877 -0.14054517 0.17357568 -0.06247062 -0.09945707
-0.032916177 -0.12314639 -0.051299278 -0.18997218 0.20595515 0.19417414 -0.20125441 0.13830939
00000000: eb88 dc3c b3a1 d93d 5ae5 7d3d d6f6 3b3e
00000010: 7307 41bd 4455 45be 896f 85be c33d 1abd
00000020: 532b 28be 365c 08be 1774 933d beb1 b63a
00000030: d05a a03d 8b38 afbd f17b 993c b1b2 eb3d
00000040: b8b0 fc3d b0ba 673d 47b2 ecbd 853a 23be
00000050: 073b e83d f503 49be e70a ab3d 65c4 00be
00000060: 236a b33c 7bcd f3bd 95fc b43d 8517 61bc
00000070: 8bdd 19be 7897 7cbd fb3a ccbd 9bfb c3bd
00000080: df9d 9ebd f6c4 973d 674b 11be 1da5 0e3d
00000090: 9576 1dbe af01 4f3e f01b eabd f015 bb3d
000000a0: 4e56 c7bd 5ad8 c0bd 7246 25bd 64a9 eebd
000000b0: 8679 94bd c868 7abd c26e e1bd 8c1d d4bd
000000c0: beb8 593e bf1a be3d cd89 12be 7689 303e
000000d0: f8c9 0dbe 7e38 3dbe 5400 6d3d de33 893b
000000e0: cdda da3d 4de3 6dbd 3234 61be 983e 213e
000000f0: 202c 673d a553 193e 120e b8bc de1b 03be
00000100: da51 713d eaa9 03bd 8311 1cbe 90c3 b43d
00000110: d0e6 84be db42 babd a406 04bd f4da f8bd
00000120: 0aa4 2fbe 2d5e 3fbd 913c d1bd c7d7 213e
00000130: f2dd 963d a46e 5d3e 3ae6 273d 191d 1bbd
00000140: 4962 3d3c f7c9 95bd d7e8 45be d5e4 33be
00000150: ec74 313e 1ee5 fabd af1e 7abd f300 903d
00000160: 2ceb c6bd 6098 623d a3e0 cdbc a9e4 093d
00000170: 0a8d a2bd cdf2 da3d cf8b 49be 8af5 8fbe
00000180: 610a 153e 8fbe 2ebe 9db2 f23d ff76 aa3d
00000190: 21cf 9b3d fc71 36bd 3c76 573d 08d4 92bb
000001a0: 4ea8 67bc 5524 3c3e 6dbd 2b3e 1439 2dbd
000001b0: e4bf a13d 94a1 92bc 5d43 9bbd 6aa9 ffbd
000001c0: 83fc 9abc 82de 6ebe c48e 29bd 4b68 d73d
000001d0: ba34 453e 433a 1bbe 39c5 5dbe 11ad 1c3e
000001e0: 082c e1bd da40 893d ac82 393e 5e9d 423e
000001f0: 2015 483d a00a 243d 1069 d83c 1c75 683d
00000200: 4517 853d c44d 26be b2ca 81be 9cd3 203e
00000210: b35f 66be 05b0 203d 58d7 393e 8ae5 173d
00000220: 45c9 e0bb ce2f 07bc 7bdf 123e 94df 0c3e
00000230: dd8e ac3c f885 40be 0164 293e 868d ac3c
00000240: 91ad dc3d a336 30be 2307 da3c 09c5 1ebe
00000250: e253 8cbd 3abf 623e 4972 3f3b ea6e fe3d
00000260: 3960 483d b095 71be f959 003e eb34 a0bc
00000270: c8aa 7c3e 107b 73bd 7c76 c4bb cdaf 3a3e
00000280: 03c1 29be f8d1 63bc 5aa7 89bd 7b95 89bd
00000290: 130a 1bbe 2fed 5e3e bd15 b8bc f020 683d
000002a0: f0b7 f53d 53b6 d73d a44f f13c c01f 53be
000002b0: a579 5abe 5bf6 45be f6f0 5bbe ac76 77be
000002c0: 5ec4 5b3c ed11 4b3e d53d adbd 1863 483e
000002d0: 2d3d cabd 5c76 eb3d 2e8f f13d cdcb 543d
000002e0: 6dcd f63d b093 1abe d9b9 37be 5f27 31be
000002f0: 1fa9 623d 2176 f33d 1a3a 193e 860f 593d
00000300: 4691 04bc 96de 1ebe c290 8b3e 54fd d2bd
00000310: a56a 0abe 1e41 c63d 7ac6 503e 1bb8 f43b
00000320: 41c5 3cbc 12bd 11bc 3f47 3b3d 9af4 a5bd
00000330: c606 463e d3fa 873e d577 c6bd c25b 193e
00000340: 1714 6ebd 7479 10be 3813 a3bc 5193 18bd
00000350: 5858 253e cfb1 6b3c d28d c0bc 54e0 1ebe
00000360: b943 db3d f085 f93d 5952 5c3c a2d3 1b3d
00000370: 0b81 30be 2213 bb3d f6fa 463e 968e 98bd
00000380: 0f93 12bd fe01 2ebe c4e6 ea3c 6161 ddbd
00000390: 0b3b 24bd 51d1 b2bd 1d1e 423e d21e cc3d
000003a0: 570b bcbd 5cce b6bd 688a 583d 69e2 8a3c
000003b0: 356e 8dbd c352 1d3e ef55 e13c 5a29 6a3e
000003c0: 395f d9bd f125 34be 9611 6f3d 75b5 85bc
000003d0: 13eb 0fbe d3bd 313e 31e1 7fbd 26b0 cbbd
000003e0: 1dd3 06bd 2d34 fcbd 311f 52bd 1188 42be
000003f0: e8e5 523e 96d5 463e a315 4ebe faa0 0d3e

fc2.weight f4 [128, 256]
-0.10212122 -0.23575652 -0.025928652 -0.011024804 0.0062647774 -0.018957524 0.026550515 0.05942735
-0.021551887 0.016443886 -0.09656732 -0.06744991 -0.01807573 -0.090941116 0.053674173 0.10255414
-0.0057241563 -0.03780631 -0.08226953 -0.05912778 -0.09735395 0.10455918 0.03627234 -0.07240175
-0.06802445 -0.085687526 -0.07242742 -0.046291422 -0.0026234603 -0.08484768 0.13974689 -0.03485817
-0.08464277 0.028621832 0.14333186 0.00183281 0.068928905 -0.029811801 0.04335718 0.018103482
0.033090133 0.046616063 0.04600675 -0.12600791 0.062092286 0.08348383 0.046775248 -0.061169494
0.053770356 -0.2112103 -0.20916666 0.04612627 -0.11566736 -0.18573745 0.028637592 -0.056884438
0.03129942 -0.1505014 -0.23133615 -0.034230847 -0.06643009 0.107469976 -0.08975125 -0.053984966
-0.0025424475 0.014442037 -0.059457906 -0.10399882 -0.09381049 -0.007830155 -0.12206485 -0.10518874
-0.04275453 0.070362955 -0.12416444 -0.06853482 -0.030095674 0.074517965 0.018100664 -0.0015039158
0.020089807 -0.117419556 -0.108062245 -0.009539724 0.0064059687 -0.24138358 -0.056662105 0.016436353
-0.022646789 0.03126097 0.07771364 -0.0979523 -0.11238798 0.034487356 -0.08865073 0.030224714
0.101277374 -0.08888822 0.1386897 -0.021717878 0.009550045 0.026500644 0.02439896 0.10351077
0.0055202018 -0.057530336 -0.004754725 0.09998813 -0.09971055 0.09182761 -0.11128563 -0.08274199
-0.065193154 0.034212038 -0.030142622 -0.0257457 0.06341842 0.07813628 -0.077865 0.13121061
0.07819932 -0.11526453 -0.1253808 -0.0066227047 -0.020395689 0.16940087 0.09070737 0.010737807
0.01417596 0.057964392 -0.031631157 0.058258962 -0.03043325 0.14349347 0.071512565 -0.12828599
0.06486535 0.0054714833 -0.1637173 0.11262091 -0.11817259 0.025381524 0.07824512 -0.038968556
0.04690587 0.0130940685 -0.013383243 0.016185349 -0.025939537 0.022822233 -0.095082276 -0.11419496
-0.14207505 -0.007252928 0.04736642 0.075577706 0.023261147 0.056967158 0.03570623 -0.008806306
0.12320987 -0.013316404 -0.022937512 0.020282283 0.13733846 -0.2514969 -0.10032147 0.0367566
-0.01784679 0.15805681 -0.05590102 -0.14635015 -0.08538835 0.039587673 -0.049419817 4.1726733e-05
-0.013848674 -0.14073826 -0.025797136 0.058000498 -0.011030539 -0.1083322 0.16131154 0.031600747
0.0474385 -0.0334315 0.08318346 -0.0035950681 0.06954847 0.06695345 -0.09527013 -0.07255039
-0.073692955 -0.057307508 -0.2895521 -0.027138297 -0.033595268 -0.007927334 0.031506583 -0.05927143
0.0098547945 -0.022163894 -0.050818574 0.064322986 0.07912564 -0.014850305 -0.07072058 0.15062433
0.02053993 0.03726433 -0.044162024 -0.031413417 0.02743231 0.07449787 0.078831166 -0.048002537
0.06047449 0.10431894 -0.049708743 -0.2091574 -0.032011196 0.08028909 0.0076766093 0.055537276
0.03229438 -0.07870567 -0.07776599 0.04099788 -0.035613623 -0.027411716 0.0010066158 0.02666691
-0.11646538 0.025846353 -0.084076755 0.12732524 -0.01475352 -0.037733875 -0.05158948 -0.19396515
-0.13432421 -0.022528108 0.13619846 -0.27572668 -0.053255774 0.0718391 0.104335815 -0.16401505
0.026147982 -0.021626512 0.054178268 -0.08295671 -0.14689618 -0.07271934 -0.014809857 -0.10135513
00000000: ee24 d1bd 286a 71be 5368 d4bc 61a1 34bc
00000010: c348 cd3b cf4c 9bbc 7780 d93c 186a 733d
00000020: 958d b0bc 54b5 863c 16c5 c5bd 2e23 8abd
00000030: 8e13 94bc 563f babd 73d9 5b3d e807 d23d
00000040: b491 bbbb cada 1abd ed7c a8bd f92f 72bd
00000050: 8261 c7bd 2023 d63d 4e92 143d 5e47 94bd
00000060: 6750 8bbd f17c afbd d454 94bd 139c 3dbd
00000070: 5cee 2bbb 9fc4 adbd cf19 0f3e 71c7 0ebd
00000080: 3059 adbd 5578 ea3c 96c5 123e e63a f03a
00000090: 992a 8d3d e137 f4bc 4c97 313d c14d 943c
000000a0: 8589 073d 7cf0 3e3d 9371 3c3d 3808 01be
000000b0: 7b54 7e3d 92f9 aa3d 6797 3f3d dd8c 7abd
000000c0: 4e3e 5c3d 8347 58be c92f 56be e6ee 3c3d
000000d0: 02e3 ecbd f531 3ebe 6299 ea3c a8ff 68bd
000000e0: d233 003d 0a1d 1abe 62e3 6cbe a535 0cbd
000000f0: 800c 88bd 3819 dc3d 81cf b7bd 571f 5dbd
00000100: 319f 26bb 4b9e 6c3c 228a 73bd 55fd d4bd
00000110: b71f c0bd 0d4a 00bc 23fd f9bd 326d d7bd
00000120: 601f 2fbd 741a 903d ed49 febd fc5b 8cbd
00000130: 348b f6bc e09c 983d d847 943c 0a1f c5ba
00000140: 6193 a43c aa79 f0bd bd4f ddbd 814c 1cbc
00000150: 29e9 d13b 422d 77be 8616 68bd 88a5 863c
00000160: c285 b9bc 810b 003d 5428 9f3d 379b c8bd
00000170: ab2b e6bd 9d42 0d3d 848e b5bd d299 f73c
00000180: 836a cf3d 070b b6bd ac04 0e3e b1e9 b1bc
00000190: cb77 1c3c e117 d93c 54e0 c73c 74fd d33d
000001a0: cfe2 b43b eea4 6bbd 86cd 9bbb 94c6 cc3d
000001b0: 0b35 ccbd 1d10 bc3d b8e9 e3bd a274 a9bd
000001c0: fd83 85bd ec21 0c3d a9ed f6bc a5e8 d2bc
000001d0: 84e1 813d ea05 a03d af77 9fbd 135c 063e
000001e0: f726 a03d cf0f ecbd d363 00be 4603 d9bb
000001f0: dc14 a7bc 6c77 2d3e c9c4 b93d a0ed 2f3c
00000200: 4942 683c 126c 6d3d ac8f 01bd f3a0 6e3d
00000210: 274f f9bc f4ef 123e 2e75 923d 675d 03be
00000220: 20d8 843d 214a b33b 82a5 27be cba5 e63d
00000230: 7904 f2bd eaec cf3c fa3e a03d 7e9d 1fbd
00000240: 5f20 403d 8188 563c 6445 5bbc 2397 843c
00000250: 277f d4bc b1f5 ba3c 7fba c2bd 0cdf e9bd
00000260: 1f7c 11be f8a9 edbb 4b03 423d 7cc8 9a3d
00000270: 298e be3c 6556 693d b240 123d 5348 10bc
00000280: 7555 fc3d 0c2d 5abc 73e7 bbbc 0827 a63c
00000290: 74a2 0c3e 34c4 80be 5875 cdbd 178e 163d
000002a0: 6e33 92bc a5d9 213e 78f8 64bd d0dc 15be
000002b0: 16e0 aebd af26 223d 6f6c 4abd bd03 2f38
000002c0: 8ce5 62bc b11d 10be 8454 d3bc ee91 6d3d
000002d0: 6fb9 34bc 46dd ddbd da2e 253e c96f 013d
000002e0: df4e 423d 78ef 08bd 175c aa3d 3c9b 6bbb
000002f0: 6e6f 8e3d e41e 893d fc1c c3bd 4d95 94bd
00000300: 55ec 96bd 47bb 6abd 2c40 94be 2251 debc
00000310: 319b 09bd a6e1 01bc 0c0d 013d 99c6 72bd
00000320: 0176 213c 0e91 b5bc 2327 50bd c5bb 833d
00000330: a00c a23d b24e 73bc f4d5 90bd 443d 1a3e
00000340: 5b43 a83c 7ba2 183d 3de3 34bd 5bab 00bd
00000350: b9b9 e03c 5792 983d 3c72 a13d 4f9e 44bd
00000360: 19b4 773d 2ba5 d53d 659b 4bbd 5c2d 56be
00000370: 2c1e 03bd 9b6e a43d 118c fb3b 0e7b 633d
00000380: 1d47 043d 7030 a1bd c643 9fbd 65ed 273d
00000390: 97df 11bd 898e e0bc 6cf0 833a 9074 da3c
000003a0: 6785 eebd bbbb d33c 6f30 acbd 8c61 023e
000003b0: bfb8 71bc d68e 1abd 7e4f 53bd cd9e 46be
000003c0: 498c 09be de8c b8bc 9c77 0b3e 0c2c 8dbe
000003d0: ba22 5abd 6120 933d 04ae d53d 90f3 27be
000003e0: 4b34 d63c 152a b1bc 08ea 5d3d 35e5 a9bd
000003f0: f46b 16be e1ed 94bd 0ba5 72bc 4793 cfbd

fc2.bias f4 [128]
0.08151619 -0.002446353 0.017590903 -0.06649428 0.0052663027 0.0002225512 0.020533996 -0.0782158
0.024948206 0.06502097 0.008120432 0.020035382 -0.066596314 -0.020072348 -0.07376866 0.04569804
-0.08025104 0.00402779 -0.052036647 -0.021471389 -0.023419216 -0.0315142 -0.038956054 0.05387427
0.031134512 -0.039511543 -0.081730515 0.020471347 0.040347096 -0.07780922 0.06312771 0.03818243
-0.01232941 -0.051461544 -0.043892805 -0.019131606 0.039524645 0.00041938183 -0.025937552 -0.067568816
0.0029914044 0.043264158 0.006024143 0.042157523 0.037943967 0.030223597 -0.07358345 0.02635311
-0.031250667 -0.03035866 -0.08414705 -0.012913681 0.0025928784 -0.00014960201 0.028725667 0.00597582
0.00015071702 0.14836708 -0.019810995 0.053175956 -0.05560417 0.018433152 -0.058529828 0.03006122
0.090823606 0.072637156 -0.048202287 -0.035873264 -0.054814585 0.08063718 0.02302714 -0.07168371
0.07496659 -0.028119858 0.044335328 0.03283972 -0.06222276 0.06327118 -0.057992294 -0.058371317
-0.060393117 -0.03904226 -0.014921142 0.030371783 0.023677642 -0.02291521 0.015226835 -0.044330243
-0.009587073 0.0052073835 0.016878327 0.07353042 0.00034193703 0.05462602 0.071887225 -0.006079689
0.044990048 -0.0049182326 0.03727663 -0.03307915 0.08472059 -0.012585457 -0.04786676 0.055473443
-0.045960523 -0.020142851 0.014885417 0.0004098457 -0.019938499 0.111716114 -0.042790227 -0.052486505
-0.033916354 0.041860774 0.017930215 0.006061014 -0.026245838 -0.003705444 -0.001973548 -0.018583385
0.035588752 0.07229165 0.009586051 -0.060875084 0.050264414 0.07250838 0.012904857 -0.023588276
00000000: f6f1 a63d fe52 20bb cc1a 903c 272e 88bd
00000010: f390 ac3b a25c 6939 e936 a83c 9b2f a0bd
00000020: 2e60 cc3c b729 853d 8f0b 053c 3e21 a43c
00000030: a663 88bd c46e a4bc 0614 97bd de2d 3b3d
00000040: a85a a4bd 8dfb 833b 6124 55bd c4e4 afbc
00000050: a8d9 bfbc 0915 01bd 6290 1fbd 44ab 5c3d
00000060: ce0d ff3c dbd6 21bd 5462 a7bd 87b3 a73c
00000070: ff42 253d 715a 9fbd 1a49 813d 2e65 1c3d
00000080: 4b01 4abc 57c9 52bd f1c8 33bd e3b9 9cbc
00000090: 98e4 213d 7ae0 db39 fd7a d4bc 8561 8abd
000000a0: 700b 443b c235 313d 2d66 c53b 5ead 2c3d
000000b0: 226b 1b3d 7a97 f73c ebb2 96bd 7ae2 d73c
000000c0: b300 00bd b9b2 f8bc 4a55 acbd e793 53bc
000000d0: 48ed 293b 7cde 1cb9 1752 eb3c d0d0 c33b
000000e0: cb09 1e39 8aed 173e ab4a a2bc 08cf 593d
000000f0: 33c1 63bd 1f01 973c f9bc 6fbd f342 f63c
00000100: ba01 ba3d cac2 943d c36f 45bd d8ef 12bd
00000110: 4285 60bd 1b25 a53d 6aa3 bc3c e9ce 92bd
00000120: 1588 993d 9e5b e6bc f698 353d f182 063d
00000130: 4bdd 7ebd 5294 813d 5489 6dbd c316 6fbd
00000140: c65e 77bd c7ea 1fbd ce77 74bc 3fce f83c
00000150: 9df7 c13c aeb8 bbbc fa79 793c a193 35bd
00000160: 1913 1dbc b3a2 aa3b 6b44 8a3c 1e97 963d
00000170: 0346 b339 89bf 5f3d 9c39 933d 2138 c7bb
00000180: 7c47 383d 2029 a1bb 61af 183d 017e 07bd
00000190: fd81 ad3d 3c33 4ebc f00f 44bd 1f38 633d
000001a0: 1a41 3cbd 9f02 a5bc f7e1 733c 8fe0 d639
000001b0: 1056 a3bc 6bcb e43d ce44 2fbd 17fc 56bd
000001c0: e0eb 0abd 3476 2b3d 63e2 923c 789b c63b
000001d0: 8301 d7bc 09d7 72bb a456 01bb 2f3c 98bc
000001e0: 83c5 113d a50d 943d d00e 1d3c 2758 79bd
000001f0: 0fe2 4d3d 467f 943d e56e 533c 333c c1bc

fc3.weight f4 [2, 128]
-0.16415417 0.047355793 0.03379309 0.3538295 0.13780154 0.015023579 -0.021327682 0.0905958
0.10374669 -0.17081617 -0.0125900805 -0.022284934 -0.06846371 0.0636887 0.16669087 -0.06275733
0.11723463 -0.08026307 -0.038349267 -0.033799578 -0.06084549 -0.07454324 0.031311255 -0.059538934
0.026195941 0.015012982 0.09517672 0.031462014 -0.118749835 -0.17323731 -0.33840966 0.06328225
-0.042114686 0.09740024 -0.12542467 0.06324398 -0.07725608 -0.00030689035 0.118682094 0.06339414
-0.12033036 -0.044958267 -0.019907394 0.018185234 -0.016091993 0.030865422 -0.09650086 0.056530118
0.07230791 -0.09998157 -0.14226818 0.1165167 0.023413328 0.011612633 -0.04747473 0.08998943
0.092497386 -0.0016418513 -0.02451325 -0.0023642322 -0.01838977 0.01063318 -0.0024148833 -0.079512544
-0.009860026 -0.03886912 -0.009622611 -0.04165175 0.01758962 0.00052171585 -0.12148191 0.13752274
-0.041874833 -0.014597498 -0.032024294 0.054345634 -0.1531086 -0.0006804562 0.16607545 0.055675644
0.11487854 0.10378338 -0.12665306 -0.2427053 -0.25321648 0.19376852 -0.038033232 -0.027569758
0.07797997 0.06003032 -0.12744623 -0.07695903 0.07420539 -0.01955134 -0.15263362 0.09637087
-0.25290734 -0.11147964 -0.1349436 -0.17412478 -0.02270891 0.16896805 -0.06305444 -0.09014907
-0.15926965 0.052288827 -0.151474 0.13057396 -0.115616545 -0.06361369 0.08896178 -0.0834899
-0.092913665 0.0032405902 0.05412437 0.10137176 -0.36400777 -0.07539073 -0.17059939 0.041155346
-0.0223709 -0.08350745 0.14875197 0.041780647 -0.013227924 -0.02815819 0.011955482 0.021987988
-0.12697682 -0.19509204 -0.18748076 0.010076397 -0.062163077 -0.09108345 -0.37674743 -0.053891297
-0.14897828 -0.03930087 -0.4659108 -0.084921286 -0.10936062 -0.10196901 -0.048693825 0.049631927
-0.059852563 -0.020296529 -0.02539658 -0.0223283 -0.019364329 -0.10435163 -0.07974124 -0.07728402
-0.13003524 -0.28055727 -0.034816988 -0.07833594 0.025525006 -0.0661403 -0.16748773 -0.110860005
-0.011439164 -0.21040837 -0.043866258 -0.15877631 -0.06653688 -0.42234898 -0.08307085 -0.00083193573
-0.0019369038 -0.010856762 -0.205743 -0.52986133 -0.07430902 -0.16533576 -0.04509113 -0.06957297
-0.059743352 -0.054537203 -0.044823285 -0.09339774 -0.12967777 0.04042198 -0.1500552 -0.015091048
-0.18843605 -0.42345446 -0.107904665 -0.39344424 -0.22356836 -0.12600416 -0.39474183 -0.034235403
-0.23876232 -0.116548605 -0.06329661 -0.08464599 -0.45769033 -0.099835604 0.023146953 -0.050218917
-0.03743866 -0.18711878 -0.18417504 -0.04697453 -0.023757244 -0.15918134 -0.07599333 -0.061336532
-0.07118771 -0.078430936 -0.045633763 -0.03234598 -0.09626866 -0.081852935 -0.09915814 -0.06324781
-0.07581865 -0.15313247 -0.0789749 -0.014696412 -0.42713198 -0.13405183 0.012138869 -0.12655988
0.018255545 -0.10313596 -0.019680826 -0.0016330722 -0.10195519 0.087794065 -0.011425967 -0.011550196
0.005938484 -0.042995907 -0.26090482 -0.16191307 -0.011454701 0.045955744 -0.11015298 -0.028714655
-0.013468049 -0.49698657 -0.19521096 -0.05867312 -0.10143984 -0.045894936 -0.06082381 -0.09308544
-0.09566783 -0.038049743 -0.07047508 -0.09764895 -0.1530003 -0.09690144 -0.20236747 -0.6013054
00000000: 0818 28be 26f8 413d a06a 0a3d 2429 b53e
00000010: d91b 0d3e 7525 763c 64b7 aebc 4a8a b93d
00000020: 2579 d43d 6fea 2ebe a046 4ebc e58e b6bc
00000030: b436 8cbd 396f 823d 03b1 2a3e ea86 80bd
00000040: b618 f03d f760 a4bd 1f14 1dbd 6d71 0abd
00000050: 1f39 79bd 20aa 98bd 3b40 003d 19df 73bd
00000060: df98 d63c 03f9 753c 03ec c23d 50de 003d
00000070: 1d33 f3bd 1f65 31be 0844 adbe 209a 813d
00000080: 7380 2cbd c779 c73d 536f 00be 0f86 813d
00000090: 7038 9ebd 20e6 a0b9 990f f33d c9d4 813d
000000a0: c46f f6bd 2926 38bd d514 a3bc 33f9 943c
000000b0: 5bd3 83bc 7bd9 fc3c 3ea2 c5bd 208c 673d
000000c0: 2b16 943d 23c3 ccbd c0ae 11be 4fa0 ee3d
000000d0: 4fcd bf3c ea42 3e3c dd74 42bd 614c b83d
000000e0: 456f bd3d 6333 d7ba 03d0 c8bc 3cf1 1abb
000000f0: 25a6 96bc ca36 2e3c 0543 1ebb 79d7 a2bd
00000100: f28b 21bc 3a35 1fbd 28a8 1dbc 079b 2abd
00000110: 1b18 903c c2c3 083a 82cb f8bd c3d2 0c3e
00000120: f284 2bbd 582a 6fbc e82b 03bd 8799 5e3d
00000130: 80c8 1cbe a560 32ba af0f 2a3e 250c 643d
00000140: 7145 eb3d 618c d43d 57b1 01be bd87 78be
00000150: 97a5 81be 416b 463e bcc8 1bbd f9d9 e1bc
00000160: f6b3 9f3d 5ae2 753d 4481 02be b29c 9dbd
00000170: fff8 973d 222a a0bc fd4b 1cbe 175e c53d
00000180: 127d 81be 704f e4bd a82e 0abe c44d 32be
00000190: 0908 babc f605 2d3e b022 81bd 13a0 b8bd
000001a0: 9517 23be cf2c 563d 001c 1bbe 2eb5 053e
000001b0: 5ec8 ecbd e547 82bd 9831 b63d c1fc aabd
000001c0: 8549 bebd 1560 543b 84b1 5d3d ff9b cf3d
000001d0: 3a5f babe 7466 9abd 9bb1 2ebe 8292 283d
000001e0: 2d43 b7bc f405 abbd 7052 183e 2f22 2b3d
000001f0: efb9 58bc 01ac e6bc ede0 433c 2720 b43c
00000200: 3606 02be 35c6 47be f5fa 3fbe 7917 253c
00000210: b69e 7ebd f689 babd 0ae5 c0be 1fbd 5cbd
00000220: c38d 18be f3f9 20bd dc8b eebe 36eb adbd
00000230: 76f8 dfbd 21d5 d0bd 2d73 47bd d94a 4b3d
00000240: f627 75bd e844 a6bc 7d0c d0bc d7e9 b6bc
00000250: f1a1 9ebc 4fb6 d5bd 604f a3bd 1647 9ebd
00000260: f527 05be 34a5 8fbe 429c 0ebd 986e a0bd
00000270: d119 d13c 9174 87bd e781 2bbe 920a e3bd
00000280: 556b 3bbc 4b75 57be 1bad 33bd 4296 22be
00000290: 7d44 88bd 203e d8be 0d21 aabd 4316 5aba
000002a0: b5df fdba 8fe0 31bc 4bae 52be fea4 07bf
000002b0: 542f 98bd c74d 29be 7ab1 38bd 467c 8ebd
000002c0: 72b5 74bd 6762 5fbd 9f98 37bd 5047 bfbd
000002d0: 40ca 04be 8591 253d 12a8 19be 7140 77bc
000002e0: 61f5 40be 06cf d8be 1ffd dcbd 8671 c9be
000002f0: 1bef 64be 3c07 01be 9a1b cabe 6c3a 0cbd
00000300: 1c7e 74be 09b1 eebd a7a1 81bd e05a adbd
00000310: 6356 eabe 9c76 ccbd ae9e bd3c 5ab2 4dbd
00000320: 4859 19bd 119c 3fbe 6298 3cbe 5d68 40bd
00000330: 8d9e c2bc 6f00 23be 64a2 9bbd 043c 7bbd
00000340: ddca 91bd 66a0 a0bd 78ea 3abd 387d 04bd
00000350: 8128 c5bd 83a2 a7bd 6c13 cbbd 1188 81bd
00000360: cf46 9bbd c2ce 1cbe 98bd a1bd 38c9 70bc
00000370: 0bb1 dabe e244 09be 1be2 463c ea98 01be
00000380: a78c 953c f238 d3bd af39 a1bc cf0c d6ba
00000390: e2cd d0bd 60cd b33d fb33 3bbc 093d 3dbc
000003a0: 9d97 c23b 7a1c 30bd 5195 85be 8acc 25be
000003b0: 80ac 3bbc 173c 3c3d e397 e1bd ff3a ebbc
000003c0: 17a9 5cbc 0675 febe 62e5 47be 3a53 70bd
000003d0: b1bf cfbd 54fc 3bbd 6322 79bd 94a3 bebd
000003e0: 7fed c3bd 0cda 1bbd 3d55 90bd 2cfc c7bd
000003f0: 1cac 1cbe 4374 c6bd 6b39 4fbe 27ef 19bf

fc3.bias f4 [2]
-0.022997508 -0.28211772
00000000: 4565 bcbc bc71 90be
